…
I0228 22:27:45.816514 15832 net.cpp:294] The NetState phase (0) differed from the phase (1) specified by a rule in layer mnist
I0228 22:27:45.817507 15832 net.cpp:294] The NetState phase (0) differed from the phase (1) specified by a rule in layer accuracy
I0228 22:27:45.817507 15832 net.cpp:51] Initializing net from parameters: 
name: "LeNet"
state {
  phase: TRAIN
  level: 0
  stage: ""
}
debug_info: true
layer {
  name: "mnist"
  type: "Data"
  top: "data"
  top: "label"
  include {
    phase: TRAIN
  }
  transform_param {
    scale: 0.00390625
  }
  data_param {
    source: "examples/mydata/train"
    batch_size: 32
    backend: LMDB
  }
}
layer {
  name: "conv1"
  type: "Convolution"
  bottom: "data"
  top: "conv1"
  param {
    lr_mult: 1
  }
  param {
    lr_mult: 2
  }
  convolution_param {
    num_output: 20
    kernel_size: 5
    stride: 1
    weight_filler {
      type: "xavier"
    }
    bias_filler {
      type: "constant"
    }
  }
}
layer {
  name: "pool1"
  type: "Pooling"
  bottom: "conv1"
  top: "pool1"
  pooling_param {
    pool: MAX
    kernel_size: 2
    stride: 2
  }
}
layer {
  name: "conv2"
  type: "Convolution"
  bottom: "pool1"
  top: "conv2"
  param {
    lr_mult: 1
  }
  param {
    lr_mult: 2
  }
  convolution_param {
    num_output: 50
    kernel_size: 5
    stride: 1
    weight_filler {
      type: "xavier"
    }
    bias_filler {
      type: "constant"
    }
  }
}
layer {
  name: "pool2"
  type: "Pooling"
  bottom: "conv2"
  top: "pool2"
  pooling_param {
    pool: MAX
    kernel_size: 2
    stride: 2
  }
}
layer {
  name: "ip1"
  type: "InnerProduct"
  bottom: "pool2"
  top: "ip1"
  param {
    lr_mult: 1
  }
  param {
    lr_mult: 2
  }
  inner_product_param {
    num_output: 500
    weight_filler {
      type: "xavier"
    }
    bias_filler {
      type: "constant"
    }
  }
}
layer {
  name: "relu1"
  type: "ReLU"
  bottom: "ip1"
  top: "ip1"
}
layer {
  name: "ip2"
  type: "InnerProduct"
  bottom: "ip1"
  top: "ip2"
  param {
    lr_mult: 1
  }
  param {
    lr_mult: 2
  }
  inner_product_param {
    num_output: 2
    weight_filler {
      type: "xavier"
    }
    bias_filler {
      type: "constant"
    }
  }
}
layer {
  name: "loss"
  type: "SoftmaxWithLoss"
  bottom: "ip2"
  bottom: "label"
  top: "loss"
}
I0228 22:27:45.818509 15832 layer_factory.hpp:77] Creating layer mnist
I0228 22:27:45.831223 15832 db_lmdb.cpp:40] Opened lmdb examples/mydata/train
I0228 22:27:45.851279 15832 net.cpp:84] Creating Layer mnist
I0228 22:27:45.851279 15832 net.cpp:380] mnist -> data
I0228 22:27:45.852282 15832 net.cpp:380] mnist -> label
I0228 22:27:45.853284 15832 data_layer.cpp:45] output data size: 32,3,35,35
I0228 22:27:45.855288 15832 net.cpp:122] Setting up mnist
I0228 22:27:45.855288 15832 net.cpp:129] Top shape: 32 3 35 35 (117600)
I0228 22:27:45.855288 15832 net.cpp:129] Top shape: 32 (32)
I0228 22:27:45.856292 15832 net.cpp:137] Memory required for data: 470528
I0228 22:27:45.856292 15832 layer_factory.hpp:77] Creating layer conv1
I0228 22:27:45.856292 15832 net.cpp:84] Creating Layer conv1
I0228 22:27:45.857293 15832 net.cpp:406] conv1 <- data
I0228 22:27:45.857293 15832 net.cpp:380] conv1 -> conv1
I0228 22:27:46.471997 15832 net.cpp:122] Setting up conv1
I0228 22:27:46.471997 15832 net.cpp:129] Top shape: 32 20 31 31 (615040)
I0228 22:27:46.473000 15832 net.cpp:137] Memory required for data: 2930688
I0228 22:27:46.474002 15832 layer_factory.hpp:77] Creating layer pool1
I0228 22:27:46.478013 15832 net.cpp:84] Creating Layer pool1
I0228 22:27:46.478013 15832 net.cpp:406] pool1 <- conv1
I0228 22:27:46.478013 15832 net.cpp:380] pool1 -> pool1
I0228 22:27:46.479017 15832 net.cpp:122] Setting up pool1
I0228 22:27:46.479017 15832 net.cpp:129] Top shape: 32 20 16 16 (163840)
I0228 22:27:46.479017 15832 net.cpp:137] Memory required for data: 3586048
I0228 22:27:46.479017 15832 layer_factory.hpp:77] Creating layer conv2
I0228 22:27:46.480023 15832 net.cpp:84] Creating Layer conv2
I0228 22:27:46.480023 15832 net.cpp:406] conv2 <- pool1
I0228 22:27:46.480023 15832 net.cpp:380] conv2 -> conv2
I0228 22:27:46.484038 15832 net.cpp:122] Setting up conv2
I0228 22:27:46.484038 15832 net.cpp:129] Top shape: 32 50 12 12 (230400)
I0228 22:27:46.484038 15832 net.cpp:137] Memory required for data: 4507648
I0228 22:27:46.484038 15832 layer_factory.hpp:77] Creating layer pool2
I0228 22:27:46.484038 15832 net.cpp:84] Creating Layer pool2
I0228 22:27:46.485033 15832 net.cpp:406] pool2 <- conv2
I0228 22:27:46.485033 15832 net.cpp:380] pool2 -> pool2
I0228 22:27:46.485033 15832 net.cpp:122] Setting up pool2
I0228 22:27:46.485033 15832 net.cpp:129] Top shape: 32 50 6 6 (57600)
I0228 22:27:46.486035 15832 net.cpp:137] Memory required for data: 4738048
I0228 22:27:46.486035 15832 layer_factory.hpp:77] Creating layer ip1
I0228 22:27:46.486035 15832 net.cpp:84] Creating Layer ip1
I0228 22:27:46.486035 15832 net.cpp:406] ip1 <- pool2
I0228 22:27:46.487037 15832 net.cpp:380] ip1 -> ip1
I0228 22:27:46.493053 15832 net.cpp:122] Setting up ip1
I0228 22:27:46.493053 15832 net.cpp:129] Top shape: 32 500 (16000)
I0228 22:27:46.494056 15832 net.cpp:137] Memory required for data: 4802048
I0228 22:27:46.494056 15832 layer_factory.hpp:77] Creating layer relu1
I0228 22:27:46.494056 15832 net.cpp:84] Creating Layer relu1
I0228 22:27:46.494056 15832 net.cpp:406] relu1 <- ip1
I0228 22:27:46.495059 15832 net.cpp:367] relu1 -> ip1 (in-place)
I0228 22:27:46.495059 15832 net.cpp:122] Setting up relu1
I0228 22:27:46.495059 15832 net.cpp:129] Top shape: 32 500 (16000)
I0228 22:27:46.496062 15832 net.cpp:137] Memory required for data: 4866048
I0228 22:27:46.496062 15832 layer_factory.hpp:77] Creating layer ip2
I0228 22:27:46.496062 15832 net.cpp:84] Creating Layer ip2
I0228 22:27:46.496062 15832 net.cpp:406] ip2 <- ip1
I0228 22:27:46.496062 15832 net.cpp:380] ip2 -> ip2
I0228 22:27:46.497063 15832 net.cpp:122] Setting up ip2
I0228 22:27:46.497063 15832 net.cpp:129] Top shape: 32 2 (64)
I0228 22:27:46.497063 15832 net.cpp:137] Memory required for data: 4866304
I0228 22:27:46.497063 15832 layer_factory.hpp:77] Creating layer loss
I0228 22:27:46.497063 15832 net.cpp:84] Creating Layer loss
I0228 22:27:46.497063 15832 net.cpp:406] loss <- ip2
I0228 22:27:46.498066 15832 net.cpp:406] loss <- label
I0228 22:27:46.498066 15832 net.cpp:380] loss -> loss
I0228 22:27:46.498066 15832 layer_factory.hpp:77] Creating layer loss
…
I0228 22:27:46.502077 15832 solver.cpp:172] Creating test net (#0) specified by net file: E:/DeepLearning/caffe-windows/examples/mydata/lenet.prototxt
I0228 22:27:46.504082 15832 net.cpp:294] The NetState phase (1) differed from the phase (0) specified by a rule in layer mnist
I0228 22:27:46.504082 15832 net.cpp:51] Initializing net from parameters: 
name: "LeNet"
state {
  phase: TEST
}
debug_info: true
layer {
  name: "mnist"
  type: "Data"
  top: "data"
  top: "label"
  include {
    phase: TEST
  }
  transform_param {
    scale: 0.00390625
  }
  data_param {
    source: "examples/mydata/val"
    batch_size: 100
    backend: LMDB
  }
}
layer {
  name: "conv1"
  type: "Convolution"
  bottom: "data"
  top: "conv1"
  param {
    lr_mult: 1
  }
  param {
    lr_mult: 2
  }
  convolution_param {
    num_output: 20
    kernel_size: 5
    stride: 1
    weight_filler {
      type: "xavier"
    }
    bias_filler {
      type: "constant"
    }
  }
}
layer {
  name: "pool1"
  type: "Pooling"
  bottom: "conv1"
  top: "pool1"
  pooling_param {
    pool: MAX
    kernel_size: 2
    stride: 2
  }
}
layer {
  name: "conv2"
  type: "Convolution"
  bottom: "pool1"
  top: "conv2"
  param {
    lr_mult: 1
  }
  param {
    lr_mult: 2
  }
  convolution_param {
    num_output: 50
    kernel_size: 5
    stride: 1
    weight_filler {
      type: "xavier"
    }
    bias_filler {
      type: "constant"
    }
  }
}
layer {
  name: "pool2"
  type: "Pooling"
  bottom: "conv2"
  top: "pool2"
  pooling_param {
    pool: MAX
    kernel_size: 2
    stride: 2
  }
}
layer {
  name: "ip1"
  type: "InnerProduct"
  bottom: "pool2"
  top: "ip1"
  param {
    lr_mult: 1
  }
  param {
    lr_mult: 2
  }
  inner_product_param {
    num_output: 500
    weight_filler {
      type: "xavier"
    }
    bias_filler {
      type: "constant"
    }
  }
}
layer {
  name: "relu1"
  type: "ReLU"
  bottom: "ip1"
  top: "ip1"
}
layer {
  name: "ip2"
  type: "InnerProduct"
  bottom: "ip1"
  top: "ip2"
  param {
    lr_mult: 1
  }
  param {
    lr_mult: 2
  }
  inner_product_param {
    num_output: 2
    weight_filler {
      type: "xavier"
    }
    bias_filler {
      type: "constant"
    }
  }
}
layer {
  name: "accuracy"
  type: "Accuracy"
  bottom: "ip2"
  bottom: "label"
  top: "accuracy"
  include {
    phase: TEST
  }
}
layer {
  name: "loss"
  type: "SoftmaxWithLoss"
  bottom: "ip2"
  bottom: "label"
  top: "loss"
}
I0228 22:27:46.505085 15832 layer_factory.hpp:77] Creating layer mnist
I0228 22:27:46.507091 15832 db_lmdb.cpp:40] Opened lmdb examples/mydata/val
I0228 22:27:46.507091 15832 net.cpp:84] Creating Layer mnist
I0228 22:27:46.508093 15832 net.cpp:380] mnist -> data
I0228 22:27:46.508093 15832 net.cpp:380] mnist -> label
I0228 22:27:46.508093 15832 data_layer.cpp:45] output data size: 100,3,35,35
I0228 22:27:46.513106 15832 net.cpp:122] Setting up mnist
I0228 22:27:46.515111 15832 net.cpp:129] Top shape: 100 3 35 35 (367500)
I0228 22:27:46.515111 15832 net.cpp:129] Top shape: 100 (100)
I0228 22:27:46.516115 15832 net.cpp:137] Memory required for data: 1470400
I0228 22:27:46.516115 15832 layer_factory.hpp:77] Creating layer label_mnist_1_split
I0228 22:27:46.516115 15832 net.cpp:84] Creating Layer label_mnist_1_split
I0228 22:27:46.517118 15832 net.cpp:406] label_mnist_1_split <- label
I0228 22:27:46.517118 15832 net.cpp:380] label_mnist_1_split -> label_mnist_1_split_0
I0228 22:27:46.517118 15832 net.cpp:380] label_mnist_1_split -> label_mnist_1_split_1
I0228 22:27:46.518121 15832 net.cpp:122] Setting up label_mnist_1_split
I0228 22:27:46.518121 15832 net.cpp:129] Top shape: 100 (100)
I0228 22:27:46.519124 15832 net.cpp:129] Top shape: 100 (100)
I0228 22:27:46.519124 15832 net.cpp:137] Memory required for data: 1471200
I0228 22:27:46.519124 15832 layer_factory.hpp:77] Creating layer conv1
I0228 22:27:46.520125 15832 net.cpp:84] Creating Layer conv1
I0228 22:27:46.520125 15832 net.cpp:406] conv1 <- data
I0228 22:27:46.520125 15832 net.cpp:380] conv1 -> conv1
I0228 22:27:46.522130 15832 net.cpp:122] Setting up conv1
I0228 22:27:46.522130 15832 net.cpp:129] Top shape: 100 20 31 31 (1922000)
I0228 22:27:46.522130 15832 net.cpp:137] Memory required for data: 9159200
I0228 22:27:46.522130 15832 layer_factory.hpp:77] Creating layer pool1
I0228 22:27:46.523133 15832 net.cpp:84] Creating Layer pool1
I0228 22:27:46.523133 15832 net.cpp:406] pool1 <- conv1
I0228 22:27:46.523133 15832 net.cpp:380] pool1 -> pool1
I0228 22:27:46.523133 15832 net.cpp:122] Setting up pool1
I0228 22:27:46.523133 15832 net.cpp:129] Top shape: 100 20 16 16 (512000)
I0228 22:27:46.524137 15832 net.cpp:137] Memory required for data: 11207200
I0228 22:27:46.524137  2132 data_layer.cpp:73] Restarting data prefetching from start.
I0228 22:27:46.526140 15832 layer_factory.hpp:77] Creating layer conv2
I0228 22:27:46.527149 15832 net.cpp:84] Creating Layer conv2
I0228 22:27:46.527149 15832 net.cpp:406] conv2 <- pool1
I0228 22:27:46.527149 15832 net.cpp:380] conv2 -> conv2
I0228 22:27:46.530153 15832 net.cpp:122] Setting up conv2
I0228 22:27:46.530153 15832 net.cpp:129] Top shape: 100 50 12 12 (720000)
I0228 22:27:46.530153 15832 net.cpp:137] Memory required for data: 14087200
I0228 22:27:46.531154 15832 layer_factory.hpp:77] Creating layer pool2
I0228 22:27:46.531154 15832 net.cpp:84] Creating Layer pool2
I0228 22:27:46.531154 15832 net.cpp:406] pool2 <- conv2
I0228 22:27:46.531154 15832 net.cpp:380] pool2 -> pool2
I0228 22:27:46.532157 15832 net.cpp:122] Setting up pool2
I0228 22:27:46.532157 15832 net.cpp:129] Top shape: 100 50 6 6 (180000)
I0228 22:27:46.532157 15832 net.cpp:137] Memory required for data: 14807200
I0228 22:27:46.532157 15832 layer_factory.hpp:77] Creating layer ip1
I0228 22:27:46.533160 15832 net.cpp:84] Creating Layer ip1
I0228 22:27:46.533160 15832 net.cpp:406] ip1 <- pool2
I0228 22:27:46.533160 15832 net.cpp:380] ip1 -> ip1
I0228 22:27:46.540202 15832 net.cpp:122] Setting up ip1
I0228 22:27:46.540202 15832 net.cpp:129] Top shape: 100 500 (50000)
I0228 22:27:46.540202 15832 net.cpp:137] Memory required for data: 15007200
I0228 22:27:46.541182 15832 layer_factory.hpp:77] Creating layer relu1
I0228 22:27:46.541182 15832 net.cpp:84] Creating Layer relu1
I0228 22:27:46.541182 15832 net.cpp:406] relu1 <- ip1
I0228 22:27:46.541182 15832 net.cpp:367] relu1 -> ip1 (in-place)
I0228 22:27:46.542184 15832 net.cpp:122] Setting up relu1
I0228 22:27:46.542184 15832 net.cpp:129] Top shape: 100 500 (50000)
I0228 22:27:46.543187 15832 net.cpp:137] Memory required for data: 15207200
I0228 22:27:46.543187 15832 layer_factory.hpp:77] Creating layer ip2
I0228 22:27:46.543187 15832 net.cpp:84] Creating Layer ip2
I0228 22:27:46.543187 15832 net.cpp:406] ip2 <- ip1
I0228 22:27:46.543187 15832 net.cpp:380] ip2 -> ip2
I0228 22:27:46.544189 15832 net.cpp:122] Setting up ip2
I0228 22:27:46.544189 15832 net.cpp:129] Top shape: 100 2 (200)
I0228 22:27:46.544189 15832 net.cpp:137] Memory required for data: 15208000
I0228 22:27:46.544189 15832 layer_factory.hpp:77] Creating layer ip2_ip2_0_split
I0228 22:27:46.544189 15832 net.cpp:84] Creating Layer ip2_ip2_0_split
I0228 22:27:46.545192 15832 net.cpp:406] ip2_ip2_0_split <- ip2
I0228 22:27:46.547197 15832 net.cpp:380] ip2_ip2_0_split -> ip2_ip2_0_split_0
I0228 22:27:46.547197 15832 net.cpp:380] ip2_ip2_0_split -> ip2_ip2_0_split_1
I0228 22:27:46.547197 15832 net.cpp:122] Setting up ip2_ip2_0_split
I0228 22:27:46.547197 15832 net.cpp:129] Top shape: 100 2 (200)
I0228 22:27:46.547197 15832 net.cpp:129] Top shape: 100 2 (200)
I0228 22:27:46.548199 15832 net.cpp:137] Memory required for data: 15209600
I0228 22:27:46.548199 15832 layer_factory.hpp:77] Creating layer accuracy
I0228 22:27:46.548199 15832 net.cpp:84] Creating Layer accuracy
I0228 22:27:46.548199 15832 net.cpp:406] accuracy <- ip2_ip2_0_split_0
I0228 22:27:46.548199 15832 net.cpp:406] accuracy <- label_mnist_1_split_0
I0228 22:27:46.549203 15832 net.cpp:380] accuracy -> accuracy
…
