…
I0228 20:28:33.693434  1252 net.cpp:294] The NetState phase (0) differed from the phase (1) specified by a rule in layer mnist
I0228 20:28:33.693434  1252 net.cpp:294] The NetState phase (0) differed from the phase (1) specified by a rule in layer accuracy
I0228 20:28:33.693434  1252 net.cpp:51] Initializing net from parameters: 
name: "LeNet"
state {
  phase: TRAIN
  level: 0
  stage: ""
}
debug_info: true
layer {
  name: "mnist"
  type: "Data"
  top: "data"
  top: "label"
  include {
    phase: TRAIN
  }
  transform_param {
    scale: 0.00390625
  }
  data_param {
    source: "examples/mydata/train"
    batch_size: 32
    backend: LMDB
  }
}
layer {
  name: "conv1"
  type: "Convolution"
  bottom: "data"
  top: "conv1"
  param {
    lr_mult: 1
  }
  param {
    lr_mult: 2
  }
  convolution_param {
    num_output: 20
    kernel_size: 5
    stride: 1
    weight_filler {
      type: "xavier"
    }
    bias_filler {
      type: "constant"
    }
  }
}
layer {
  name: "pool1"
  type: "Pooling"
  bottom: "conv1"
  top: "pool1"
  pooling_param {
    pool: MAX
    kernel_size: 2
    stride: 2
  }
}
layer {
  name: "conv2"
  type: "Convolution"
  bottom: "pool1"
  top: "conv2"
  param {
    lr_mult: 1
  }
  param {
    lr_mult: 2
  }
  convolution_param {
    num_output: 50
    kernel_size: 5
    stride: 1
    weight_filler {
      type: "xavier"
    }
    bias_filler {
      type: "constant"
    }
  }
}
layer {
  name: "pool2"
  type: "Pooling"
  bottom: "conv2"
  top: "pool2"
  pooling_param {
    pool: MAX
    kernel_size: 2
    stride: 2
  }
}
layer {
  name: "ip1"
  type: "InnerProduct"
  bottom: "pool2"
  top: "ip1"
  param {
    lr_mult: 1
  }
  param {
    lr_mult: 2
  }
  inner_product_param {
    num_output: 500
    weight_filler {
      type: "xavier"
    }
    bias_filler {
      type: "constant"
    }
  }
}
layer {
  name: "relu1"
  type: "ReLU"
  bottom: "ip1"
  top: "ip1"
}
layer {
  name: "ip2"
  type: "InnerProduct"
  bottom: "ip1"
  top: "ip2"
  param {
    lr_mult: 1
  }
  param {
    lr_mult: 2
  }
  inner_product_param {
    num_output: 2
    weight_filler {
      type: "xavier"
    }
    bias_filler {
      type: "constant"
    }
  }
}
layer {
  name: "loss"
  type: "SoftmaxWithLoss"
  bottom: "ip2"
  bottom: "label"
  top: "loss"
}
I0228 20:28:33.694438  1252 layer_factory.hpp:77] Creating layer mnist
I0228 20:28:33.769420  1252 db_lmdb.cpp:40] Opened lmdb examples/mydata/train
I0228 20:28:33.769420  1252 net.cpp:84] Creating Layer mnist
I0228 20:28:33.770218  1252 net.cpp:380] mnist -> data
I0228 20:28:33.770218  1252 net.cpp:380] mnist -> label
I0228 20:28:33.771224  1252 data_layer.cpp:45] output data size: 32,3,35,35
I0228 20:28:33.773228  1252 net.cpp:122] Setting up mnist
I0228 20:28:33.773228  1252 net.cpp:129] Top shape: 32 3 35 35 (117600)
I0228 20:28:33.773228  1252 net.cpp:129] Top shape: 32 (32)
I0228 20:28:33.773228  1252 net.cpp:137] Memory required for data: 470528
I0228 20:28:33.774231  1252 layer_factory.hpp:77] Creating layer conv1
I0228 20:28:33.774231  1252 net.cpp:84] Creating Layer conv1
I0228 20:28:33.774231  1252 net.cpp:406] conv1 <- data
I0228 20:28:33.774231  1252 net.cpp:380] conv1 -> conv1
I0228 20:28:34.395140  1252 net.cpp:122] Setting up conv1
I0228 20:28:34.395140  1252 net.cpp:129] Top shape: 32 20 31 31 (615040)
I0228 20:28:34.396143  1252 net.cpp:137] Memory required for data: 2930688
I0228 20:28:34.398149  1252 layer_factory.hpp:77] Creating layer pool1
I0228 20:28:34.398149  1252 net.cpp:84] Creating Layer pool1
I0228 20:28:34.399152  1252 net.cpp:406] pool1 <- conv1
I0228 20:28:34.399152  1252 net.cpp:380] pool1 -> pool1
I0228 20:28:34.399152  1252 net.cpp:122] Setting up pool1
I0228 20:28:34.399152  1252 net.cpp:129] Top shape: 32 20 16 16 (163840)
I0228 20:28:34.400153  1252 net.cpp:137] Memory required for data: 3586048
I0228 20:28:34.400153  1252 layer_factory.hpp:77] Creating layer conv2
I0228 20:28:34.400153  1252 net.cpp:84] Creating Layer conv2
I0228 20:28:34.400153  1252 net.cpp:406] conv2 <- pool1
I0228 20:28:34.401157  1252 net.cpp:380] conv2 -> conv2
I0228 20:28:34.404170  1252 net.cpp:122] Setting up conv2
I0228 20:28:34.404170  1252 net.cpp:129] Top shape: 32 50 12 12 (230400)
I0228 20:28:34.404170  1252 net.cpp:137] Memory required for data: 4507648
I0228 20:28:34.404170  1252 layer_factory.hpp:77] Creating layer pool2
I0228 20:28:34.404170  1252 net.cpp:84] Creating Layer pool2
I0228 20:28:34.404170  1252 net.cpp:406] pool2 <- conv2
I0228 20:28:34.405167  1252 net.cpp:380] pool2 -> pool2
I0228 20:28:34.407173  1252 net.cpp:122] Setting up pool2
I0228 20:28:34.407173  1252 net.cpp:129] Top shape: 32 50 6 6 (57600)
I0228 20:28:34.407173  1252 net.cpp:137] Memory required for data: 4738048
I0228 20:28:34.407173  1252 layer_factory.hpp:77] Creating layer ip1
I0228 20:28:34.407173  1252 net.cpp:84] Creating Layer ip1
I0228 20:28:34.407173  1252 net.cpp:406] ip1 <- pool2
I0228 20:28:34.408175  1252 net.cpp:380] ip1 -> ip1
I0228 20:28:34.414191  1252 net.cpp:122] Setting up ip1
I0228 20:28:34.414191  1252 net.cpp:129] Top shape: 32 500 (16000)
I0228 20:28:34.414191  1252 net.cpp:137] Memory required for data: 4802048
I0228 20:28:34.415194  1252 layer_factory.hpp:77] Creating layer relu1
I0228 20:28:34.416195  1252 net.cpp:84] Creating Layer relu1
I0228 20:28:34.417199  1252 net.cpp:406] relu1 <- ip1
I0228 20:28:34.418213  1252 net.cpp:367] relu1 -> ip1 (in-place)
I0228 20:28:34.418213  1252 net.cpp:122] Setting up relu1
I0228 20:28:34.419214  1252 net.cpp:129] Top shape: 32 500 (16000)
I0228 20:28:34.419214  1252 net.cpp:137] Memory required for data: 4866048
I0228 20:28:34.419214  1252 layer_factory.hpp:77] Creating layer ip2
I0228 20:28:34.419214  1252 net.cpp:84] Creating Layer ip2
I0228 20:28:34.420207  1252 net.cpp:406] ip2 <- ip1
I0228 20:28:34.420207  1252 net.cpp:380] ip2 -> ip2
I0228 20:28:34.420207  1252 net.cpp:122] Setting up ip2
I0228 20:28:34.421211  1252 net.cpp:129] Top shape: 32 2 (64)
I0228 20:28:34.421211  1252 net.cpp:137] Memory required for data: 4866304
I0228 20:28:34.421211  1252 layer_factory.hpp:77] Creating layer loss
I0228 20:28:34.421211  1252 net.cpp:84] Creating Layer loss
I0228 20:28:34.422212  1252 net.cpp:406] loss <- ip2
I0228 20:28:34.422212  1252 net.cpp:406] loss <- label
I0228 20:28:34.422212  1252 net.cpp:380] loss -> loss
I0228 20:28:34.422212  1252 layer_factory.hpp:77] Creating layer loss
…
I0228 20:28:34.429231  1252 solver.cpp:172] Creating test net (#0) specified by net file: E:/DeepLearning/caffe-windows/examples/mydata/lenet.prototxt
I0228 20:28:34.430233  1252 net.cpp:294] The NetState phase (1) differed from the phase (0) specified by a rule in layer mnist
I0228 20:28:34.430233  1252 net.cpp:51] Initializing net from parameters: 
name: "LeNet"
state {
  phase: TEST
}
debug_info: true
layer {
  name: "mnist"
  type: "Data"
  top: "data"
  top: "label"
  include {
    phase: TEST
  }
  transform_param {
    scale: 0.00390625
  }
  data_param {
    source: "examples/mydata/val"
    batch_size: 32
    backend: LMDB
  }
}
layer {
  name: "conv1"
  type: "Convolution"
  bottom: "data"
  top: "conv1"
  param {
    lr_mult: 1
  }
  param {
    lr_mult: 2
  }
  convolution_param {
    num_output: 20
    kernel_size: 5
    stride: 1
    weight_filler {
      type: "xavier"
    }
    bias_filler {
      type: "constant"
    }
  }
}
layer {
  name: "pool1"
  type: "Pooling"
  bottom: "conv1"
  top: "pool1"
  pooling_param {
    pool: MAX
    kernel_size: 2
    stride: 2
  }
}
layer {
  name: "conv2"
  type: "Convolution"
  bottom: "pool1"
  top: "conv2"
  param {
    lr_mult: 1
  }
  param {
    lr_mult: 2
  }
  convolution_param {
    num_output: 50
    kernel_size: 5
    stride: 1
    weight_filler {
      type: "xavier"
    }
    bias_filler {
      type: "constant"
    }
  }
}
layer {
  name: "pool2"
  type: "Pooling"
  bottom: "conv2"
  top: "pool2"
  pooling_param {
    pool: MAX
    kernel_size: 2
    stride: 2
  }
}
layer {
  name: "ip1"
  type: "InnerProduct"
  bottom: "pool2"
  top: "ip1"
  param {
    lr_mult: 1
  }
  param {
    lr_mult: 2
  }
  inner_product_param {
    num_output: 500
    weight_filler {
      type: "xavier"
    }
    bias_filler {
      type: "constant"
    }
  }
}
layer {
  name: "relu1"
  type: "ReLU"
  bottom: "ip1"
  top: "ip1"
}
layer {
  name: "ip2"
  type: "InnerProduct"
  bottom: "ip1"
  top: "ip2"
  param {
    lr_mult: 1
  }
  param {
    lr_mult: 2
  }
  inner_product_param {
    num_output: 2
    weight_filler {
      type: "xavier"
    }
    bias_filler {
      type: "constant"
    }
  }
}
layer {
  name: "accuracy"
  type: "Accuracy"
  bottom: "ip2"
  bottom: "label"
  top: "accuracy"
  include {
    phase: TEST
  }
}
layer {
  name: "loss"
  type: "SoftmaxWithLoss"
  bottom: "ip2"
  bottom: "label"
  top: "loss"
}
I0228 20:28:34.431237  1252 layer_factory.hpp:77] Creating layer mnist
I0228 20:28:34.446326  1252 db_lmdb.cpp:40] Opened lmdb examples/mydata/val
I0228 20:28:34.446326  1252 net.cpp:84] Creating Layer mnist
I0228 20:28:34.448281  1252 net.cpp:380] mnist -> data
I0228 20:28:34.450284  1252 net.cpp:380] mnist -> label
I0228 20:28:34.450284  1252 data_layer.cpp:45] output data size: 32,3,35,35
I0228 20:28:34.452289  1252 net.cpp:122] Setting up mnist
I0228 20:28:34.452289  1252 net.cpp:129] Top shape: 32 3 35 35 (117600)
I0228 20:28:34.453292  1252 net.cpp:129] Top shape: 32 (32)
I0228 20:28:34.453292  1252 net.cpp:137] Memory required for data: 470528
I0228 20:28:34.453292  1252 layer_factory.hpp:77] Creating layer label_mnist_1_split
I0228 20:28:34.454295  1252 net.cpp:84] Creating Layer label_mnist_1_split
I0228 20:28:34.454295  1252 net.cpp:406] label_mnist_1_split <- label
I0228 20:28:34.454295  1252 net.cpp:380] label_mnist_1_split -> label_mnist_1_split_0
I0228 20:28:34.454295  1252 net.cpp:380] label_mnist_1_split -> label_mnist_1_split_1
I0228 20:28:34.454295  1252 net.cpp:122] Setting up label_mnist_1_split
I0228 20:28:34.455297  1252 net.cpp:129] Top shape: 32 (32)
I0228 20:28:34.456300  1252 net.cpp:129] Top shape: 32 (32)
I0228 20:28:34.456300  1252 net.cpp:137] Memory required for data: 470784
I0228 20:28:34.459311  1252 layer_factory.hpp:77] Creating layer conv1
I0228 20:28:34.459311  1252 net.cpp:84] Creating Layer conv1
I0228 20:28:34.459311  1252 net.cpp:406] conv1 <- data
I0228 20:28:34.460310  1252 net.cpp:380] conv1 -> conv1
I0228 20:28:34.464329  1252 net.cpp:122] Setting up conv1
I0228 20:28:34.464329  1252 net.cpp:129] Top shape: 32 20 31 31 (615040)
I0228 20:28:34.466332  1252 net.cpp:137] Memory required for data: 2930944
I0228 20:28:34.466332  1252 layer_factory.hpp:77] Creating layer pool1
I0228 20:28:34.466332  1252 net.cpp:84] Creating Layer pool1
I0228 20:28:34.466332  1252 net.cpp:406] pool1 <- conv1
I0228 20:28:34.467329  1252 net.cpp:380] pool1 -> pool1
I0228 20:28:34.467329  1252 net.cpp:122] Setting up pool1
I0228 20:28:34.468333  1252 net.cpp:129] Top shape: 32 20 16 16 (163840)
I0228 20:28:34.469336  1252 net.cpp:137] Memory required for data: 3586304
I0228 20:28:34.470355  1252 layer_factory.hpp:77] Creating layer conv2
I0228 20:28:34.470355  1252 net.cpp:84] Creating Layer conv2
I0228 20:28:34.471339  1252 net.cpp:406] conv2 <- pool1
I0228 20:28:34.471339  1252 net.cpp:380] conv2 -> conv2
I0228 20:28:34.474349  1252 net.cpp:122] Setting up conv2
I0228 20:28:34.474349  1252 net.cpp:129] Top shape: 32 50 12 12 (230400)
I0228 20:28:34.475353  1252 net.cpp:137] Memory required for data: 4507904
I0228 20:28:34.475353  1252 layer_factory.hpp:77] Creating layer pool2
I0228 20:28:34.475353  1252 net.cpp:84] Creating Layer pool2
I0228 20:28:34.476354  1252 net.cpp:406] pool2 <- conv2
I0228 20:28:34.476354  1252 net.cpp:380] pool2 -> pool2
I0228 20:28:34.476354  1252 net.cpp:122] Setting up pool2
I0228 20:28:34.476354  1252 net.cpp:129] Top shape: 32 50 6 6 (57600)
I0228 20:28:34.476354  1252 net.cpp:137] Memory required for data: 4738304
I0228 20:28:34.477355  1252 layer_factory.hpp:77] Creating layer ip1
I0228 20:28:34.477355  1252 net.cpp:84] Creating Layer ip1
I0228 20:28:34.477355  1252 net.cpp:406] ip1 <- pool2
I0228 20:28:34.478358  1252 net.cpp:380] ip1 -> ip1
I0228 20:28:34.486398  1252 net.cpp:122] Setting up ip1
I0228 20:28:34.486398  1252 net.cpp:129] Top shape: 32 500 (16000)
I0228 20:28:34.487382  1252 net.cpp:137] Memory required for data: 4802304
I0228 20:28:34.487382  1252 layer_factory.hpp:77] Creating layer relu1
I0228 20:28:34.487382  1252 net.cpp:84] Creating Layer relu1
I0228 20:28:34.488385  1252 net.cpp:406] relu1 <- ip1
I0228 20:28:34.489415  1252 net.cpp:367] relu1 -> ip1 (in-place)
I0228 20:28:34.490435  1252 net.cpp:122] Setting up relu1
I0228 20:28:34.490435  1252 net.cpp:129] Top shape: 32 500 (16000)
I0228 20:28:34.490435  1252 net.cpp:137] Memory required for data: 4866304
I0228 20:28:34.491417  1252 layer_factory.hpp:77] Creating layer ip2
I0228 20:28:34.491417  1252 net.cpp:84] Creating Layer ip2
I0228 20:28:34.491417  1252 net.cpp:406] ip2 <- ip1
I0228 20:28:34.491417  1252 net.cpp:380] ip2 -> ip2
I0228 20:28:34.491417  1252 net.cpp:122] Setting up ip2
I0228 20:28:34.491417  1252 net.cpp:129] Top shape: 32 2 (64)
I0228 20:28:34.492424  1252 net.cpp:137] Memory required for data: 4866560
I0228 20:28:34.492424  1252 layer_factory.hpp:77] Creating layer ip2_ip2_0_split
I0228 20:28:34.492424  1252 net.cpp:84] Creating Layer ip2_ip2_0_split
I0228 20:28:34.492424  1252 net.cpp:406] ip2_ip2_0_split <- ip2
I0228 20:28:34.492424  1252 net.cpp:380] ip2_ip2_0_split -> ip2_ip2_0_split_0
I0228 20:28:34.493569  1252 net.cpp:380] ip2_ip2_0_split -> ip2_ip2_0_split_1
I0228 20:28:34.494575  1252 net.cpp:122] Setting up ip2_ip2_0_split
I0228 20:28:34.494575  1252 net.cpp:129] Top shape: 32 2 (64)
I0228 20:28:34.495577  1252 net.cpp:129] Top shape: 32 2 (64)
I0228 20:28:34.495577  1252 net.cpp:137] Memory required for data: 4867072
I0228 20:28:34.495577  1252 layer_factory.hpp:77] Creating layer accuracy
I0228 20:28:34.495577  1252 net.cpp:84] Creating Layer accuracy
I0228 20:28:34.495577  1252 net.cpp:406] accuracy <- ip2_ip2_0_split_0
I0228 20:28:34.496579  1252 net.cpp:406] accuracy <- label_mnist_1_split_0
I0228 20:28:34.496579  1252 net.cpp:380] accuracy -> accuracy
…
