…
I0228 20:52:17.188711  5408 net.cpp:294] The NetState phase (0) differed from the phase (1) specified by a rule in layer mnist
I0228 20:52:17.188711  5408 net.cpp:294] The NetState phase (0) differed from the phase (1) specified by a rule in layer accuracy
I0228 20:52:17.189715  5408 net.cpp:51] Initializing net from parameters: 
name: "LeNet"
state {
  phase: TRAIN
  level: 0
  stage: ""
}
debug_info: true
layer {
  name: "mnist"
  type: "Data"
  top: "data"
  top: "label"
  include {
    phase: TRAIN
  }
  transform_param {
    scale: 0.00390625
  }
  data_param {
    source: "examples/mydata/train"
    batch_size: 32
    backend: LMDB
  }
}
layer {
  name: "conv1"
  type: "Convolution"
  bottom: "data"
  top: "conv1"
  param {
    lr_mult: 1
  }
  param {
    lr_mult: 2
  }
  convolution_param {
    num_output: 20
    kernel_size: 5
    stride: 1
    weight_filler {
      type: "xavier"
    }
    bias_filler {
      type: "constant"
    }
  }
}
layer {
  name: "pool1"
  type: "Pooling"
  bottom: "conv1"
  top: "pool1"
  pooling_param {
    pool: MAX
    kernel_size: 2
    stride: 2
  }
}
layer {
  name: "conv2"
  type: "Convolution"
  bottom: "pool1"
  top: "conv2"
  param {
    lr_mult: 1
  }
  param {
    lr_mult: 2
  }
  convolution_param {
    num_output: 50
    kernel_size: 5
    stride: 1
    weight_filler {
      type: "xavier"
    }
    bias_filler {
      type: "constant"
    }
  }
}
layer {
  name: "pool2"
  type: "Pooling"
  bottom: "conv2"
  top: "pool2"
  pooling_param {
    pool: MAX
    kernel_size: 2
    stride: 2
  }
}
layer {
  name: "ip1"
  type: "InnerProduct"
  bottom: "pool2"
  top: "ip1"
  param {
    lr_mult: 1
  }
  param {
    lr_mult: 2
  }
  inner_product_param {
    num_output: 500
    weight_filler {
      type: "xavier"
    }
    bias_filler {
      type: "constant"
    }
  }
}
layer {
  name: "relu1"
  type: "ReLU"
  bottom: "ip1"
  top: "ip1"
}
layer {
  name: "ip2"
  type: "InnerProduct"
  bottom: "ip1"
  top: "ip2"
  param {
    lr_mult: 1
  }
  param {
    lr_mult: 2
  }
  inner_product_param {
    num_output: 2
    weight_filler {
      type: "xavier"
    }
    bias_filler {
      type: "constant"
    }
  }
}
layer {
  name: "loss"
  type: "SoftmaxWithLoss"
  bottom: "ip2"
  bottom: "label"
  top: "loss"
}
I0228 20:52:17.192579  5408 layer_factory.hpp:77] Creating layer mnist
I0228 20:52:17.196588  5408 db_lmdb.cpp:40] Opened lmdb examples/mydata/train
I0228 20:52:17.211871  5408 net.cpp:84] Creating Layer mnist
I0228 20:52:17.211871  5408 net.cpp:380] mnist -> data
I0228 20:52:17.212874  5408 net.cpp:380] mnist -> label
I0228 20:52:17.213877  5408 data_layer.cpp:45] output data size: 32,3,35,35
I0228 20:52:17.215883  5408 net.cpp:122] Setting up mnist
I0228 20:52:17.215883  5408 net.cpp:129] Top shape: 32 3 35 35 (117600)
I0228 20:52:17.216884  5408 net.cpp:129] Top shape: 32 (32)
I0228 20:52:17.216884  5408 net.cpp:137] Memory required for data: 470528
I0228 20:52:17.216884  5408 layer_factory.hpp:77] Creating layer conv1
I0228 20:52:17.216884  5408 net.cpp:84] Creating Layer conv1
I0228 20:52:17.217886  5408 net.cpp:406] conv1 <- data
I0228 20:52:17.217886  5408 net.cpp:380] conv1 -> conv1
I0228 20:52:17.825958  5408 net.cpp:122] Setting up conv1
I0228 20:52:17.825958  5408 net.cpp:129] Top shape: 32 20 31 31 (615040)
I0228 20:52:17.825958  5408 net.cpp:137] Memory required for data: 2930688
I0228 20:52:17.826933  5408 layer_factory.hpp:77] Creating layer pool1
I0228 20:52:17.826933  5408 net.cpp:84] Creating Layer pool1
I0228 20:52:17.826933  5408 net.cpp:406] pool1 <- conv1
I0228 20:52:17.827944  5408 net.cpp:380] pool1 -> pool1
I0228 20:52:17.827944  5408 net.cpp:122] Setting up pool1
I0228 20:52:17.827944  5408 net.cpp:129] Top shape: 32 20 16 16 (163840)
I0228 20:52:17.827944  5408 net.cpp:137] Memory required for data: 3586048
I0228 20:52:17.828938  5408 layer_factory.hpp:77] Creating layer conv2
I0228 20:52:17.828938  5408 net.cpp:84] Creating Layer conv2
I0228 20:52:17.828938  5408 net.cpp:406] conv2 <- pool1
I0228 20:52:17.828938  5408 net.cpp:380] conv2 -> conv2
I0228 20:52:17.833951  5408 net.cpp:122] Setting up conv2
I0228 20:52:17.833951  5408 net.cpp:129] Top shape: 32 50 12 12 (230400)
I0228 20:52:17.833951  5408 net.cpp:137] Memory required for data: 4507648
I0228 20:52:17.833951  5408 layer_factory.hpp:77] Creating layer pool2
I0228 20:52:17.834954  5408 net.cpp:84] Creating Layer pool2
I0228 20:52:17.836961  5408 net.cpp:406] pool2 <- conv2
I0228 20:52:17.837330  5408 net.cpp:380] pool2 -> pool2
I0228 20:52:17.837330  5408 net.cpp:122] Setting up pool2
I0228 20:52:17.837330  5408 net.cpp:129] Top shape: 32 50 6 6 (57600)
I0228 20:52:17.837330  5408 net.cpp:137] Memory required for data: 4738048
I0228 20:52:17.838336  5408 layer_factory.hpp:77] Creating layer ip1
I0228 20:52:17.838336  5408 net.cpp:84] Creating Layer ip1
I0228 20:52:17.838336  5408 net.cpp:406] ip1 <- pool2
I0228 20:52:17.838336  5408 net.cpp:380] ip1 -> ip1
I0228 20:52:17.845372  5408 net.cpp:122] Setting up ip1
I0228 20:52:17.846374  5408 net.cpp:129] Top shape: 32 500 (16000)
I0228 20:52:17.846374  5408 net.cpp:137] Memory required for data: 4802048
I0228 20:52:17.846374  5408 layer_factory.hpp:77] Creating layer relu1
I0228 20:52:17.847359  5408 net.cpp:84] Creating Layer relu1
I0228 20:52:17.847359  5408 net.cpp:406] relu1 <- ip1
I0228 20:52:17.847359  5408 net.cpp:367] relu1 -> ip1 (in-place)
I0228 20:52:17.849364  5408 net.cpp:122] Setting up relu1
I0228 20:52:17.849364  5408 net.cpp:129] Top shape: 32 500 (16000)
I0228 20:52:17.849364  5408 net.cpp:137] Memory required for data: 4866048
I0228 20:52:17.849364  5408 layer_factory.hpp:77] Creating layer ip2
I0228 20:52:17.849364  5408 net.cpp:84] Creating Layer ip2
I0228 20:52:17.850366  5408 net.cpp:406] ip2 <- ip1
I0228 20:52:17.850366  5408 net.cpp:380] ip2 -> ip2
I0228 20:52:17.850366  5408 net.cpp:122] Setting up ip2
I0228 20:52:17.850366  5408 net.cpp:129] Top shape: 32 2 (64)
I0228 20:52:17.850366  5408 net.cpp:137] Memory required for data: 4866304
I0228 20:52:17.851369  5408 layer_factory.hpp:77] Creating layer loss
I0228 20:52:17.851369  5408 net.cpp:84] Creating Layer loss
I0228 20:52:17.851369  5408 net.cpp:406] loss <- ip2
I0228 20:52:17.851369  5408 net.cpp:406] loss <- label
I0228 20:52:17.851369  5408 net.cpp:380] loss -> loss
I0228 20:52:17.852372  5408 layer_factory.hpp:77] Creating layer loss
…
I0228 20:52:17.858389  5408 solver.cpp:172] Creating test net (#0) specified by net file: E:/DeepLearning/caffe-windows/examples/mydata/lenet.prototxt
I0228 20:52:17.858389  5408 net.cpp:294] The NetState phase (1) differed from the phase (0) specified by a rule in layer mnist
I0228 20:52:17.858389  5408 net.cpp:51] Initializing net from parameters: 
name: "LeNet"
state {
  phase: TEST
}
debug_info: true
layer {
  name: "mnist"
  type: "Data"
  top: "data"
  top: "label"
  include {
    phase: TEST
  }
  transform_param {
    scale: 0.00390625
  }
  data_param {
    source: "examples/mydata/val"
    batch_size: 32
    backend: LMDB
  }
}
layer {
  name: "conv1"
  type: "Convolution"
  bottom: "data"
  top: "conv1"
  param {
    lr_mult: 1
  }
  param {
    lr_mult: 2
  }
  convolution_param {
    num_output: 20
    kernel_size: 5
    stride: 1
    weight_filler {
      type: "xavier"
    }
    bias_filler {
      type: "constant"
    }
  }
}
layer {
  name: "pool1"
  type: "Pooling"
  bottom: "conv1"
  top: "pool1"
  pooling_param {
    pool: MAX
    kernel_size: 2
    stride: 2
  }
}
layer {
  name: "conv2"
  type: "Convolution"
  bottom: "pool1"
  top: "conv2"
  param {
    lr_mult: 1
  }
  param {
    lr_mult: 2
  }
  convolution_param {
    num_output: 50
    kernel_size: 5
    stride: 1
    weight_filler {
      type: "xavier"
    }
    bias_filler {
      type: "constant"
    }
  }
}
layer {
  name: "pool2"
  type: "Pooling"
  bottom: "conv2"
  top: "pool2"
  pooling_param {
    pool: MAX
    kernel_size: 2
    stride: 2
  }
}
layer {
  name: "ip1"
  type: "InnerProduct"
  bottom: "pool2"
  top: "ip1"
  param {
    lr_mult: 1
  }
  param {
    lr_mult: 2
  }
  inner_product_param {
    num_output: 500
    weight_filler {
      type: "xavier"
    }
    bias_filler {
      type: "constant"
    }
  }
}
layer {
  name: "relu1"
  type: "ReLU"
  bottom: "ip1"
  top: "ip1"
}
layer {
  name: "ip2"
  type: "InnerProduct"
  bottom: "ip1"
  top: "ip2"
  param {
    lr_mult: 1
  }
  param {
    lr_mult: 2
  }
  inner_product_param {
    num_output: 2
    weight_filler {
      type: "xavier"
    }
    bias_filler {
      type: "constant"
    }
  }
}
layer {
  name: "accuracy"
  type: "Accuracy"
  bottom: "ip2"
  bottom: "label"
  top: "accuracy"
  include {
    phase: TEST
  }
}
layer {
  name: "loss"
  type: "SoftmaxWithLoss"
  bottom: "ip2"
  bottom: "label"
  top: "loss"
}
I0228 20:52:17.859391  5408 layer_factory.hpp:77] Creating layer mnist
I0228 20:52:17.870637  5408 db_lmdb.cpp:40] Opened lmdb examples/mydata/val
I0228 20:52:17.882388  5408 net.cpp:84] Creating Layer mnist
I0228 20:52:17.882388  5408 net.cpp:380] mnist -> data
I0228 20:52:17.883386  5408 net.cpp:380] mnist -> label
I0228 20:52:17.883386  5408 data_layer.cpp:45] output data size: 32,3,35,35
I0228 20:52:17.885393  5408 net.cpp:122] Setting up mnist
I0228 20:52:17.885393  5408 net.cpp:129] Top shape: 32 3 35 35 (117600)
I0228 20:52:17.885393  5408 net.cpp:129] Top shape: 32 (32)
I0228 20:52:17.886395  5408 net.cpp:137] Memory required for data: 470528
I0228 20:52:17.887398  5408 layer_factory.hpp:77] Creating layer label_mnist_1_split
I0228 20:52:17.887398  5408 net.cpp:84] Creating Layer label_mnist_1_split
I0228 20:52:17.887398  5408 net.cpp:406] label_mnist_1_split <- label
I0228 20:52:17.888399  5408 net.cpp:380] label_mnist_1_split -> label_mnist_1_split_0
I0228 20:52:17.888399  5408 net.cpp:380] label_mnist_1_split -> label_mnist_1_split_1
I0228 20:52:17.888399  5408 net.cpp:122] Setting up label_mnist_1_split
I0228 20:52:17.888399  5408 net.cpp:129] Top shape: 32 (32)
I0228 20:52:17.888399  5408 net.cpp:129] Top shape: 32 (32)
I0228 20:52:17.889402  5408 net.cpp:137] Memory required for data: 470784
I0228 20:52:17.889402  5408 layer_factory.hpp:77] Creating layer conv1
I0228 20:52:17.889402  5408 net.cpp:84] Creating Layer conv1
I0228 20:52:17.889402  5408 net.cpp:406] conv1 <- data
I0228 20:52:17.889402  5408 net.cpp:380] conv1 -> conv1
I0228 20:52:17.892426  5408 net.cpp:122] Setting up conv1
I0228 20:52:17.892426  5408 net.cpp:129] Top shape: 32 20 31 31 (615040)
I0228 20:52:17.892426  5408 net.cpp:137] Memory required for data: 2930944
I0228 20:52:17.892426  5408 layer_factory.hpp:77] Creating layer pool1
I0228 20:52:17.892426  5408 net.cpp:84] Creating Layer pool1
I0228 20:52:17.893414  5408 net.cpp:406] pool1 <- conv1
I0228 20:52:17.893414  5408 net.cpp:380] pool1 -> pool1
I0228 20:52:17.893414  5408 net.cpp:122] Setting up pool1
I0228 20:52:17.893414  5408 net.cpp:129] Top shape: 32 20 16 16 (163840)
I0228 20:52:17.893414  5408 net.cpp:137] Memory required for data: 3586304
I0228 20:52:17.894415  5408 layer_factory.hpp:77] Creating layer conv2
I0228 20:52:17.894415  5408 net.cpp:84] Creating Layer conv2
I0228 20:52:17.894415  5408 net.cpp:406] conv2 <- pool1
I0228 20:52:17.894415  5408 net.cpp:380] conv2 -> conv2
I0228 20:52:17.896421  5408 net.cpp:122] Setting up conv2
I0228 20:52:17.898427  5408 net.cpp:129] Top shape: 32 50 12 12 (230400)
I0228 20:52:17.898427  5408 net.cpp:137] Memory required for data: 4507904
I0228 20:52:17.898427  5408 layer_factory.hpp:77] Creating layer pool2
I0228 20:52:17.899428  5408 net.cpp:84] Creating Layer pool2
I0228 20:52:17.899428  5408 net.cpp:406] pool2 <- conv2
I0228 20:52:17.899428  5408 net.cpp:380] pool2 -> pool2
I0228 20:52:17.899428  5408 net.cpp:122] Setting up pool2
I0228 20:52:17.899428  5408 net.cpp:129] Top shape: 32 50 6 6 (57600)
I0228 20:52:17.900431  5408 net.cpp:137] Memory required for data: 4738304
I0228 20:52:17.901437  5408 layer_factory.hpp:77] Creating layer ip1
I0228 20:52:17.901437  5408 net.cpp:84] Creating Layer ip1
I0228 20:52:17.901437  5408 net.cpp:406] ip1 <- pool2
I0228 20:52:17.901437  5408 net.cpp:380] ip1 -> ip1
I0228 20:52:17.908495  5408 net.cpp:122] Setting up ip1
I0228 20:52:17.908495  5408 net.cpp:129] Top shape: 32 500 (16000)
I0228 20:52:17.909456  5408 net.cpp:137] Memory required for data: 4802304
I0228 20:52:17.909456  5408 layer_factory.hpp:77] Creating layer relu1
I0228 20:52:17.909456  5408 net.cpp:84] Creating Layer relu1
I0228 20:52:17.911460  5408 net.cpp:406] relu1 <- ip1
I0228 20:52:17.911460  5408 net.cpp:367] relu1 -> ip1 (in-place)
I0228 20:52:17.912463  5408 net.cpp:122] Setting up relu1
I0228 20:52:17.912463  5408 net.cpp:129] Top shape: 32 500 (16000)
I0228 20:52:17.913466  5408 net.cpp:137] Memory required for data: 4866304
I0228 20:52:17.913466  5408 layer_factory.hpp:77] Creating layer ip2
I0228 20:52:17.913466  5408 net.cpp:84] Creating Layer ip2
I0228 20:52:17.913466  5408 net.cpp:406] ip2 <- ip1
I0228 20:52:17.913466  5408 net.cpp:380] ip2 -> ip2
I0228 20:52:17.914469  5408 net.cpp:122] Setting up ip2
I0228 20:52:17.914469  5408 net.cpp:129] Top shape: 32 2 (64)
I0228 20:52:17.914469  5408 net.cpp:137] Memory required for data: 4866560
I0228 20:52:17.914469  5408 layer_factory.hpp:77] Creating layer ip2_ip2_0_split
I0228 20:52:17.914469  5408 net.cpp:84] Creating Layer ip2_ip2_0_split
I0228 20:52:17.915472  5408 net.cpp:406] ip2_ip2_0_split <- ip2
I0228 20:52:17.915472  5408 net.cpp:380] ip2_ip2_0_split -> ip2_ip2_0_split_0
I0228 20:52:17.915472  5408 net.cpp:380] ip2_ip2_0_split -> ip2_ip2_0_split_1
I0228 20:52:17.915472  5408 net.cpp:122] Setting up ip2_ip2_0_split
I0228 20:52:17.916474  5408 net.cpp:129] Top shape: 32 2 (64)
I0228 20:52:17.916474  5408 net.cpp:129] Top shape: 32 2 (64)
I0228 20:52:17.916474  5408 net.cpp:137] Memory required for data: 4867072
I0228 20:52:17.916474  5408 layer_factory.hpp:77] Creating layer accuracy
I0228 20:52:17.916474  5408 net.cpp:84] Creating Layer accuracy
I0228 20:52:17.916474  5408 net.cpp:406] accuracy <- ip2_ip2_0_split_0
I0228 20:52:17.917477  5408 net.cpp:406] accuracy <- label_mnist_1_split_0
I0228 20:52:17.919483  5408 net.cpp:380] accuracy -> accuracy
…
