…
I0228 18:53:27.101217 18912 net.cpp:294] The NetState phase (0) differed from the phase (1) specified by a rule in layer accuracy
I0228 18:53:27.101217 18912 net.cpp:51] Initializing net from parameters: 
name: "LeNet"
state {
  phase: TRAIN
  level: 0
  stage: ""
}
debug_info: true
layer {
  name: "mnist"
  type: "Data"
  top: "data"
  top: "label"
  include {
    phase: TRAIN
  }
  transform_param {
    mean_file: "examples/mydata/mydata_mean.binaryproto"
  }
  data_param {
    source: "examples/mydata/train"
    batch_size: 32
    backend: LMDB
  }
}
layer {
  name: "conv1"
  type: "Convolution"
  bottom: "data"
  top: "conv1"
  param {
    lr_mult: 1
  }
  param {
    lr_mult: 2
  }
  convolution_param {
    num_output: 20
    kernel_size: 5
    stride: 1
    weight_filler {
      type: "xavier"
    }
    bias_filler {
      type: "constant"
    }
  }
}
layer {
  name: "pool1"
  type: "Pooling"
  bottom: "conv1"
  top: "pool1"
  pooling_param {
    pool: MAX
    kernel_size: 2
    stride: 2
  }
}
layer {
  name: "conv2"
  type: "Convolution"
  bottom: "pool1"
  top: "conv2"
  param {
    lr_mult: 1
  }
  param {
    lr_mult: 2
  }
  convolution_param {
    num_output: 50
    kernel_size: 5
    stride: 1
    weight_filler {
      type: "xavier"
    }
    bias_filler {
      type: "constant"
    }
  }
}
layer {
  name: "pool2"
  type: "Pooling"
  bottom: "conv2"
  top: "pool2"
  pooling_param {
    pool: MAX
    kernel_size: 2
    stride: 2
  }
}
layer {
  name: "ip1"
  type: "InnerProduct"
  bottom: "pool2"
  top: "ip1"
  param {
    lr_mult: 1
  }
  param {
    lr_mult: 2
  }
  inner_product_param {
    num_output: 500
    weight_filler {
      type: "xavier"
    }
    bias_filler {
      type: "constant"
    }
  }
}
layer {
  name: "relu1"
  type: "ReLU"
  bottom: "ip1"
  top: "ip1"
}
layer {
  name: "ip2"
  type: "InnerProduct"
  bottom: "ip1"
  top: "ip2"
  param {
    lr_mult: 1
  }
  param {
    lr_mult: 2
  }
  inner_product_param {
    num_output: 2
    weight_filler {
      type: "xavier"
    }
    bias_filler {
      type: "constant"
    }
  }
}
layer {
  name: "loss"
  type: "SoftmaxWithLoss"
  bottom: "ip2"
  bottom: "label"
  top: "loss"
}
I0228 18:53:27.102219 18912 layer_factory.hpp:77] Creating layer mnist
I0228 18:53:27.312937 18912 db_lmdb.cpp:40] Opened lmdb examples/mydata/train
I0228 18:53:27.313866 18912 net.cpp:84] Creating Layer mnist
I0228 18:53:27.314885 18912 net.cpp:380] mnist -> data
I0228 18:53:27.314885 18912 net.cpp:380] mnist -> label
I0228 18:53:27.315871 18912 data_transformer.cpp:26] Loading mean file from: examples/mydata/mydata_mean.binaryproto
I0228 18:53:27.320883 18912 data_layer.cpp:45] output data size: 32,3,35,35
I0228 18:53:27.322890 18912 net.cpp:122] Setting up mnist
I0228 18:53:27.322890 18912 net.cpp:129] Top shape: 32 3 35 35 (117600)
I0228 18:53:27.323890 18912 net.cpp:129] Top shape: 32 (32)
I0228 18:53:27.323890 18912 net.cpp:137] Memory required for data: 470528
I0228 18:53:27.324893 18912 layer_factory.hpp:77] Creating layer conv1
I0228 18:53:27.324893 18912 net.cpp:84] Creating Layer conv1
I0228 18:53:27.324893 18912 net.cpp:406] conv1 <- data
I0228 18:53:27.324893 18912 net.cpp:380] conv1 -> conv1
I0228 18:53:27.927415 18912 net.cpp:122] Setting up conv1
I0228 18:53:27.927415 18912 net.cpp:129] Top shape: 32 20 31 31 (615040)
I0228 18:53:27.928419 18912 net.cpp:137] Memory required for data: 2930688
I0228 18:53:27.928419 18912 layer_factory.hpp:77] Creating layer pool1
I0228 18:53:27.928419 18912 net.cpp:84] Creating Layer pool1
I0228 18:53:27.929420 18912 net.cpp:406] pool1 <- conv1
I0228 18:53:27.929420 18912 net.cpp:380] pool1 -> pool1
I0228 18:53:27.929420 18912 net.cpp:122] Setting up pool1
I0228 18:53:27.929420 18912 net.cpp:129] Top shape: 32 20 16 16 (163840)
I0228 18:53:27.929420 18912 net.cpp:137] Memory required for data: 3586048
I0228 18:53:27.930424 18912 layer_factory.hpp:77] Creating layer conv2
I0228 18:53:27.930424 18912 net.cpp:84] Creating Layer conv2
I0228 18:53:27.930424 18912 net.cpp:406] conv2 <- pool1
I0228 18:53:27.930424 18912 net.cpp:380] conv2 -> conv2
I0228 18:53:27.933432 18912 net.cpp:122] Setting up conv2
I0228 18:53:27.934434 18912 net.cpp:129] Top shape: 32 50 12 12 (230400)
I0228 18:53:27.934434 18912 net.cpp:137] Memory required for data: 4507648
I0228 18:53:27.934434 18912 layer_factory.hpp:77] Creating layer pool2
I0228 18:53:27.934434 18912 net.cpp:84] Creating Layer pool2
I0228 18:53:27.934434 18912 net.cpp:406] pool2 <- conv2
I0228 18:53:27.935437 18912 net.cpp:380] pool2 -> pool2
I0228 18:53:27.935437 18912 net.cpp:122] Setting up pool2
I0228 18:53:27.935437 18912 net.cpp:129] Top shape: 32 50 6 6 (57600)
I0228 18:53:27.935437 18912 net.cpp:137] Memory required for data: 4738048
I0228 18:53:27.935437 18912 layer_factory.hpp:77] Creating layer ip1
I0228 18:53:27.936439 18912 net.cpp:84] Creating Layer ip1
I0228 18:53:27.936439 18912 net.cpp:406] ip1 <- pool2
I0228 18:53:27.936439 18912 net.cpp:380] ip1 -> ip1
I0228 18:53:27.942456 18912 net.cpp:122] Setting up ip1
I0228 18:53:27.943457 18912 net.cpp:129] Top shape: 32 500 (16000)
I0228 18:53:27.943457 18912 net.cpp:137] Memory required for data: 4802048
I0228 18:53:27.943457 18912 layer_factory.hpp:77] Creating layer relu1
I0228 18:53:27.945466 18912 net.cpp:84] Creating Layer relu1
I0228 18:53:27.945466 18912 net.cpp:406] relu1 <- ip1
I0228 18:53:27.946467 18912 net.cpp:367] relu1 -> ip1 (in-place)
I0228 18:53:27.946467 18912 net.cpp:122] Setting up relu1
I0228 18:53:27.946467 18912 net.cpp:129] Top shape: 32 500 (16000)
I0228 18:53:27.947469 18912 net.cpp:137] Memory required for data: 4866048
I0228 18:53:27.947469 18912 layer_factory.hpp:77] Creating layer ip2
I0228 18:53:27.947469 18912 net.cpp:84] Creating Layer ip2
I0228 18:53:27.947469 18912 net.cpp:406] ip2 <- ip1
I0228 18:53:27.947469 18912 net.cpp:380] ip2 -> ip2
I0228 18:53:27.948472 18912 net.cpp:122] Setting up ip2
I0228 18:53:27.948472 18912 net.cpp:129] Top shape: 32 2 (64)
I0228 18:53:27.949475 18912 net.cpp:137] Memory required for data: 4866304
I0228 18:53:27.950479 18912 layer_factory.hpp:77] Creating layer loss
I0228 18:53:27.950479 18912 net.cpp:84] Creating Layer loss
I0228 18:53:27.950479 18912 net.cpp:406] loss <- ip2
I0228 18:53:27.950479 18912 net.cpp:406] loss <- label
I0228 18:53:27.950479 18912 net.cpp:380] loss -> loss
I0228 18:53:27.951481 18912 layer_factory.hpp:77] Creating layer loss
…
I0228 18:53:27.954488 18912 solver.cpp:172] Creating test net (#0) specified by net file: E:/DeepLearning/caffe-windows/examples/mydata/lenet.prototxt
I0228 18:53:27.955492 18912 net.cpp:294] The NetState phase (1) differed from the phase (0) specified by a rule in layer mnist
I0228 18:53:27.955492 18912 net.cpp:51] Initializing net from parameters: 
name: "LeNet"
state {
  phase: TEST
}
debug_info: true
layer {
  name: "mnist"
  type: "Data"
  top: "data"
  top: "label"
  include {
    phase: TEST
  }
  transform_param {
    mean_file: "examples/mydata/mydata_mean.binaryproto"
  }
  data_param {
    source: "examples/mydata/val"
    batch_size: 32
    backend: LMDB
  }
}
layer {
  name: "conv1"
  type: "Convolution"
  bottom: "data"
  top: "conv1"
  param {
    lr_mult: 1
  }
  param {
    lr_mult: 2
  }
  convolution_param {
    num_output: 20
    kernel_size: 5
    stride: 1
    weight_filler {
      type: "xavier"
    }
    bias_filler {
      type: "constant"
    }
  }
}
layer {
  name: "pool1"
  type: "Pooling"
  bottom: "conv1"
  top: "pool1"
  pooling_param {
    pool: MAX
    kernel_size: 2
    stride: 2
  }
}
layer {
  name: "conv2"
  type: "Convolution"
  bottom: "pool1"
  top: "conv2"
  param {
    lr_mult: 1
  }
  param {
    lr_mult: 2
  }
  convolution_param {
    num_output: 50
    kernel_size: 5
    stride: 1
    weight_filler {
      type: "xavier"
    }
    bias_filler {
      type: "constant"
    }
  }
}
layer {
  name: "pool2"
  type: "Pooling"
  bottom: "conv2"
  top: "pool2"
  pooling_param {
    pool: MAX
    kernel_size: 2
    stride: 2
  }
}
layer {
  name: "ip1"
  type: "InnerProduct"
  bottom: "pool2"
  top: "ip1"
  param {
    lr_mult: 1
  }
  param {
    lr_mult: 2
  }
  inner_product_param {
    num_output: 500
    weight_filler {
      type: "xavier"
    }
    bias_filler {
      type: "constant"
    }
  }
}
layer {
  name: "relu1"
  type: "ReLU"
  bottom: "ip1"
  top: "ip1"
}
layer {
  name: "ip2"
  type: "InnerProduct"
  bottom: "ip1"
  top: "ip2"
  param {
    lr_mult: 1
  }
  param {
    lr_mult: 2
  }
  inner_product_param {
    num_output: 2
    weight_filler {
      type: "xavier"
    }
    bias_filler {
      type: "constant"
    }
  }
}
layer {
  name: "accuracy"
  type: "Accuracy"
  bottom: "ip2"
  bottom: "label"
  top: "accuracy"
  include {
    phase: TEST
  }
}
layer {
  name: "loss"
  type: "SoftmaxWithLoss"
  bottom: "ip2"
  bottom: "label"
  top: "loss"
}
I0228 18:53:27.956493 18912 layer_factory.hpp:77] Creating layer mnist
I0228 18:53:27.977548 18912 db_lmdb.cpp:40] Opened lmdb examples/mydata/val
I0228 18:53:27.991052 18912 net.cpp:84] Creating Layer mnist
I0228 18:53:27.991144 18912 net.cpp:380] mnist -> data
I0228 18:53:27.991144 18912 net.cpp:380] mnist -> label
I0228 18:53:27.992151 18912 data_transformer.cpp:26] Loading mean file from: examples/mydata/mydata_mean.binaryproto
I0228 18:53:27.992151 18912 data_layer.cpp:45] output data size: 32,3,35,35
I0228 18:53:27.996160 18912 net.cpp:122] Setting up mnist
I0228 18:53:27.997187 18912 net.cpp:129] Top shape: 32 3 35 35 (117600)
I0228 18:53:27.997187 18912 net.cpp:129] Top shape: 32 (32)
I0228 18:53:27.997187 18912 net.cpp:137] Memory required for data: 470528
I0228 18:53:27.998167 18912 layer_factory.hpp:77] Creating layer label_mnist_1_split
I0228 18:53:27.998167 18912 net.cpp:84] Creating Layer label_mnist_1_split
I0228 18:53:27.998167 18912 net.cpp:406] label_mnist_1_split <- label
I0228 18:53:27.998167 18912 net.cpp:380] label_mnist_1_split -> label_mnist_1_split_0
I0228 18:53:27.999168 18912 net.cpp:380] label_mnist_1_split -> label_mnist_1_split_1
I0228 18:53:27.999168 18912 net.cpp:122] Setting up label_mnist_1_split
I0228 18:53:27.999168 18912 net.cpp:129] Top shape: 32 (32)
I0228 18:53:27.999168 18912 net.cpp:129] Top shape: 32 (32)
I0228 18:53:28.000171 18912 net.cpp:137] Memory required for data: 470784
I0228 18:53:28.000171 18912 layer_factory.hpp:77] Creating layer conv1
I0228 18:53:28.000171 18912 net.cpp:84] Creating Layer conv1
I0228 18:53:28.000171 18912 net.cpp:406] conv1 <- data
I0228 18:53:28.000171 18912 net.cpp:380] conv1 -> conv1
I0228 18:53:28.003178 18912 net.cpp:122] Setting up conv1
I0228 18:53:28.003178 18912 net.cpp:129] Top shape: 32 20 31 31 (615040)
I0228 18:53:28.004181 18912 net.cpp:137] Memory required for data: 2930944
I0228 18:53:28.004181 18912 layer_factory.hpp:77] Creating layer pool1
I0228 18:53:28.004181 18912 net.cpp:84] Creating Layer pool1
I0228 18:53:28.004181 18912 net.cpp:406] pool1 <- conv1
I0228 18:53:28.004181 18912 net.cpp:380] pool1 -> pool1
I0228 18:53:28.005184 18912 net.cpp:122] Setting up pool1
I0228 18:53:28.005184 18912 net.cpp:129] Top shape: 32 20 16 16 (163840)
I0228 18:53:28.005184 18912 net.cpp:137] Memory required for data: 3586304
I0228 18:53:28.005184 18912 layer_factory.hpp:77] Creating layer conv2
I0228 18:53:28.005184 18912 net.cpp:84] Creating Layer conv2
I0228 18:53:28.008193 18912 net.cpp:406] conv2 <- pool1
I0228 18:53:28.008193 18912 net.cpp:380] conv2 -> conv2
I0228 18:53:28.011199 18912 net.cpp:122] Setting up conv2
I0228 18:53:28.011199 18912 net.cpp:129] Top shape: 32 50 12 12 (230400)
I0228 18:53:28.011199 18912 net.cpp:137] Memory required for data: 4507904
I0228 18:53:28.011199 18912 layer_factory.hpp:77] Creating layer pool2
I0228 18:53:28.012203 18912 net.cpp:84] Creating Layer pool2
I0228 18:53:28.012203 18912 net.cpp:406] pool2 <- conv2
I0228 18:53:28.012203 18912 net.cpp:380] pool2 -> pool2
I0228 18:53:28.012203 18912 net.cpp:122] Setting up pool2
I0228 18:53:28.012203 18912 net.cpp:129] Top shape: 32 50 6 6 (57600)
I0228 18:53:28.013206 18912 net.cpp:137] Memory required for data: 4738304
I0228 18:53:28.013206 18912 layer_factory.hpp:77] Creating layer ip1
I0228 18:53:28.013206 18912 net.cpp:84] Creating Layer ip1
I0228 18:53:28.013206 18912 net.cpp:406] ip1 <- pool2
I0228 18:53:28.014209 18912 net.cpp:380] ip1 -> ip1
I0228 18:53:28.020223 18912 net.cpp:122] Setting up ip1
I0228 18:53:28.020223 18912 net.cpp:129] Top shape: 32 500 (16000)
I0228 18:53:28.020223 18912 net.cpp:137] Memory required for data: 4802304
I0228 18:53:28.021230 18912 layer_factory.hpp:77] Creating layer relu1
I0228 18:53:28.021230 18912 net.cpp:84] Creating Layer relu1
I0228 18:53:28.022230 18912 net.cpp:406] relu1 <- ip1
I0228 18:53:28.022230 18912 net.cpp:367] relu1 -> ip1 (in-place)
I0228 18:53:28.023232 18912 net.cpp:122] Setting up relu1
I0228 18:53:28.023232 18912 net.cpp:129] Top shape: 32 500 (16000)
I0228 18:53:28.023232 18912 net.cpp:137] Memory required for data: 4866304
I0228 18:53:28.024235 18912 layer_factory.hpp:77] Creating layer ip2
I0228 18:53:28.024235 18912 net.cpp:84] Creating Layer ip2
I0228 18:53:28.024235 18912 net.cpp:406] ip2 <- ip1
I0228 18:53:28.024235 18912 net.cpp:380] ip2 -> ip2
I0228 18:53:28.025238 18912 net.cpp:122] Setting up ip2
I0228 18:53:28.025238 18912 net.cpp:129] Top shape: 32 2 (64)
I0228 18:53:28.025238 18912 net.cpp:137] Memory required for data: 4866560
I0228 18:53:28.025238 18912 layer_factory.hpp:77] Creating layer ip2_ip2_0_split
I0228 18:53:28.025238 18912 net.cpp:84] Creating Layer ip2_ip2_0_split
I0228 18:53:28.025238 18912 net.cpp:406] ip2_ip2_0_split <- ip2
I0228 18:53:28.026240 18912 net.cpp:380] ip2_ip2_0_split -> ip2_ip2_0_split_0
I0228 18:53:28.026240 18912 net.cpp:380] ip2_ip2_0_split -> ip2_ip2_0_split_1
I0228 18:53:28.026240 18912 net.cpp:122] Setting up ip2_ip2_0_split
I0228 18:53:28.026240 18912 net.cpp:129] Top shape: 32 2 (64)
I0228 18:53:28.026240 18912 net.cpp:129] Top shape: 32 2 (64)
I0228 18:53:28.028245 18912 net.cpp:137] Memory required for data: 4867072
I0228 18:53:28.029248 18912 layer_factory.hpp:77] Creating layer accuracy
I0228 18:53:28.029248 18912 net.cpp:84] Creating Layer accuracy
I0228 18:53:28.029248 18912 net.cpp:406] accuracy <- ip2_ip2_0_split_0
I0228 18:53:28.029248 18912 net.cpp:406] accuracy <- label_mnist_1_split_0
I0228 18:53:28.029248 18912 net.cpp:380] accuracy -> accuracy
…
