…
  stage: ""
}
I0111 17:10:20.666795  4128 solver.cpp:87] Creating training net from net file: E:/DeepLearning/mtcnn_train/det1_train.ptototxt
I0111 17:10:20.677845  4128 net.cpp:51] Initializing net from parameters: 
name: "PNet"
state {
  phase: TRAIN
  level: 0
  stage: ""
}
layer {
  name: "data"
  type: "MTCNNData"
  top: "data"
  top: "label"
  top: "roi"
  transform_param {
    scale: 0.0078125
    mirror: false
    mean_value: 127.5
  }
  data_param {
    source: "E:/DeepLearning/mtcnn_train/mtcnn_train_lmdb"
    batch_size: 64
    backend: LMDB
  }
}
layer {
  name: "conv1"
  type: "Convolution"
  bottom: "data"
  top: "conv1"
  param {
    lr_mult: 1
    decay_mult: 1
  }
  param {
    lr_mult: 2
    decay_mult: 0
  }
  convolution_param {
    num_output: 10
    kernel_size: 3
    stride: 1
    weight_filler {
      type: "xavier"
    }
    bias_filler {
      type: "constant"
      value: 0
    }
  }
}
layer {
  name: "PReLU1"
  type: "PReLU"
  bottom: "conv1"
  top: "conv1"
}
layer {
  name: "pool1"
  type: "Pooling"
  bottom: "conv1"
  top: "pool1"
  pooling_param {
    pool: MAX
    kernel_size: 2
    stride: 2
  }
}
layer {
  name: "conv2"
  type: "Convolution"
  bottom: "pool1"
  top: "conv2"
  param {
    lr_mult: 1
    decay_mult: 1
  }
  param {
    lr_mult: 2
    decay_mult: 0
  }
  convolution_param {
    num_output: 16
    kernel_size: 3
    stride: 1
    weight_filler {
      type: "xavier"
    }
    bias_filler {
      type: "constant"
      value: 0
    }
  }
}
layer {
  name: "PReLU2"
  type: "PReLU"
  bottom: "conv2"
  top: "conv2"
}
layer {
  name: "conv3"
  type: "Convolution"
  bottom: "conv2"
  top: "conv3"
  param {
    lr_mult: 1
    decay_mult: 1
  }
  param {
    lr_mult: 2
    decay_mult: 0
  }
  convolution_param {
    num_output: 32
    kernel_size: 3
    stride: 1
    weight_filler {
      type: "xavier"
    }
    bias_filler {
      type: "constant"
      value: 0
    }
  }
}
layer {
  name: "PReLU3"
  type: "PReLU"
  bottom: "conv3"
  top: "conv3"
}
layer {
  name: "conv4-1"
  type: "Convolution"
  bottom: "conv3"
  top: "conv4-1"
  param {
    lr_mult: 1
    decay_mult: 1
  }
  param {
    lr_mult: 2
    decay_mult: 0
  }
  convolution_param {
    num_output: 2
    kernel_size: 1
    stride: 1
    weight_filler {
      type: "xavier"
    }
    bias_filler {
      type: "constant"
      value: 0
    }
  }
}
layer {
  name: "cls_loss"
  type: "SoftmaxWithLoss"
  bottom: "conv4-1"
  bottom: "label"
  top: "cls_loss"
  loss_weight: 1
  propagate_down: true
  propagate_down: false
  loss_param {
    ignore_label: -1
  }
}
layer {
  name: "cls_Acc"
  type: "Accuracy"
  bottom: "conv4-1"
  bottom: "label"
  top: "cls_acc"
  include {
    phase: TRAIN
  }
  accuracy_param {
    ignore_label: -1
  }
}
layer {
  name: "conv4-2"
  type: "Convolution"
  bottom: "conv3"
  top: "conv4-2"
  param {
    lr_mult: 1
    decay_mult: 1
  }
  param {
    lr_mult: 2
    decay_mult: 0
  }
  convolution_param {
    num_output: 4
    kernel_size: 1
    stride: 1
    weight_filler {
      type: "xavier"
    }
    bias_filler {
      type: "constant"
      value: 0
    }
  }
}
layer {
  name: "roi_loss"
  type: "MTCNNEuclideanLoss"
  bottom: "conv4-2"
  bottom: "roi"
  bottom: "label"
  top: "roi_loss"
  loss_weight: 0.5
  loss_param {
    ignore_label: 0
  }
}
I0111 17:10:21.595104  4128 layer_factory.hpp:77] Creating layer data
I0111 17:10:21.600117  4128 db_lmdb.cpp:40] Opened lmdb E:/DeepLearning/mtcnn_train/mtcnn_train_lmdb
I0111 17:10:21.600117  4128 net.cpp:84] Creating Layer data
I0111 17:10:21.601117  4128 net.cpp:380] data -> data
I0111 17:10:21.602120  4128 net.cpp:380] data -> label
I0111 17:10:21.603123  4128 net.cpp:380] data -> roi
I0111 17:10:21.605130  4128 mtcnn_data_layer.cpp:45] output data size: 64,3,12,12
I0111 17:10:21.609179  4128 base_data_layer.cpp:96] Initializing prefetch
I0111 17:10:21.611145  4128 base_data_layer.cpp:99] Prefetch initialized.
I0111 17:10:21.611145  4128 net.cpp:122] Setting up data
I0111 17:10:21.612149  4128 net.cpp:129] Top shape: 64 3 12 12 (27648)
I0111 17:10:21.613152  4128 net.cpp:129] Top shape: 64 (64)
I0111 17:10:21.613152  4128 net.cpp:129] Top shape: 64 4 (256)
I0111 17:10:21.614152  4128 net.cpp:137] Memory required for data: 111872
I0111 17:10:22.930333  4128 layer_factory.hpp:77] Creating layer label_data_1_split
I0111 17:10:22.930333  4128 net.cpp:84] Creating Layer label_data_1_split
I0111 17:10:22.932338  4128 net.cpp:406] label_data_1_split <- label
I0111 17:10:22.932338  4128 net.cpp:380] label_data_1_split -> label_data_1_split_0
I0111 17:10:22.933341  4128 net.cpp:380] label_data_1_split -> label_data_1_split_1
I0111 17:10:22.934343  4128 net.cpp:380] label_data_1_split -> label_data_1_split_2
I0111 17:10:22.934343  4128 net.cpp:122] Setting up label_data_1_split
I0111 17:10:22.935346  4128 net.cpp:129] Top shape: 64 (64)
I0111 17:10:22.935346  4128 net.cpp:129] Top shape: 64 (64)
I0111 17:10:22.936349  4128 net.cpp:129] Top shape: 64 (64)
I0111 17:10:22.936349  4128 net.cpp:137] Memory required for data: 112640
I0111 17:10:23.600272  4128 layer_factory.hpp:77] Creating layer conv1
I0111 17:10:23.601260  4128 net.cpp:84] Creating Layer conv1
I0111 17:10:23.602264  4128 net.cpp:406] conv1 <- data
I0111 17:10:23.603268  4128 net.cpp:380] conv1 -> conv1
I0111 17:10:25.574976  4128 cudnn_conv_layer.cpp:194] Reallocating workspace storage: 98304
I0111 17:10:25.574976  4128 net.cpp:122] Setting up conv1
I0111 17:10:25.575980  4128 net.cpp:129] Top shape: 64 10 10 10 (64000)
I0111 17:10:25.575980  4128 net.cpp:137] Memory required for data: 368640
I0111 17:10:26.537120  4128 layer_factory.hpp:77] Creating layer PReLU1
I0111 17:10:26.538122  4128 net.cpp:84] Creating Layer PReLU1
I0111 17:10:26.539127  4128 net.cpp:406] PReLU1 <- conv1
I0111 17:10:26.540129  4128 net.cpp:367] PReLU1 -> conv1 (in-place)
I0111 17:10:26.541131  4128 net.cpp:122] Setting up PReLU1
I0111 17:10:26.541131  4128 net.cpp:129] Top shape: 64 10 10 10 (64000)
I0111 17:10:26.542135  4128 net.cpp:137] Memory required for data: 624640
I0111 17:10:27.353895  4128 layer_factory.hpp:77] Creating layer pool1
I0111 17:10:27.354912  4128 net.cpp:84] Creating Layer pool1
I0111 17:10:27.357439  4128 net.cpp:406] pool1 <- conv1
I0111 17:10:27.358440  4128 net.cpp:380] pool1 -> pool1
I0111 17:10:27.359444  4128 net.cpp:122] Setting up pool1
I0111 17:10:27.359444  4128 net.cpp:129] Top shape: 64 10 5 5 (16000)
I0111 17:10:27.359444  4128 net.cpp:137] Memory required for data: 688640
I0111 17:10:27.771028  4128 layer_factory.hpp:77] Creating layer conv2
I0111 17:10:27.771028  4128 net.cpp:84] Creating Layer conv2
I0111 17:10:27.773039  4128 net.cpp:406] conv2 <- pool1
I0111 17:10:27.775046  4128 net.cpp:380] conv2 -> conv2
I0111 17:10:29.707401  4128 cudnn_conv_layer.cpp:194] Reallocating workspace storage: 98304
I0111 17:10:29.707401  4128 net.cpp:122] Setting up conv2
I0111 17:10:29.709380  4128 net.cpp:129] Top shape: 64 16 3 3 (9216)
I0111 17:10:29.709380  4128 net.cpp:137] Memory required for data: 725504
I0111 17:10:31.274230  4128 layer_factory.hpp:77] Creating layer PReLU2
I0111 17:10:31.274230  4128 net.cpp:84] Creating Layer PReLU2
I0111 17:10:31.275223  4128 net.cpp:406] PReLU2 <- conv2
I0111 17:10:31.276227  4128 net.cpp:367] PReLU2 -> conv2 (in-place)
I0111 17:10:31.276227  4128 net.cpp:122] Setting up PReLU2
I0111 17:10:31.277230  4128 net.cpp:129] Top shape: 64 16 3 3 (9216)
I0111 17:10:31.277230  4128 net.cpp:137] Memory required for data: 762368
I0111 17:10:32.491662  4128 layer_factory.hpp:77] Creating layer conv3
I0111 17:10:32.491662  4128 net.cpp:84] Creating Layer conv3
I0111 17:10:32.492663  4128 net.cpp:406] conv3 <- conv2
I0111 17:10:32.493666  4128 net.cpp:380] conv3 -> conv3
I0111 17:10:36.994078  4128 cudnn_conv_layer.cpp:194] Reallocating workspace storage: 196608
I0111 17:10:36.994078  4128 net.cpp:122] Setting up conv3
I0111 17:10:36.996084  4128 net.cpp:129] Top shape: 64 32 1 1 (2048)
I0111 17:10:36.998087  4128 net.cpp:137] Memory required for data: 770560
I0111 17:10:39.873431  4128 layer_factory.hpp:77] Creating layer PReLU3
I0111 17:10:39.873431  4128 net.cpp:84] Creating Layer PReLU3
I0111 17:10:39.875428  4128 net.cpp:406] PReLU3 <- conv3
I0111 17:10:39.875428  4128 net.cpp:367] PReLU3 -> conv3 (in-place)
I0111 17:10:39.877435  4128 net.cpp:122] Setting up PReLU3
I0111 17:10:39.878437  4128 net.cpp:129] Top shape: 64 32 1 1 (2048)
I0111 17:10:39.879438  4128 net.cpp:137] Memory required for data: 778752
I0111 17:10:39.879438  4128 layer_factory.hpp:77] Creating layer conv3_PReLU3_0_split
I0111 17:10:39.880442  4128 net.cpp:84] Creating Layer conv3_PReLU3_0_split
I0111 17:10:39.881445  4128 net.cpp:406] conv3_PReLU3_0_split <- conv3
I0111 17:10:39.882447  4128 net.cpp:380] conv3_PReLU3_0_split -> conv3_PReLU3_0_split_0
I0111 17:10:39.882447  4128 net.cpp:380] conv3_PReLU3_0_split -> conv3_PReLU3_0_split_1
I0111 17:10:39.883450  4128 net.cpp:122] Setting up conv3_PReLU3_0_split
I0111 17:10:39.883450  4128 net.cpp:129] Top shape: 64 32 1 1 (2048)
I0111 17:10:39.885457  4128 net.cpp:129] Top shape: 64 32 1 1 (2048)
I0111 17:10:39.887462  4128 net.cpp:137] Memory required for data: 795136
I0111 17:10:39.887462  4128 layer_factory.hpp:77] Creating layer conv4-1
I0111 17:10:39.888463  4128 net.cpp:84] Creating Layer conv4-1
I0111 17:10:39.888463  4128 net.cpp:406] conv4-1 <- conv3_PReLU3_0_split_0
I0111 17:10:39.888463  4128 net.cpp:380] conv4-1 -> conv4-1
I0111 17:10:48.661686  4128 cudnn_conv_layer.cpp:194] Reallocating workspace storage: 6564
I0111 17:10:48.662689  4128 net.cpp:122] Setting up conv4-1
I0111 17:10:48.662689  4128 net.cpp:129] Top shape: 64 2 1 1 (128)
I0111 17:10:48.663691  4128 net.cpp:137] Memory required for data: 795648
I0111 17:10:48.664695  4128 layer_factory.hpp:77] Creating layer conv4-1_conv4-1_0_split
I0111 17:10:48.664695  4128 net.cpp:84] Creating Layer conv4-1_conv4-1_0_split
I0111 17:10:48.665697  4128 net.cpp:406] conv4-1_conv4-1_0_split <- conv4-1
I0111 17:10:48.666699  4128 net.cpp:380] conv4-1_conv4-1_0_split -> conv4-1_conv4-1_0_split_0
I0111 17:10:48.666699  4128 net.cpp:380] conv4-1_conv4-1_0_split -> conv4-1_conv4-1_0_split_1
I0111 17:10:48.667701  4128 net.cpp:122] Setting up conv4-1_conv4-1_0_split
I0111 17:10:48.667701  4128 net.cpp:129] Top shape: 64 2 1 1 (128)
I0111 17:10:48.667701  4128 net.cpp:129] Top shape: 64 2 1 1 (128)
I0111 17:10:48.668707  4128 net.cpp:137] Memory required for data: 796672
I0111 17:10:48.669708  4128 layer_factory.hpp:77] Creating layer cls_loss
I0111 17:10:48.669708  4128 net.cpp:84] Creating Layer cls_loss
I0111 17:10:48.670714  4128 net.cpp:406] cls_loss <- conv4-1_conv4-1_0_split_0
I0111 17:10:48.671713  4128 net.cpp:406] cls_loss <- label_data_1_split_0
I0111 17:10:48.671713  4128 net.cpp:380] cls_loss -> cls_loss
…
