…
I0228 23:16:45.322841 11952 caffe.cpp:280] GPU device name: GeForce GTX 1060
I0228 23:16:45.629681 11952 net.cpp:294] The NetState phase (1) differed from the phase (0) specified by a rule in layer mnist
I0228 23:16:45.629681 11952 net.cpp:51] Initializing net from parameters: 
name: "LeNet"
state {
  phase: TEST
  level: 0
  stage: ""
}
debug_info: true
layer {
  name: "mnist"
  type: "Data"
  top: "data"
  top: "label"
  include {
    phase: TEST
  }
  transform_param {
    scale: 0.00390625
  }
  data_param {
    source: "examples/mydata/val"
    batch_size: 100
    backend: LMDB
  }
}
layer {
  name: "conv1"
  type: "Convolution"
  bottom: "data"
  top: "conv1"
  param {
    lr_mult: 1
  }
  param {
    lr_mult: 2
  }
  convolution_param {
    num_output: 20
    kernel_size: 5
    stride: 1
    weight_filler {
      type: "xavier"
    }
    bias_filler {
      type: "constant"
    }
  }
}
layer {
  name: "pool1"
  type: "Pooling"
  bottom: "conv1"
  top: "pool1"
  pooling_param {
    pool: MAX
    kernel_size: 2
    stride: 2
  }
}
layer {
  name: "conv2"
  type: "Convolution"
  bottom: "pool1"
  top: "conv2"
  param {
    lr_mult: 1
  }
  param {
    lr_mult: 2
  }
  convolution_param {
    num_output: 50
    kernel_size: 5
    stride: 1
    weight_filler {
      type: "xavier"
    }
    bias_filler {
      type: "constant"
    }
  }
}
layer {
  name: "pool2"
  type: "Pooling"
  bottom: "conv2"
  top: "pool2"
  pooling_param {
    pool: MAX
    kernel_size: 2
    stride: 2
  }
}
layer {
  name: "ip1"
  type: "InnerProduct"
  bottom: "pool2"
  top: "ip1"
  param {
    lr_mult: 1
  }
  param {
    lr_mult: 2
  }
  inner_product_param {
    num_output: 500
    weight_filler {
      type: "xavier"
    }
    bias_filler {
      type: "constant"
    }
  }
}
layer {
  name: "relu1"
  type: "ReLU"
  bottom: "ip1"
  top: "ip1"
}
layer {
  name: "ip2"
  type: "InnerProduct"
  bottom: "ip1"
  top: "ip2"
  param {
    lr_mult: 1
  }
  param {
    lr_mult: 2
  }
  inner_product_param {
    num_output: 2
    weight_filler {
      type: "xavier"
    }
    bias_filler {
      type: "constant"
    }
  }
}
layer {
  name: "accuracy"
  type: "Accuracy"
  bottom: "ip2"
  bottom: "label"
  top: "accuracy"
  include {
    phase: TEST
  }
}
layer {
  name: "loss"
  type: "SoftmaxWithLoss"
  bottom: "ip2"
  bottom: "label"
  top: "loss"
}
I0228 23:16:45.630679 11952 layer_factory.hpp:77] Creating layer mnist
I0228 23:16:45.657732 11952 db_lmdb.cpp:40] Opened lmdb examples/mydata/val
I0228 23:16:45.664752 11952 net.cpp:84] Creating Layer mnist
I0228 23:16:45.664752 11952 net.cpp:380] mnist -> data
I0228 23:16:45.664752 11952 net.cpp:380] mnist -> label
I0228 23:16:45.736941 11952 data_layer.cpp:45] output data size: 100,3,20,20
I0228 23:16:45.739954 11952 net.cpp:122] Setting up mnist
I0228 23:16:45.739954 11952 net.cpp:129] Top shape: 100 3 20 20 (120000)
I0228 23:16:45.739954 11952 net.cpp:129] Top shape: 100 (100)
I0228 23:16:45.740954 11952 net.cpp:137] Memory required for data: 480400
I0228 23:16:45.741967 11952 layer_factory.hpp:77] Creating layer label_mnist_1_split
I0228 23:16:45.741967 11952 net.cpp:84] Creating Layer label_mnist_1_split
I0228 23:16:45.741967 11952 net.cpp:406] label_mnist_1_split <- label
I0228 23:16:45.742959 11952 net.cpp:380] label_mnist_1_split -> label_mnist_1_split_0
I0228 23:16:45.742959 11952 net.cpp:380] label_mnist_1_split -> label_mnist_1_split_1
I0228 23:16:45.742959 11952 net.cpp:122] Setting up label_mnist_1_split
I0228 23:16:45.742959 11952 net.cpp:129] Top shape: 100 (100)
I0228 23:16:45.743962 11952 net.cpp:129] Top shape: 100 (100)
I0228 23:16:45.743962 11952 net.cpp:137] Memory required for data: 481200
I0228 23:16:45.743962 11952 layer_factory.hpp:77] Creating layer conv1
I0228 23:16:45.743962 11952 net.cpp:84] Creating Layer conv1
I0228 23:16:45.744964 11952 net.cpp:406] conv1 <- data
I0228 23:16:45.744964 11952 net.cpp:380] conv1 -> conv1
I0228 23:16:45.788079  9348 data_layer.cpp:73] Restarting data prefetching from start.
I0228 23:16:46.362606 11952 net.cpp:122] Setting up conv1
I0228 23:16:46.362606 11952 net.cpp:129] Top shape: 100 20 16 16 (512000)
I0228 23:16:46.382659 11952 net.cpp:137] Memory required for data: 2529200
I0228 23:16:46.385669 11952 layer_factory.hpp:77] Creating layer pool1
I0228 23:16:46.385669 11952 net.cpp:84] Creating Layer pool1
I0228 23:16:46.385669 11952 net.cpp:406] pool1 <- conv1
I0228 23:16:46.386672 11952 net.cpp:380] pool1 -> pool1
I0228 23:16:46.386672 11952 net.cpp:122] Setting up pool1
I0228 23:16:46.386672 11952 net.cpp:129] Top shape: 100 20 8 8 (128000)
I0228 23:16:46.386672 11952 net.cpp:137] Memory required for data: 3041200
I0228 23:16:46.387675 11952 layer_factory.hpp:77] Creating layer conv2
I0228 23:16:46.387675 11952 net.cpp:84] Creating Layer conv2
I0228 23:16:46.387675 11952 net.cpp:406] conv2 <- pool1
I0228 23:16:46.387675 11952 net.cpp:380] conv2 -> conv2
I0228 23:16:46.390682 11952 net.cpp:122] Setting up conv2
I0228 23:16:46.390682 11952 net.cpp:129] Top shape: 100 50 4 4 (80000)
I0228 23:16:46.390682 11952 net.cpp:137] Memory required for data: 3361200
I0228 23:16:46.390682 11952 layer_factory.hpp:77] Creating layer pool2
I0228 23:16:46.391685 11952 net.cpp:84] Creating Layer pool2
I0228 23:16:46.391685 11952 net.cpp:406] pool2 <- conv2
I0228 23:16:46.391685 11952 net.cpp:380] pool2 -> pool2
I0228 23:16:46.391685 11952 net.cpp:122] Setting up pool2
I0228 23:16:46.391685 11952 net.cpp:129] Top shape: 100 50 2 2 (20000)
I0228 23:16:46.392688 11952 net.cpp:137] Memory required for data: 3441200
I0228 23:16:46.394692 11952 layer_factory.hpp:77] Creating layer ip1
I0228 23:16:46.394692 11952 net.cpp:84] Creating Layer ip1
I0228 23:16:46.394692 11952 net.cpp:406] ip1 <- pool2
I0228 23:16:46.394692 11952 net.cpp:380] ip1 -> ip1
I0228 23:16:46.397701 11952 net.cpp:122] Setting up ip1
I0228 23:16:46.397701 11952 net.cpp:129] Top shape: 100 500 (50000)
I0228 23:16:46.397701 11952 net.cpp:137] Memory required for data: 3641200
I0228 23:16:46.397701 11952 layer_factory.hpp:77] Creating layer relu1
I0228 23:16:46.398703 11952 net.cpp:84] Creating Layer relu1
I0228 23:16:46.398703 11952 net.cpp:406] relu1 <- ip1
I0228 23:16:46.398703 11952 net.cpp:367] relu1 -> ip1 (in-place)
I0228 23:16:46.399705 11952 net.cpp:122] Setting up relu1
I0228 23:16:46.399705 11952 net.cpp:129] Top shape: 100 500 (50000)
I0228 23:16:46.399705 11952 net.cpp:137] Memory required for data: 3841200
I0228 23:16:46.399705 11952 layer_factory.hpp:77] Creating layer ip2
I0228 23:16:46.400708 11952 net.cpp:84] Creating Layer ip2
I0228 23:16:46.400708 11952 net.cpp:406] ip2 <- ip1
I0228 23:16:46.400708 11952 net.cpp:380] ip2 -> ip2
I0228 23:16:46.400708 11952 net.cpp:122] Setting up ip2
I0228 23:16:46.401711 11952 net.cpp:129] Top shape: 100 2 (200)
I0228 23:16:46.401711 11952 net.cpp:137] Memory required for data: 3842000
I0228 23:16:46.401711 11952 layer_factory.hpp:77] Creating layer ip2_ip2_0_split
I0228 23:16:46.401711 11952 net.cpp:84] Creating Layer ip2_ip2_0_split
I0228 23:16:46.403717 11952 net.cpp:406] ip2_ip2_0_split <- ip2
I0228 23:16:46.404719 11952 net.cpp:380] ip2_ip2_0_split -> ip2_ip2_0_split_0
I0228 23:16:46.404719 11952 net.cpp:380] ip2_ip2_0_split -> ip2_ip2_0_split_1
I0228 23:16:46.404719 11952 net.cpp:122] Setting up ip2_ip2_0_split
I0228 23:16:46.404719 11952 net.cpp:129] Top shape: 100 2 (200)
I0228 23:16:46.405722 11952 net.cpp:129] Top shape: 100 2 (200)
I0228 23:16:46.405722 11952 net.cpp:137] Memory required for data: 3843600
I0228 23:16:46.405722 11952 layer_factory.hpp:77] Creating layer accuracy
I0228 23:16:46.406724 11952 net.cpp:84] Creating Layer accuracy
I0228 23:16:46.406724 11952 net.cpp:406] accuracy <- ip2_ip2_0_split_0
I0228 23:16:46.406724 11952 net.cpp:406] accuracy <- label_mnist_1_split_0
I0228 23:16:46.406724 11952 net.cpp:380] accuracy -> accuracy
…
