…
I0228 23:11:46.473352 19776 net.cpp:294] The NetState phase (0) differed from the phase (1) specified by a rule in layer mnist
I0228 23:11:46.473352 19776 net.cpp:294] The NetState phase (0) differed from the phase (1) specified by a rule in layer accuracy
I0228 23:11:46.473352 19776 net.cpp:51] Initializing net from parameters: 
name: "LeNet"
state {
  phase: TRAIN
  level: 0
  stage: ""
}
debug_info: true
layer {
  name: "mnist"
  type: "Data"
  top: "data"
  top: "label"
  include {
    phase: TRAIN
  }
  transform_param {
    scale: 0.00390625
  }
  data_param {
    source: "examples/mydata/train"
    batch_size: 32
    backend: LMDB
  }
}
layer {
  name: "conv1"
  type: "Convolution"
  bottom: "data"
  top: "conv1"
  param {
    lr_mult: 1
  }
  param {
    lr_mult: 2
  }
  convolution_param {
    num_output: 20
    kernel_size: 5
    stride: 1
    weight_filler {
      type: "xavier"
    }
    bias_filler {
      type: "constant"
    }
  }
}
layer {
  name: "pool1"
  type: "Pooling"
  bottom: "conv1"
  top: "pool1"
  pooling_param {
    pool: MAX
    kernel_size: 2
    stride: 2
  }
}
layer {
  name: "conv2"
  type: "Convolution"
  bottom: "pool1"
  top: "conv2"
  param {
    lr_mult: 1
  }
  param {
    lr_mult: 2
  }
  convolution_param {
    num_output: 50
    kernel_size: 5
    stride: 1
    weight_filler {
      type: "xavier"
    }
    bias_filler {
      type: "constant"
    }
  }
}
layer {
  name: "pool2"
  type: "Pooling"
  bottom: "conv2"
  top: "pool2"
  pooling_param {
    pool: MAX
    kernel_size: 2
    stride: 2
  }
}
layer {
  name: "ip1"
  type: "InnerProduct"
  bottom: "pool2"
  top: "ip1"
  param {
    lr_mult: 1
  }
  param {
    lr_mult: 2
  }
  inner_product_param {
    num_output: 500
    weight_filler {
      type: "xavier"
    }
    bias_filler {
      type: "constant"
    }
  }
}
layer {
  name: "relu1"
  type: "ReLU"
  bottom: "ip1"
  top: "ip1"
}
layer {
  name: "ip2"
  type: "InnerProduct"
  bottom: "ip1"
  top: "ip2"
  param {
    lr_mult: 1
  }
  param {
    lr_mult: 2
  }
  inner_product_param {
    num_output: 2
    weight_filler {
      type: "xavier"
    }
    bias_filler {
      type: "constant"
    }
  }
}
layer {
  name: "loss"
  type: "SoftmaxWithLoss"
  bottom: "ip2"
  bottom: "label"
  top: "loss"
}
I0228 23:11:46.474380 19776 layer_factory.hpp:77] Creating layer mnist
I0228 23:11:46.478482 19776 db_lmdb.cpp:40] Opened lmdb examples/mydata/train
I0228 23:11:46.568236 19776 net.cpp:84] Creating Layer mnist
I0228 23:11:46.568236 19776 net.cpp:380] mnist -> data
I0228 23:11:46.568236 19776 net.cpp:380] mnist -> label
I0228 23:11:46.570263 19776 data_layer.cpp:45] output data size: 32,3,20,20
I0228 23:11:46.571249 19776 net.cpp:122] Setting up mnist
I0228 23:11:46.571249 19776 net.cpp:129] Top shape: 32 3 20 20 (38400)
I0228 23:11:46.572252 19776 net.cpp:129] Top shape: 32 (32)
I0228 23:11:46.572252 19776 net.cpp:137] Memory required for data: 153728
I0228 23:11:46.572252 19776 layer_factory.hpp:77] Creating layer conv1
I0228 23:11:46.573253 19776 net.cpp:84] Creating Layer conv1
I0228 23:11:46.573253 19776 net.cpp:406] conv1 <- data
I0228 23:11:46.573253 19776 net.cpp:380] conv1 -> conv1
I0228 23:11:47.177054 19776 net.cpp:122] Setting up conv1
I0228 23:11:47.178057 19776 net.cpp:129] Top shape: 32 20 16 16 (163840)
I0228 23:11:47.179072 19776 net.cpp:137] Memory required for data: 809088
I0228 23:11:47.179072 19776 layer_factory.hpp:77] Creating layer pool1
I0228 23:11:47.204238 19776 net.cpp:84] Creating Layer pool1
I0228 23:11:47.205279 19776 net.cpp:406] pool1 <- conv1
I0228 23:11:47.205279 19776 net.cpp:380] pool1 -> pool1
I0228 23:11:47.205279 19776 net.cpp:122] Setting up pool1
I0228 23:11:47.206264 19776 net.cpp:129] Top shape: 32 20 8 8 (40960)
I0228 23:11:47.206264 19776 net.cpp:137] Memory required for data: 972928
I0228 23:11:47.206264 19776 layer_factory.hpp:77] Creating layer conv2
I0228 23:11:47.207265 19776 net.cpp:84] Creating Layer conv2
I0228 23:11:47.207265 19776 net.cpp:406] conv2 <- pool1
I0228 23:11:47.207265 19776 net.cpp:380] conv2 -> conv2
I0228 23:11:47.210304 19776 net.cpp:122] Setting up conv2
I0228 23:11:47.210304 19776 net.cpp:129] Top shape: 32 50 4 4 (25600)
I0228 23:11:47.211277 19776 net.cpp:137] Memory required for data: 1075328
I0228 23:11:47.211277 19776 layer_factory.hpp:77] Creating layer pool2
I0228 23:11:47.211277 19776 net.cpp:84] Creating Layer pool2
I0228 23:11:47.212280 19776 net.cpp:406] pool2 <- conv2
I0228 23:11:47.212280 19776 net.cpp:380] pool2 -> pool2
I0228 23:11:47.212280 19776 net.cpp:122] Setting up pool2
I0228 23:11:47.212280 19776 net.cpp:129] Top shape: 32 50 2 2 (6400)
I0228 23:11:47.213282 19776 net.cpp:137] Memory required for data: 1100928
I0228 23:11:47.215288 19776 layer_factory.hpp:77] Creating layer ip1
I0228 23:11:47.215288 19776 net.cpp:84] Creating Layer ip1
I0228 23:11:47.215288 19776 net.cpp:406] ip1 <- pool2
I0228 23:11:47.216290 19776 net.cpp:380] ip1 -> ip1
I0228 23:11:47.218295 19776 net.cpp:122] Setting up ip1
I0228 23:11:47.218295 19776 net.cpp:129] Top shape: 32 500 (16000)
I0228 23:11:47.218295 19776 net.cpp:137] Memory required for data: 1164928
I0228 23:11:47.219298 19776 layer_factory.hpp:77] Creating layer relu1
I0228 23:11:47.219298 19776 net.cpp:84] Creating Layer relu1
I0228 23:11:47.219298 19776 net.cpp:406] relu1 <- ip1
I0228 23:11:47.219298 19776 net.cpp:367] relu1 -> ip1 (in-place)
I0228 23:11:47.220304 19776 net.cpp:122] Setting up relu1
I0228 23:11:47.220304 19776 net.cpp:129] Top shape: 32 500 (16000)
I0228 23:11:47.220304 19776 net.cpp:137] Memory required for data: 1228928
I0228 23:11:47.220304 19776 layer_factory.hpp:77] Creating layer ip2
I0228 23:11:47.221303 19776 net.cpp:84] Creating Layer ip2
I0228 23:11:47.221303 19776 net.cpp:406] ip2 <- ip1
I0228 23:11:47.221303 19776 net.cpp:380] ip2 -> ip2
I0228 23:11:47.221303 19776 net.cpp:122] Setting up ip2
I0228 23:11:47.222306 19776 net.cpp:129] Top shape: 32 2 (64)
I0228 23:11:47.222306 19776 net.cpp:137] Memory required for data: 1229184
I0228 23:11:47.222306 19776 layer_factory.hpp:77] Creating layer loss
I0228 23:11:47.222306 19776 net.cpp:84] Creating Layer loss
I0228 23:11:47.222306 19776 net.cpp:406] loss <- ip2
I0228 23:11:47.223309 19776 net.cpp:406] loss <- label
I0228 23:11:47.225313 19776 net.cpp:380] loss -> loss
I0228 23:11:47.225313 19776 layer_factory.hpp:77] Creating layer loss
…
I0228 23:11:47.229324 19776 solver.cpp:172] Creating test net (#0) specified by net file: E:/DeepLearning/caffe-windows/examples/mydata/lenet.prototxt
I0228 23:11:47.229324 19776 net.cpp:294] The NetState phase (1) differed from the phase (0) specified by a rule in layer mnist
I0228 23:11:47.229324 19776 net.cpp:51] Initializing net from parameters: 
name: "LeNet"
state {
  phase: TEST
}
debug_info: true
layer {
  name: "mnist"
  type: "Data"
  top: "data"
  top: "label"
  include {
    phase: TEST
  }
  transform_param {
    scale: 0.00390625
  }
  data_param {
    source: "examples/mydata/val"
    batch_size: 100
    backend: LMDB
  }
}
layer {
  name: "conv1"
  type: "Convolution"
  bottom: "data"
  top: "conv1"
  param {
    lr_mult: 1
  }
  param {
    lr_mult: 2
  }
  convolution_param {
    num_output: 20
    kernel_size: 5
    stride: 1
    weight_filler {
      type: "xavier"
    }
    bias_filler {
      type: "constant"
    }
  }
}
layer {
  name: "pool1"
  type: "Pooling"
  bottom: "conv1"
  top: "pool1"
  pooling_param {
    pool: MAX
    kernel_size: 2
    stride: 2
  }
}
layer {
  name: "conv2"
  type: "Convolution"
  bottom: "pool1"
  top: "conv2"
  param {
    lr_mult: 1
  }
  param {
    lr_mult: 2
  }
  convolution_param {
    num_output: 50
    kernel_size: 5
    stride: 1
    weight_filler {
      type: "xavier"
    }
    bias_filler {
      type: "constant"
    }
  }
}
layer {
  name: "pool2"
  type: "Pooling"
  bottom: "conv2"
  top: "pool2"
  pooling_param {
    pool: MAX
    kernel_size: 2
    stride: 2
  }
}
layer {
  name: "ip1"
  type: "InnerProduct"
  bottom: "pool2"
  top: "ip1"
  param {
    lr_mult: 1
  }
  param {
    lr_mult: 2
  }
  inner_product_param {
    num_output: 500
    weight_filler {
      type: "xavier"
    }
    bias_filler {
      type: "constant"
    }
  }
}
layer {
  name: "relu1"
  type: "ReLU"
  bottom: "ip1"
  top: "ip1"
}
layer {
  name: "ip2"
  type: "InnerProduct"
  bottom: "ip1"
  top: "ip2"
  param {
    lr_mult: 1
  }
  param {
    lr_mult: 2
  }
  inner_product_param {
    num_output: 2
    weight_filler {
      type: "xavier"
    }
    bias_filler {
      type: "constant"
    }
  }
}
layer {
  name: "accuracy"
  type: "Accuracy"
  bottom: "ip2"
  bottom: "label"
  top: "accuracy"
  include {
    phase: TEST
  }
}
layer {
  name: "loss"
  type: "SoftmaxWithLoss"
  bottom: "ip2"
  bottom: "label"
  top: "loss"
}
I0228 23:11:47.230327 19776 layer_factory.hpp:77] Creating layer mnist
I0228 23:11:47.232332 19776 db_lmdb.cpp:40] Opened lmdb examples/mydata/val
I0228 23:11:47.233336 19776 net.cpp:84] Creating Layer mnist
I0228 23:11:47.233336 19776 net.cpp:380] mnist -> data
I0228 23:11:47.233336 19776 net.cpp:380] mnist -> label
I0228 23:11:47.233336 19776 data_layer.cpp:45] output data size: 100,3,20,20
I0228 23:11:47.235340 19776 net.cpp:122] Setting up mnist
I0228 23:11:47.236343 19776 net.cpp:129] Top shape: 100 3 20 20 (120000)
I0228 23:11:47.236343 19776 net.cpp:129] Top shape: 100 (100)
I0228 23:11:47.236343 19776 net.cpp:137] Memory required for data: 480400
I0228 23:11:47.237346 19776 layer_factory.hpp:77] Creating layer label_mnist_1_split
I0228 23:11:47.237346 19776 net.cpp:84] Creating Layer label_mnist_1_split
I0228 23:11:47.237346 19776 net.cpp:406] label_mnist_1_split <- label
I0228 23:11:47.238349 19776 net.cpp:380] label_mnist_1_split -> label_mnist_1_split_0
I0228 23:11:47.238349 19776 net.cpp:380] label_mnist_1_split -> label_mnist_1_split_1
I0228 23:11:47.238349 19776 net.cpp:122] Setting up label_mnist_1_split
I0228 23:11:47.238349 19776 net.cpp:129] Top shape: 100 (100)
I0228 23:11:47.239352 19776 net.cpp:129] Top shape: 100 (100)
I0228 23:11:47.239352 19776 net.cpp:137] Memory required for data: 481200
I0228 23:11:47.239352 19776 layer_factory.hpp:77] Creating layer conv1
I0228 23:11:47.239352 19776 net.cpp:84] Creating Layer conv1
I0228 23:11:47.240353 19776 net.cpp:406] conv1 <- data
I0228 23:11:47.240353 19776 net.cpp:380] conv1 -> conv1
I0228 23:11:47.242358 19776 net.cpp:122] Setting up conv1
I0228 23:11:47.242358 19776 net.cpp:129] Top shape: 100 20 16 16 (512000)
I0228 23:11:47.242358 19776 net.cpp:137] Memory required for data: 2529200
I0228 23:11:47.242358 19776 layer_factory.hpp:77] Creating layer pool1
I0228 23:11:47.242358 19776 net.cpp:84] Creating Layer pool1
I0228 23:11:47.243361 18140 data_layer.cpp:73] Restarting data prefetching from start.
I0228 23:11:47.243361 19776 net.cpp:406] pool1 <- conv1
I0228 23:11:47.243361 19776 net.cpp:380] pool1 -> pool1
I0228 23:11:47.243361 19776 net.cpp:122] Setting up pool1
I0228 23:11:47.244365 19776 net.cpp:129] Top shape: 100 20 8 8 (128000)
I0228 23:11:47.244365 19776 net.cpp:137] Memory required for data: 3041200
I0228 23:11:47.244365 19776 layer_factory.hpp:77] Creating layer conv2
I0228 23:11:47.244365 19776 net.cpp:84] Creating Layer conv2
I0228 23:11:47.244365 19776 net.cpp:406] conv2 <- pool1
I0228 23:11:47.244365 19776 net.cpp:380] conv2 -> conv2
I0228 23:11:47.249377 19776 net.cpp:122] Setting up conv2
I0228 23:11:47.249377 19776 net.cpp:129] Top shape: 100 50 4 4 (80000)
I0228 23:11:47.249377 19776 net.cpp:137] Memory required for data: 3361200
I0228 23:11:47.250392 19776 layer_factory.hpp:77] Creating layer pool2
I0228 23:11:47.250392 19776 net.cpp:84] Creating Layer pool2
I0228 23:11:47.250392 19776 net.cpp:406] pool2 <- conv2
I0228 23:11:47.251396 19776 net.cpp:380] pool2 -> pool2
I0228 23:11:47.251396 19776 net.cpp:122] Setting up pool2
I0228 23:11:47.251396 19776 net.cpp:129] Top shape: 100 50 2 2 (20000)
I0228 23:11:47.251396 19776 net.cpp:137] Memory required for data: 3441200
I0228 23:11:47.252387 19776 layer_factory.hpp:77] Creating layer ip1
I0228 23:11:47.252387 19776 net.cpp:84] Creating Layer ip1
I0228 23:11:47.252387 19776 net.cpp:406] ip1 <- pool2
I0228 23:11:47.253388 19776 net.cpp:380] ip1 -> ip1
I0228 23:11:47.254391 19776 net.cpp:122] Setting up ip1
I0228 23:11:47.254391 19776 net.cpp:129] Top shape: 100 500 (50000)
I0228 23:11:47.254391 19776 net.cpp:137] Memory required for data: 3641200
I0228 23:11:47.254391 19776 layer_factory.hpp:77] Creating layer relu1
I0228 23:11:47.254391 19776 net.cpp:84] Creating Layer relu1
I0228 23:11:47.255406 19776 net.cpp:406] relu1 <- ip1
I0228 23:11:47.255406 19776 net.cpp:367] relu1 -> ip1 (in-place)
I0228 23:11:47.256397 19776 net.cpp:122] Setting up relu1
I0228 23:11:47.257398 19776 net.cpp:129] Top shape: 100 500 (50000)
I0228 23:11:47.258420 19776 net.cpp:137] Memory required for data: 3841200
I0228 23:11:47.259405 19776 layer_factory.hpp:77] Creating layer ip2
I0228 23:11:47.259405 19776 net.cpp:84] Creating Layer ip2
I0228 23:11:47.259405 19776 net.cpp:406] ip2 <- ip1
I0228 23:11:47.259405 19776 net.cpp:380] ip2 -> ip2
I0228 23:11:47.260407 19776 net.cpp:122] Setting up ip2
I0228 23:11:47.260407 19776 net.cpp:129] Top shape: 100 2 (200)
I0228 23:11:47.260407 19776 net.cpp:137] Memory required for data: 3842000
I0228 23:11:47.260407 19776 layer_factory.hpp:77] Creating layer ip2_ip2_0_split
I0228 23:11:47.260407 19776 net.cpp:84] Creating Layer ip2_ip2_0_split
I0228 23:11:47.260407 19776 net.cpp:406] ip2_ip2_0_split <- ip2
I0228 23:11:47.261410 19776 net.cpp:380] ip2_ip2_0_split -> ip2_ip2_0_split_0
I0228 23:11:47.261410 19776 net.cpp:380] ip2_ip2_0_split -> ip2_ip2_0_split_1
I0228 23:11:47.261410 19776 net.cpp:122] Setting up ip2_ip2_0_split
I0228 23:11:47.261410 19776 net.cpp:129] Top shape: 100 2 (200)
I0228 23:11:47.261410 19776 net.cpp:129] Top shape: 100 2 (200)
I0228 23:11:47.262413 19776 net.cpp:137] Memory required for data: 3843600
I0228 23:11:47.262413 19776 layer_factory.hpp:77] Creating layer accuracy
I0228 23:11:47.262413 19776 net.cpp:84] Creating Layer accuracy
I0228 23:11:47.262413 19776 net.cpp:406] accuracy <- ip2_ip2_0_split_0
I0228 23:11:47.262413 19776 net.cpp:406] accuracy <- label_mnist_1_split_0
I0228 23:11:47.262413 19776 net.cpp:380] accuracy -> accuracy
…
