…
I0228 21:29:27.694449 12588 caffe.cpp:280] GPU device name: GeForce GTX 1060
I0228 21:29:27.995064 12588 net.cpp:294] The NetState phase (1) differed from the phase (0) specified by a rule in layer mnist
I0228 21:29:27.995064 12588 net.cpp:51] Initializing net from parameters: 
name: "LeNet"
state {
  phase: TEST
  level: 0
  stage: ""
}
debug_info: true
layer {
  name: "mnist"
  type: "Data"
  top: "data"
  top: "label"
  include {
    phase: TEST
  }
  transform_param {
    scale: 0.00390625
  }
  data_param {
    source: "examples/mydata/val"
    batch_size: 100
    backend: LMDB
  }
}
layer {
  name: "conv1"
  type: "Convolution"
  bottom: "data"
  top: "conv1"
  param {
    lr_mult: 1
  }
  param {
    lr_mult: 2
  }
  convolution_param {
    num_output: 20
    kernel_size: 5
    stride: 1
    weight_filler {
      type: "xavier"
    }
    bias_filler {
      type: "constant"
    }
  }
}
layer {
  name: "pool1"
  type: "Pooling"
  bottom: "conv1"
  top: "pool1"
  pooling_param {
    pool: MAX
    kernel_size: 2
    stride: 2
  }
}
layer {
  name: "conv2"
  type: "Convolution"
  bottom: "pool1"
  top: "conv2"
  param {
    lr_mult: 1
  }
  param {
    lr_mult: 2
  }
  convolution_param {
    num_output: 50
    kernel_size: 5
    stride: 1
    weight_filler {
      type: "xavier"
    }
    bias_filler {
      type: "constant"
    }
  }
}
layer {
  name: "pool2"
  type: "Pooling"
  bottom: "conv2"
  top: "pool2"
  pooling_param {
    pool: MAX
    kernel_size: 2
    stride: 2
  }
}
layer {
  name: "ip1"
  type: "InnerProduct"
  bottom: "pool2"
  top: "ip1"
  param {
    lr_mult: 1
  }
  param {
    lr_mult: 2
  }
  inner_product_param {
    num_output: 500
    weight_filler {
      type: "xavier"
    }
    bias_filler {
      type: "constant"
    }
  }
}
layer {
  name: "relu1"
  type: "ReLU"
  bottom: "ip1"
  top: "ip1"
}
layer {
  name: "ip2"
  type: "InnerProduct"
  bottom: "ip1"
  top: "ip2"
  param {
    lr_mult: 1
  }
  param {
    lr_mult: 2
  }
  inner_product_param {
    num_output: 2
    weight_filler {
      type: "xavier"
    }
    bias_filler {
      type: "constant"
    }
  }
}
layer {
  name: "accuracy"
  type: "Accuracy"
  bottom: "ip2"
  bottom: "label"
  top: "accuracy"
  include {
    phase: TEST
  }
}
layer {
  name: "loss"
  type: "SoftmaxWithLoss"
  bottom: "ip2"
  bottom: "label"
  top: "loss"
}
I0228 21:29:27.997071 12588 layer_factory.hpp:77] Creating layer mnist
I0228 21:29:28.196841 12588 db_lmdb.cpp:40] Opened lmdb examples/mydata/val
I0228 21:29:28.209041 12588 net.cpp:84] Creating Layer mnist
I0228 21:29:28.209041 12588 net.cpp:380] mnist -> data
I0228 21:29:28.209992 12588 net.cpp:380] mnist -> label
I0228 21:29:28.279209 12588 data_layer.cpp:45] output data size: 100,3,35,35
I0228 21:29:28.286125 12588 net.cpp:122] Setting up mnist
I0228 21:29:28.286125 12588 net.cpp:129] Top shape: 100 3 35 35 (367500)
I0228 21:29:28.287128 12588 net.cpp:129] Top shape: 100 (100)
I0228 21:29:28.287128 12588 net.cpp:137] Memory required for data: 1470400
I0228 21:29:28.287128 12588 layer_factory.hpp:77] Creating layer label_mnist_1_split
I0228 21:29:28.288131 12588 net.cpp:84] Creating Layer label_mnist_1_split
I0228 21:29:28.288131 12588 net.cpp:406] label_mnist_1_split <- label
I0228 21:29:28.289134 12588 net.cpp:380] label_mnist_1_split -> label_mnist_1_split_0
I0228 21:29:28.290136 12588 net.cpp:380] label_mnist_1_split -> label_mnist_1_split_1
I0228 21:29:28.290136 12588 net.cpp:122] Setting up label_mnist_1_split
I0228 21:29:28.290136 12588 net.cpp:129] Top shape: 100 (100)
I0228 21:29:28.290136 12588 net.cpp:129] Top shape: 100 (100)
I0228 21:29:28.291139 12588 net.cpp:137] Memory required for data: 1471200
I0228 21:29:28.291139 12588 layer_factory.hpp:77] Creating layer conv1
I0228 21:29:28.291139 12588 net.cpp:84] Creating Layer conv1
I0228 21:29:28.291139 12588 net.cpp:406] conv1 <- data
I0228 21:29:28.291139 12588 net.cpp:380] conv1 -> conv1
I0228 21:29:28.397534 11660 data_layer.cpp:73] Restarting data prefetching from start.
I0228 21:29:28.400542 11660 data_layer.cpp:73] Restarting data prefetching from start.
I0228 21:29:28.902500 12588 net.cpp:122] Setting up conv1
I0228 21:29:28.902500 12588 net.cpp:129] Top shape: 100 20 31 31 (1922000)
I0228 21:29:28.903504 12588 net.cpp:137] Memory required for data: 9159200
I0228 21:29:28.903504 12588 layer_factory.hpp:77] Creating layer pool1
I0228 21:29:28.903504 12588 net.cpp:84] Creating Layer pool1
I0228 21:29:28.903504 12588 net.cpp:406] pool1 <- conv1
I0228 21:29:28.904506 12588 net.cpp:380] pool1 -> pool1
I0228 21:29:28.904506 12588 net.cpp:122] Setting up pool1
I0228 21:29:28.904506 12588 net.cpp:129] Top shape: 100 20 16 16 (512000)
I0228 21:29:28.904506 12588 net.cpp:137] Memory required for data: 11207200
I0228 21:29:28.905509 12588 layer_factory.hpp:77] Creating layer conv2
I0228 21:29:28.905509 12588 net.cpp:84] Creating Layer conv2
I0228 21:29:28.905509 12588 net.cpp:406] conv2 <- pool1
I0228 21:29:28.905509 12588 net.cpp:380] conv2 -> conv2
I0228 21:29:28.908517 12588 net.cpp:122] Setting up conv2
I0228 21:29:28.908517 12588 net.cpp:129] Top shape: 100 50 12 12 (720000)
I0228 21:29:28.908517 12588 net.cpp:137] Memory required for data: 14087200
I0228 21:29:28.908517 12588 layer_factory.hpp:77] Creating layer pool2
I0228 21:29:28.909520 12588 net.cpp:84] Creating Layer pool2
I0228 21:29:28.909520 12588 net.cpp:406] pool2 <- conv2
I0228 21:29:28.909520 12588 net.cpp:380] pool2 -> pool2
I0228 21:29:28.909520 12588 net.cpp:122] Setting up pool2
I0228 21:29:28.909520 12588 net.cpp:129] Top shape: 100 50 6 6 (180000)
I0228 21:29:28.909520 12588 net.cpp:137] Memory required for data: 14807200
I0228 21:29:28.910522 12588 layer_factory.hpp:77] Creating layer ip1
I0228 21:29:28.910522 12588 net.cpp:84] Creating Layer ip1
I0228 21:29:28.910522 12588 net.cpp:406] ip1 <- pool2
I0228 21:29:28.910522 12588 net.cpp:380] ip1 -> ip1
I0228 21:29:28.917541 12588 net.cpp:122] Setting up ip1
I0228 21:29:28.917541 12588 net.cpp:129] Top shape: 100 500 (50000)
I0228 21:29:28.918543 12588 net.cpp:137] Memory required for data: 15007200
I0228 21:29:28.918543 12588 layer_factory.hpp:77] Creating layer relu1
I0228 21:29:28.919546 12588 net.cpp:84] Creating Layer relu1
I0228 21:29:28.919546 12588 net.cpp:406] relu1 <- ip1
I0228 21:29:28.919546 12588 net.cpp:367] relu1 -> ip1 (in-place)
I0228 21:29:28.919546 12588 net.cpp:122] Setting up relu1
I0228 21:29:28.919546 12588 net.cpp:129] Top shape: 100 500 (50000)
I0228 21:29:28.920549 12588 net.cpp:137] Memory required for data: 15207200
I0228 21:29:28.920549 12588 layer_factory.hpp:77] Creating layer ip2
I0228 21:29:28.920549 12588 net.cpp:84] Creating Layer ip2
I0228 21:29:28.920549 12588 net.cpp:406] ip2 <- ip1
I0228 21:29:28.920549 12588 net.cpp:380] ip2 -> ip2
I0228 21:29:28.921552 12588 net.cpp:122] Setting up ip2
I0228 21:29:28.921552 12588 net.cpp:129] Top shape: 100 2 (200)
I0228 21:29:28.921552 12588 net.cpp:137] Memory required for data: 15208000
I0228 21:29:28.921552 12588 layer_factory.hpp:77] Creating layer ip2_ip2_0_split
I0228 21:29:28.922555 12588 net.cpp:84] Creating Layer ip2_ip2_0_split
I0228 21:29:28.923557 12588 net.cpp:406] ip2_ip2_0_split <- ip2
I0228 21:29:28.924543 12588 net.cpp:380] ip2_ip2_0_split -> ip2_ip2_0_split_0
I0228 21:29:28.924543 12588 net.cpp:380] ip2_ip2_0_split -> ip2_ip2_0_split_1
I0228 21:29:28.924543 12588 net.cpp:122] Setting up ip2_ip2_0_split
I0228 21:29:28.924543 12588 net.cpp:129] Top shape: 100 2 (200)
I0228 21:29:28.924543 12588 net.cpp:129] Top shape: 100 2 (200)
I0228 21:29:28.925549 12588 net.cpp:137] Memory required for data: 15209600
I0228 21:29:28.925549 12588 layer_factory.hpp:77] Creating layer accuracy
I0228 21:29:28.925549 12588 net.cpp:84] Creating Layer accuracy
I0228 21:29:28.925549 12588 net.cpp:406] accuracy <- ip2_ip2_0_split_0
I0228 21:29:28.925549 12588 net.cpp:406] accuracy <- label_mnist_1_split_0
I0228 21:29:28.925549 12588 net.cpp:380] accuracy -> accuracy
…
