…
I0228 20:54:02.969354 13804 net.cpp:294] The NetState phase (0) differed from the phase (1) specified by a rule in layer mnist
I0228 20:54:02.969354 13804 net.cpp:294] The NetState phase (0) differed from the phase (1) specified by a rule in layer accuracy
I0228 20:54:02.969354 13804 net.cpp:51] Initializing net from parameters: 
name: "LeNet"
state {
  phase: TRAIN
  level: 0
  stage: ""
}
debug_info: true
layer {
  name: "mnist"
  type: "Data"
  top: "data"
  top: "label"
  include {
    phase: TRAIN
  }
  transform_param {
    scale: 0.00390625
  }
  data_param {
    source: "examples/mydata/train"
    batch_size: 32
    backend: LMDB
  }
}
layer {
  name: "conv1"
  type: "Convolution"
  bottom: "data"
  top: "conv1"
  param {
    lr_mult: 1
  }
  param {
    lr_mult: 2
  }
  convolution_param {
    num_output: 20
    kernel_size: 5
    stride: 1
    weight_filler {
      type: "xavier"
    }
    bias_filler {
      type: "constant"
    }
  }
}
layer {
  name: "pool1"
  type: "Pooling"
  bottom: "conv1"
  top: "pool1"
  pooling_param {
    pool: MAX
    kernel_size: 2
    stride: 2
  }
}
layer {
  name: "conv2"
  type: "Convolution"
  bottom: "pool1"
  top: "conv2"
  param {
    lr_mult: 1
  }
  param {
    lr_mult: 2
  }
  convolution_param {
    num_output: 50
    kernel_size: 5
    stride: 1
    weight_filler {
      type: "xavier"
    }
    bias_filler {
      type: "constant"
    }
  }
}
layer {
  name: "pool2"
  type: "Pooling"
  bottom: "conv2"
  top: "pool2"
  pooling_param {
    pool: MAX
    kernel_size: 2
    stride: 2
  }
}
layer {
  name: "ip1"
  type: "InnerProduct"
  bottom: "pool2"
  top: "ip1"
  param {
    lr_mult: 1
  }
  param {
    lr_mult: 2
  }
  inner_product_param {
    num_output: 500
    weight_filler {
      type: "xavier"
    }
    bias_filler {
      type: "constant"
    }
  }
}
layer {
  name: "relu1"
  type: "ReLU"
  bottom: "ip1"
  top: "ip1"
}
layer {
  name: "ip2"
  type: "InnerProduct"
  bottom: "ip1"
  top: "ip2"
  param {
    lr_mult: 1
  }
  param {
    lr_mult: 2
  }
  inner_product_param {
    num_output: 2
    weight_filler {
      type: "xavier"
    }
    bias_filler {
      type: "constant"
    }
  }
}
layer {
  name: "loss"
  type: "SoftmaxWithLoss"
  bottom: "ip2"
  bottom: "label"
  top: "loss"
}
I0228 20:54:02.970356 13804 layer_factory.hpp:77] Creating layer mnist
I0228 20:54:03.041208 13804 db_lmdb.cpp:40] Opened lmdb examples/mydata/train
I0228 20:54:03.041208 13804 net.cpp:84] Creating Layer mnist
I0228 20:54:03.041208 13804 net.cpp:380] mnist -> data
I0228 20:54:03.042192 13804 net.cpp:380] mnist -> label
I0228 20:54:03.043197 13804 data_layer.cpp:45] output data size: 32,3,35,35
I0228 20:54:03.046228 13804 net.cpp:122] Setting up mnist
I0228 20:54:03.046228 13804 net.cpp:129] Top shape: 32 3 35 35 (117600)
I0228 20:54:03.047207 13804 net.cpp:129] Top shape: 32 (32)
I0228 20:54:03.047207 13804 net.cpp:137] Memory required for data: 470528
I0228 20:54:03.048220 13804 layer_factory.hpp:77] Creating layer conv1
I0228 20:54:03.048220 13804 net.cpp:84] Creating Layer conv1
I0228 20:54:03.049216 13804 net.cpp:406] conv1 <- data
I0228 20:54:03.049216 13804 net.cpp:380] conv1 -> conv1
I0228 20:54:03.665513 13804 net.cpp:122] Setting up conv1
I0228 20:54:03.666514 13804 net.cpp:129] Top shape: 32 20 31 31 (615040)
I0228 20:54:03.667518 13804 net.cpp:137] Memory required for data: 2930688
I0228 20:54:03.667518 13804 layer_factory.hpp:77] Creating layer pool1
I0228 20:54:03.789625 13804 net.cpp:84] Creating Layer pool1
I0228 20:54:03.790638 13804 net.cpp:406] pool1 <- conv1
I0228 20:54:03.790638 13804 net.cpp:380] pool1 -> pool1
I0228 20:54:03.791642 13804 net.cpp:122] Setting up pool1
I0228 20:54:03.791642 13804 net.cpp:129] Top shape: 32 20 16 16 (163840)
I0228 20:54:03.791642 13804 net.cpp:137] Memory required for data: 3586048
I0228 20:54:03.792636 13804 layer_factory.hpp:77] Creating layer conv2
I0228 20:54:03.792636 13804 net.cpp:84] Creating Layer conv2
I0228 20:54:03.793639 13804 net.cpp:406] conv2 <- pool1
I0228 20:54:03.793639 13804 net.cpp:380] conv2 -> conv2
I0228 20:54:03.797657 13804 net.cpp:122] Setting up conv2
I0228 20:54:03.797657 13804 net.cpp:129] Top shape: 32 50 12 12 (230400)
I0228 20:54:03.797657 13804 net.cpp:137] Memory required for data: 4507648
I0228 20:54:03.797657 13804 layer_factory.hpp:77] Creating layer pool2
I0228 20:54:03.798652 13804 net.cpp:84] Creating Layer pool2
I0228 20:54:03.799655 13804 net.cpp:406] pool2 <- conv2
I0228 20:54:03.800658 13804 net.cpp:380] pool2 -> pool2
I0228 20:54:03.801659 13804 net.cpp:122] Setting up pool2
I0228 20:54:03.801659 13804 net.cpp:129] Top shape: 32 50 6 6 (57600)
I0228 20:54:03.801659 13804 net.cpp:137] Memory required for data: 4738048
I0228 20:54:03.801659 13804 layer_factory.hpp:77] Creating layer ip1
I0228 20:54:03.802662 13804 net.cpp:84] Creating Layer ip1
I0228 20:54:03.802662 13804 net.cpp:406] ip1 <- pool2
I0228 20:54:03.802662 13804 net.cpp:380] ip1 -> ip1
I0228 20:54:03.808704 13804 net.cpp:122] Setting up ip1
I0228 20:54:03.809682 13804 net.cpp:129] Top shape: 32 500 (16000)
I0228 20:54:03.809682 13804 net.cpp:137] Memory required for data: 4802048
I0228 20:54:03.810698 13804 layer_factory.hpp:77] Creating layer relu1
I0228 20:54:03.810698 13804 net.cpp:84] Creating Layer relu1
I0228 20:54:03.810698 13804 net.cpp:406] relu1 <- ip1
I0228 20:54:03.811687 13804 net.cpp:367] relu1 -> ip1 (in-place)
I0228 20:54:03.811687 13804 net.cpp:122] Setting up relu1
I0228 20:54:03.812690 13804 net.cpp:129] Top shape: 32 500 (16000)
I0228 20:54:03.812690 13804 net.cpp:137] Memory required for data: 4866048
I0228 20:54:03.812690 13804 layer_factory.hpp:77] Creating layer ip2
I0228 20:54:03.812690 13804 net.cpp:84] Creating Layer ip2
I0228 20:54:03.813701 13804 net.cpp:406] ip2 <- ip1
I0228 20:54:03.813701 13804 net.cpp:380] ip2 -> ip2
I0228 20:54:03.813701 13804 net.cpp:122] Setting up ip2
I0228 20:54:03.813701 13804 net.cpp:129] Top shape: 32 2 (64)
I0228 20:54:03.814695 13804 net.cpp:137] Memory required for data: 4866304
I0228 20:54:03.814695 13804 layer_factory.hpp:77] Creating layer loss
I0228 20:54:03.814695 13804 net.cpp:84] Creating Layer loss
I0228 20:54:03.814695 13804 net.cpp:406] loss <- ip2
I0228 20:54:03.815698 13804 net.cpp:406] loss <- label
I0228 20:54:03.815698 13804 net.cpp:380] loss -> loss
I0228 20:54:03.815698 13804 layer_factory.hpp:77] Creating layer loss
…
I0228 20:54:03.823442 13804 solver.cpp:172] Creating test net (#0) specified by net file: E:/DeepLearning/caffe-windows/examples/mydata/lenet.prototxt
I0228 20:54:03.823442 13804 net.cpp:294] The NetState phase (1) differed from the phase (0) specified by a rule in layer mnist
I0228 20:54:03.823442 13804 net.cpp:51] Initializing net from parameters: 
name: "LeNet"
state {
  phase: TEST
}
debug_info: true
layer {
  name: "mnist"
  type: "Data"
  top: "data"
  top: "label"
  include {
    phase: TEST
  }
  transform_param {
    scale: 0.00390625
  }
  data_param {
    source: "examples/mydata/val"
    batch_size: 32
    backend: LMDB
  }
}
layer {
  name: "conv1"
  type: "Convolution"
  bottom: "data"
  top: "conv1"
  param {
    lr_mult: 1
  }
  param {
    lr_mult: 2
  }
  convolution_param {
    num_output: 20
    kernel_size: 5
    stride: 1
    weight_filler {
      type: "xavier"
    }
    bias_filler {
      type: "constant"
    }
  }
}
layer {
  name: "pool1"
  type: "Pooling"
  bottom: "conv1"
  top: "pool1"
  pooling_param {
    pool: MAX
    kernel_size: 2
    stride: 2
  }
}
layer {
  name: "conv2"
  type: "Convolution"
  bottom: "pool1"
  top: "conv2"
  param {
    lr_mult: 1
  }
  param {
    lr_mult: 2
  }
  convolution_param {
    num_output: 50
    kernel_size: 5
    stride: 1
    weight_filler {
      type: "xavier"
    }
    bias_filler {
      type: "constant"
    }
  }
}
layer {
  name: "pool2"
  type: "Pooling"
  bottom: "conv2"
  top: "pool2"
  pooling_param {
    pool: MAX
    kernel_size: 2
    stride: 2
  }
}
layer {
  name: "ip1"
  type: "InnerProduct"
  bottom: "pool2"
  top: "ip1"
  param {
    lr_mult: 1
  }
  param {
    lr_mult: 2
  }
  inner_product_param {
    num_output: 500
    weight_filler {
      type: "xavier"
    }
    bias_filler {
      type: "constant"
    }
  }
}
layer {
  name: "relu1"
  type: "ReLU"
  bottom: "ip1"
  top: "ip1"
}
layer {
  name: "ip2"
  type: "InnerProduct"
  bottom: "ip1"
  top: "ip2"
  param {
    lr_mult: 1
  }
  param {
    lr_mult: 2
  }
  inner_product_param {
    num_output: 2
    weight_filler {
      type: "xavier"
    }
    bias_filler {
      type: "constant"
    }
  }
}
layer {
  name: "accuracy"
  type: "Accuracy"
  bottom: "ip2"
  bottom: "label"
  top: "accuracy"
  include {
    phase: TEST
  }
}
layer {
  name: "loss"
  type: "SoftmaxWithLoss"
  bottom: "ip2"
  bottom: "label"
  top: "loss"
}
I0228 20:54:03.824443 13804 layer_factory.hpp:77] Creating layer mnist
I0228 20:54:03.829458 13804 db_lmdb.cpp:40] Opened lmdb examples/mydata/val
I0228 20:54:03.832465 13804 net.cpp:84] Creating Layer mnist
I0228 20:54:03.832465 13804 net.cpp:380] mnist -> data
I0228 20:54:03.832465 13804 net.cpp:380] mnist -> label
I0228 20:54:03.833482 13804 data_layer.cpp:45] output data size: 32,3,35,35
I0228 20:54:03.835474 13804 net.cpp:122] Setting up mnist
I0228 20:54:03.835474 13804 net.cpp:129] Top shape: 32 3 35 35 (117600)
I0228 20:54:03.836475 13804 net.cpp:129] Top shape: 32 (32)
I0228 20:54:03.836475 13804 net.cpp:137] Memory required for data: 470528
I0228 20:54:03.837477 13804 layer_factory.hpp:77] Creating layer label_mnist_1_split
I0228 20:54:03.837477 13804 net.cpp:84] Creating Layer label_mnist_1_split
I0228 20:54:03.837477 13804 net.cpp:406] label_mnist_1_split <- label
I0228 20:54:03.837477 13804 net.cpp:380] label_mnist_1_split -> label_mnist_1_split_0
I0228 20:54:03.838480 13804 net.cpp:380] label_mnist_1_split -> label_mnist_1_split_1
I0228 20:54:03.838480 13804 net.cpp:122] Setting up label_mnist_1_split
I0228 20:54:03.838480 13804 net.cpp:129] Top shape: 32 (32)
I0228 20:54:03.838480 13804 net.cpp:129] Top shape: 32 (32)
I0228 20:54:03.839483 13804 net.cpp:137] Memory required for data: 470784
I0228 20:54:03.839483 13804 layer_factory.hpp:77] Creating layer conv1
I0228 20:54:03.839483 13804 net.cpp:84] Creating Layer conv1
I0228 20:54:03.839483 13804 net.cpp:406] conv1 <- data
I0228 20:54:03.841490 13804 net.cpp:380] conv1 -> conv1
I0228 20:54:03.845504 13804 net.cpp:122] Setting up conv1
I0228 20:54:03.845504 13804 net.cpp:129] Top shape: 32 20 31 31 (615040)
I0228 20:54:03.845504 13804 net.cpp:137] Memory required for data: 2930944
I0228 20:54:03.845504 13804 layer_factory.hpp:77] Creating layer pool1
I0228 20:54:03.846501 13804 net.cpp:84] Creating Layer pool1
I0228 20:54:03.846501 13804 net.cpp:406] pool1 <- conv1
I0228 20:54:03.846501 13804 net.cpp:380] pool1 -> pool1
I0228 20:54:03.847504 13804 net.cpp:122] Setting up pool1
I0228 20:54:03.847504 13804 net.cpp:129] Top shape: 32 20 16 16 (163840)
I0228 20:54:03.847504 13804 net.cpp:137] Memory required for data: 3586304
I0228 20:54:03.847504 13804 layer_factory.hpp:77] Creating layer conv2
I0228 20:54:03.847504 13804 net.cpp:84] Creating Layer conv2
I0228 20:54:03.847504 13804 net.cpp:406] conv2 <- pool1
I0228 20:54:03.847504 13804 net.cpp:380] conv2 -> conv2
I0228 20:54:03.850512 13804 net.cpp:122] Setting up conv2
I0228 20:54:03.851516 13804 net.cpp:129] Top shape: 32 50 12 12 (230400)
I0228 20:54:03.852519 13804 net.cpp:137] Memory required for data: 4507904
I0228 20:54:03.852519 13804 layer_factory.hpp:77] Creating layer pool2
I0228 20:54:03.852519 13804 net.cpp:84] Creating Layer pool2
I0228 20:54:03.852519 13804 net.cpp:406] pool2 <- conv2
I0228 20:54:03.852519 13804 net.cpp:380] pool2 -> pool2
I0228 20:54:03.853520 13804 net.cpp:122] Setting up pool2
I0228 20:54:03.853520 13804 net.cpp:129] Top shape: 32 50 6 6 (57600)
I0228 20:54:03.853520 13804 net.cpp:137] Memory required for data: 4738304
I0228 20:54:03.853520 13804 layer_factory.hpp:77] Creating layer ip1
I0228 20:54:03.853520 13804 net.cpp:84] Creating Layer ip1
I0228 20:54:03.854523 13804 net.cpp:406] ip1 <- pool2
I0228 20:54:03.854523 13804 net.cpp:380] ip1 -> ip1
I0228 20:54:03.860564 13804 net.cpp:122] Setting up ip1
I0228 20:54:03.861543 13804 net.cpp:129] Top shape: 32 500 (16000)
I0228 20:54:03.862545 13804 net.cpp:137] Memory required for data: 4802304
I0228 20:54:03.862545 13804 layer_factory.hpp:77] Creating layer relu1
I0228 20:54:03.863551 13804 net.cpp:84] Creating Layer relu1
I0228 20:54:03.863551 13804 net.cpp:406] relu1 <- ip1
I0228 20:54:03.863551 13804 net.cpp:367] relu1 -> ip1 (in-place)
I0228 20:54:03.865553 13804 net.cpp:122] Setting up relu1
I0228 20:54:03.865553 13804 net.cpp:129] Top shape: 32 500 (16000)
I0228 20:54:03.865553 13804 net.cpp:137] Memory required for data: 4866304
I0228 20:54:03.866556 13804 layer_factory.hpp:77] Creating layer ip2
I0228 20:54:03.866556 13804 net.cpp:84] Creating Layer ip2
I0228 20:54:03.866556 13804 net.cpp:406] ip2 <- ip1
I0228 20:54:03.867559 13804 net.cpp:380] ip2 -> ip2
I0228 20:54:03.867559 13804 net.cpp:122] Setting up ip2
I0228 20:54:03.867559 13804 net.cpp:129] Top shape: 32 2 (64)
I0228 20:54:03.867559 13804 net.cpp:137] Memory required for data: 4866560
I0228 20:54:03.868561 13804 layer_factory.hpp:77] Creating layer ip2_ip2_0_split
I0228 20:54:03.868561 13804 net.cpp:84] Creating Layer ip2_ip2_0_split
I0228 20:54:03.868561 13804 net.cpp:406] ip2_ip2_0_split <- ip2
I0228 20:54:03.868561 13804 net.cpp:380] ip2_ip2_0_split -> ip2_ip2_0_split_0
I0228 20:54:03.869562 13804 net.cpp:380] ip2_ip2_0_split -> ip2_ip2_0_split_1
I0228 20:54:03.869562 13804 net.cpp:122] Setting up ip2_ip2_0_split
I0228 20:54:03.869562 13804 net.cpp:129] Top shape: 32 2 (64)
I0228 20:54:03.869562 13804 net.cpp:129] Top shape: 32 2 (64)
I0228 20:54:03.870565 13804 net.cpp:137] Memory required for data: 4867072
I0228 20:54:03.872570 13804 layer_factory.hpp:77] Creating layer accuracy
I0228 20:54:03.873575 13804 net.cpp:84] Creating Layer accuracy
I0228 20:54:03.873575 13804 net.cpp:406] accuracy <- ip2_ip2_0_split_0
I0228 20:54:03.873575 13804 net.cpp:406] accuracy <- label_mnist_1_split_0
I0228 20:54:03.873575 13804 net.cpp:380] accuracy -> accuracy
…
