…
solver_mode: GPU
device_id: 0
net: "E:/DeepLearning/caffe-windows/examples/mydata/lenet.prototxt"
train_state {
  level: 0
  stage: ""
}
I0228 18:51:01.608183  8824 solver.cpp:87] Creating training net from net file: E:/DeepLearning/caffe-windows/examples/mydata/lenet.prototxt
I0228 18:51:01.610189  8824 net.cpp:51] Initializing net from parameters: 
name: "LeNet"
state {
  phase: TRAIN
  level: 0
  stage: ""
}
layer {
  name: "data"
  type: "Input"
  top: "data"
  input_param {
    shape {
      dim: 32
      dim: 1
      dim: 35
      dim: 35
    }
  }
}
layer {
  name: "conv1"
  type: "Convolution"
  bottom: "data"
  top: "conv1"
  param {
    lr_mult: 1
  }
  param {
    lr_mult: 2
  }
  convolution_param {
    num_output: 20
    kernel_size: 5
    stride: 1
    weight_filler {
      type: "xavier"
    }
    bias_filler {
      type: "constant"
    }
  }
}
layer {
  name: "pool1"
  type: "Pooling"
  bottom: "conv1"
  top: "pool1"
  pooling_param {
    pool: MAX
    kernel_size: 2
    stride: 2
  }
}
layer {
  name: "conv2"
  type: "Convolution"
  bottom: "pool1"
  top: "conv2"
  param {
    lr_mult: 1
  }
  param {
    lr_mult: 2
  }
  convolution_param {
    num_output: 50
    kernel_size: 5
    stride: 1
    weight_filler {
      type: "xavier"
    }
    bias_filler {
      type: "constant"
    }
  }
}
layer {
  name: "pool2"
  type: "Pooling"
  bottom: "conv2"
  top: "pool2"
  pooling_param {
    pool: MAX
    kernel_size: 2
    stride: 2
  }
}
layer {
  name: "ip1"
  type: "InnerProduct"
  bottom: "pool2"
  top: "ip1"
  param {
    lr_mult: 1
  }
  param {
    lr_mult: 2
  }
  inner_product_param {
    num_output: 500
    weight_filler {
      type: "xavier"
    }
    bias_filler {
      type: "constant"
    }
  }
}
layer {
  name: "relu1"
  type: "ReLU"
  bottom: "ip1"
  top: "ip1"
}
layer {
  name: "ip2"
  type: "InnerProduct"
  bottom: "ip1"
  top: "ip2"
  param {
    lr_mult: 1
  }
  param {
    lr_mult: 2
  }
  inner_product_param {
    num_output: 2
    weight_filler {
      type: "xavier"
    }
    bias_filler {
      type: "constant"
    }
  }
}
layer {
  name: "prob"
  type: "Softmax"
  bottom: "ip2"
  top: "prob"
}
I0228 18:51:01.611217  8824 layer_factory.hpp:77] Creating layer data
I0228 18:51:01.612195  8824 net.cpp:84] Creating Layer data
I0228 18:51:01.612195  8824 net.cpp:380] data -> data
I0228 18:51:01.613198  8824 net.cpp:122] Setting up data
I0228 18:51:01.613198  8824 net.cpp:129] Top shape: 32 1 35 35 (39200)
I0228 18:51:01.614199  8824 net.cpp:137] Memory required for data: 156800
I0228 18:51:01.614199  8824 layer_factory.hpp:77] Creating layer conv1
I0228 18:51:01.614199  8824 net.cpp:84] Creating Layer conv1
I0228 18:51:01.615201  8824 net.cpp:406] conv1 <- data
I0228 18:51:01.615201  8824 net.cpp:380] conv1 -> conv1
I0228 18:51:02.233849  8824 net.cpp:122] Setting up conv1
I0228 18:51:02.233849  8824 net.cpp:129] Top shape: 32 20 31 31 (615040)
I0228 18:51:02.234850  8824 net.cpp:137] Memory required for data: 2616960
I0228 18:51:02.234850  8824 layer_factory.hpp:77] Creating layer pool1
I0228 18:51:02.234850  8824 net.cpp:84] Creating Layer pool1
I0228 18:51:02.234850  8824 net.cpp:406] pool1 <- conv1
I0228 18:51:02.235853  8824 net.cpp:380] pool1 -> pool1
I0228 18:51:02.235853  8824 net.cpp:122] Setting up pool1
I0228 18:51:02.235853  8824 net.cpp:129] Top shape: 32 20 16 16 (163840)
I0228 18:51:02.235853  8824 net.cpp:137] Memory required for data: 3272320
I0228 18:51:02.235853  8824 layer_factory.hpp:77] Creating layer conv2
I0228 18:51:02.236855  8824 net.cpp:84] Creating Layer conv2
I0228 18:51:02.237857  8824 net.cpp:406] conv2 <- pool1
I0228 18:51:02.237857  8824 net.cpp:380] conv2 -> conv2
I0228 18:51:02.241868  8824 net.cpp:122] Setting up conv2
I0228 18:51:02.245878  8824 net.cpp:129] Top shape: 32 50 12 12 (230400)
I0228 18:51:02.246881  8824 net.cpp:137] Memory required for data: 4193920
I0228 18:51:02.246881  8824 layer_factory.hpp:77] Creating layer pool2
I0228 18:51:02.246881  8824 net.cpp:84] Creating Layer pool2
I0228 18:51:02.247896  8824 net.cpp:406] pool2 <- conv2
I0228 18:51:02.247896  8824 net.cpp:380] pool2 -> pool2
I0228 18:51:02.247896  8824 net.cpp:122] Setting up pool2
I0228 18:51:02.248903  8824 net.cpp:129] Top shape: 32 50 6 6 (57600)
I0228 18:51:02.248903  8824 net.cpp:137] Memory required for data: 4424320
I0228 18:51:02.248903  8824 layer_factory.hpp:77] Creating layer ip1
I0228 18:51:02.248903  8824 net.cpp:84] Creating Layer ip1
I0228 18:51:02.249889  8824 net.cpp:406] ip1 <- pool2
I0228 18:51:02.249889  8824 net.cpp:380] ip1 -> ip1
I0228 18:51:02.256907  8824 net.cpp:122] Setting up ip1
I0228 18:51:02.257910  8824 net.cpp:129] Top shape: 32 500 (16000)
I0228 18:51:02.257910  8824 net.cpp:137] Memory required for data: 4488320
I0228 18:51:02.257910  8824 layer_factory.hpp:77] Creating layer relu1
I0228 18:51:02.258931  8824 net.cpp:84] Creating Layer relu1
I0228 18:51:02.258931  8824 net.cpp:406] relu1 <- ip1
I0228 18:51:02.259917  8824 net.cpp:367] relu1 -> ip1 (in-place)
I0228 18:51:02.259917  8824 net.cpp:122] Setting up relu1
I0228 18:51:02.259917  8824 net.cpp:129] Top shape: 32 500 (16000)
I0228 18:51:02.259917  8824 net.cpp:137] Memory required for data: 4552320
I0228 18:51:02.260918  8824 layer_factory.hpp:77] Creating layer ip2
I0228 18:51:02.260918  8824 net.cpp:84] Creating Layer ip2
I0228 18:51:02.260918  8824 net.cpp:406] ip2 <- ip1
I0228 18:51:02.260918  8824 net.cpp:380] ip2 -> ip2
I0228 18:51:02.261921  8824 net.cpp:122] Setting up ip2
I0228 18:51:02.261921  8824 net.cpp:129] Top shape: 32 2 (64)
I0228 18:51:02.261921  8824 net.cpp:137] Memory required for data: 4552576
I0228 18:51:02.261921  8824 layer_factory.hpp:77] Creating layer prob
I0228 18:51:02.261921  8824 net.cpp:84] Creating Layer prob
I0228 18:51:02.261921  8824 net.cpp:406] prob <- ip2
I0228 18:51:02.262923  8824 net.cpp:380] prob -> prob
I0228 18:51:02.264930  8824 net.cpp:122] Setting up prob
I0228 18:51:02.264930  8824 net.cpp:129] Top shape: 32 2 (64)
I0228 18:51:02.264930  8824 net.cpp:137] Memory required for data: 4552832
I0228 18:51:02.265933  8824 net.cpp:200] prob does not need backward computation.
I0228 18:51:02.265933  8824 net.cpp:200] ip2 does not need backward computation.
I0228 18:51:02.265933  8824 net.cpp:200] relu1 does not need backward computation.
I0228 18:51:02.265933  8824 net.cpp:200] ip1 does not need backward computation.
I0228 18:51:02.265933  8824 net.cpp:200] pool2 does not need backward computation.
I0228 18:51:02.266934  8824 net.cpp:200] conv2 does not need backward computation.
I0228 18:51:02.266934  8824 net.cpp:200] pool1 does not need backward computation.
I0228 18:51:02.266934  8824 net.cpp:200] conv1 does not need backward computation.
I0228 18:51:02.266934  8824 net.cpp:200] data does not need backward computation.
I0228 18:51:02.266934  8824 net.cpp:242] This network produces output prob
I0228 18:51:02.267937  8824 net.cpp:255] Network initialization done.
I0228 18:51:02.267937  8824 solver.cpp:172] Creating test net (#0) specified by net file: E:/DeepLearning/caffe-windows/examples/mydata/lenet.prototxt
I0228 18:51:02.267937  8824 net.cpp:51] Initializing net from parameters: 
name: "LeNet"
state {
  phase: TEST
}
layer {
  name: "data"
  type: "Input"
  top: "data"
  input_param {
    shape {
      dim: 32
      dim: 1
      dim: 35
      dim: 35
    }
  }
}
layer {
  name: "conv1"
  type: "Convolution"
  bottom: "data"
  top: "conv1"
  param {
    lr_mult: 1
  }
  param {
    lr_mult: 2
  }
  convolution_param {
    num_output: 20
    kernel_size: 5
    stride: 1
    weight_filler {
      type: "xavier"
    }
    bias_filler {
      type: "constant"
    }
  }
}
layer {
  name: "pool1"
  type: "Pooling"
  bottom: "conv1"
  top: "pool1"
  pooling_param {
    pool: MAX
    kernel_size: 2
    stride: 2
  }
}
layer {
  name: "conv2"
  type: "Convolution"
  bottom: "pool1"
  top: "conv2"
  param {
    lr_mult: 1
  }
  param {
    lr_mult: 2
  }
  convolution_param {
    num_output: 50
    kernel_size: 5
    stride: 1
    weight_filler {
      type: "xavier"
    }
    bias_filler {
      type: "constant"
    }
  }
}
layer {
  name: "pool2"
  type: "Pooling"
  bottom: "conv2"
  top: "pool2"
  pooling_param {
    pool: MAX
    kernel_size: 2
    stride: 2
  }
}
layer {
  name: "ip1"
  type: "InnerProduct"
  bottom: "pool2"
  top: "ip1"
  param {
    lr_mult: 1
  }
  param {
    lr_mult: 2
  }
  inner_product_param {
    num_output: 500
    weight_filler {
      type: "xavier"
    }
    bias_filler {
      type: "constant"
    }
  }
}
layer {
  name: "relu1"
  type: "ReLU"
  bottom: "ip1"
  top: "ip1"
}
layer {
  name: "ip2"
  type: "InnerProduct"
  bottom: "ip1"
  top: "ip2"
  param {
    lr_mult: 1
  }
  param {
    lr_mult: 2
  }
  inner_product_param {
    num_output: 2
    weight_filler {
      type: "xavier"
    }
    bias_filler {
      type: "constant"
    }
  }
}
layer {
  name: "prob"
  type: "Softmax"
  bottom: "ip2"
  top: "prob"
}
I0228 18:51:02.268940  8824 layer_factory.hpp:77] Creating layer data
I0228 18:51:02.268940  8824 net.cpp:84] Creating Layer data
I0228 18:51:02.269942  8824 net.cpp:380] data -> data
I0228 18:51:02.269942  8824 net.cpp:122] Setting up data
I0228 18:51:02.269942  8824 net.cpp:129] Top shape: 32 1 35 35 (39200)
I0228 18:51:02.269942  8824 net.cpp:137] Memory required for data: 156800
I0228 18:51:02.269942  8824 layer_factory.hpp:77] Creating layer conv1
I0228 18:51:02.270946  8824 net.cpp:84] Creating Layer conv1
I0228 18:51:02.270946  8824 net.cpp:406] conv1 <- data
I0228 18:51:02.270946  8824 net.cpp:380] conv1 -> conv1
I0228 18:51:02.273953  8824 net.cpp:122] Setting up conv1
I0228 18:51:02.275959  8824 net.cpp:129] Top shape: 32 20 31 31 (615040)
I0228 18:51:02.275959  8824 net.cpp:137] Memory required for data: 2616960
I0228 18:51:02.275959  8824 layer_factory.hpp:77] Creating layer pool1
I0228 18:51:02.276962  8824 net.cpp:84] Creating Layer pool1
I0228 18:51:02.276962  8824 net.cpp:406] pool1 <- conv1
I0228 18:51:02.276962  8824 net.cpp:380] pool1 -> pool1
I0228 18:51:02.277963  8824 net.cpp:122] Setting up pool1
I0228 18:51:02.277963  8824 net.cpp:129] Top shape: 32 20 16 16 (163840)
I0228 18:51:02.277963  8824 net.cpp:137] Memory required for data: 3272320
I0228 18:51:02.277963  8824 layer_factory.hpp:77] Creating layer conv2
I0228 18:51:02.277963  8824 net.cpp:84] Creating Layer conv2
I0228 18:51:02.277963  8824 net.cpp:406] conv2 <- pool1
I0228 18:51:02.278966  8824 net.cpp:380] conv2 -> conv2
I0228 18:51:02.280972  8824 net.cpp:122] Setting up conv2
I0228 18:51:02.280972  8824 net.cpp:129] Top shape: 32 50 12 12 (230400)
I0228 18:51:02.281975  8824 net.cpp:137] Memory required for data: 4193920
I0228 18:51:02.281975  8824 layer_factory.hpp:77] Creating layer pool2
I0228 18:51:02.281975  8824 net.cpp:84] Creating Layer pool2
I0228 18:51:02.281975  8824 net.cpp:406] pool2 <- conv2
I0228 18:51:02.281975  8824 net.cpp:380] pool2 -> pool2
I0228 18:51:02.282977  8824 net.cpp:122] Setting up pool2
I0228 18:51:02.282977  8824 net.cpp:129] Top shape: 32 50 6 6 (57600)
I0228 18:51:02.283980  8824 net.cpp:137] Memory required for data: 4424320
I0228 18:51:02.283980  8824 layer_factory.hpp:77] Creating layer ip1
I0228 18:51:02.283980  8824 net.cpp:84] Creating Layer ip1
I0228 18:51:02.283980  8824 net.cpp:406] ip1 <- pool2
I0228 18:51:02.283980  8824 net.cpp:380] ip1 -> ip1
I0228 18:51:02.290998  8824 net.cpp:122] Setting up ip1
I0228 18:51:02.290998  8824 net.cpp:129] Top shape: 32 500 (16000)
I0228 18:51:02.292018  8824 net.cpp:137] Memory required for data: 4488320
I0228 18:51:02.292018  8824 layer_factory.hpp:77] Creating layer relu1
I0228 18:51:02.292018  8824 net.cpp:84] Creating Layer relu1
I0228 18:51:02.293004  8824 net.cpp:406] relu1 <- ip1
I0228 18:51:02.293004  8824 net.cpp:367] relu1 -> ip1 (in-place)
I0228 18:51:02.295009  8824 net.cpp:122] Setting up relu1
I0228 18:51:02.295009  8824 net.cpp:129] Top shape: 32 500 (16000)
I0228 18:51:02.295009  8824 net.cpp:137] Memory required for data: 4552320
I0228 18:51:02.296026  8824 layer_factory.hpp:77] Creating layer ip2
I0228 18:51:02.297014  8824 net.cpp:84] Creating Layer ip2
I0228 18:51:02.297014  8824 net.cpp:406] ip2 <- ip1
I0228 18:51:02.298017  8824 net.cpp:380] ip2 -> ip2
I0228 18:51:02.298017  8824 net.cpp:122] Setting up ip2
I0228 18:51:02.299019  8824 net.cpp:129] Top shape: 32 2 (64)
I0228 18:51:02.299019  8824 net.cpp:137] Memory required for data: 4552576
I0228 18:51:02.299019  8824 layer_factory.hpp:77] Creating layer prob
I0228 18:51:02.299019  8824 net.cpp:84] Creating Layer prob
I0228 18:51:02.300022  8824 net.cpp:406] prob <- ip2
I0228 18:51:02.300022  8824 net.cpp:380] prob -> prob
I0228 18:51:02.301025  8824 net.cpp:122] Setting up prob
I0228 18:51:02.301025  8824 net.cpp:129] Top shape: 32 2 (64)
I0228 18:51:02.301025  8824 net.cpp:137] Memory required for data: 4552832
I0228 18:51:02.301025  8824 net.cpp:200] prob does not need backward computation.
I0228 18:51:02.301025  8824 net.cpp:200] ip2 does not need backward computation.
I0228 18:51:02.302027  8824 net.cpp:200] relu1 does not need backward computation.
I0228 18:51:02.302027  8824 net.cpp:200] ip1 does not need backward computation.
…
