…
I0228 21:16:47.823990 16704 net.cpp:294] The NetState phase (0) differed from the phase (1) specified by a rule in layer mnist
I0228 21:16:47.823990 16704 net.cpp:294] The NetState phase (0) differed from the phase (1) specified by a rule in layer accuracy
I0228 21:16:47.824993 16704 net.cpp:51] Initializing net from parameters: 
name: "LeNet"
state {
  phase: TRAIN
  level: 0
  stage: ""
}
debug_info: true
layer {
  name: "mnist"
  type: "Data"
  top: "data"
  top: "label"
  include {
    phase: TRAIN
  }
  transform_param {
    scale: 0.00390625
  }
  data_param {
    source: "examples/mydata/train"
    batch_size: 32
    backend: LMDB
  }
}
layer {
  name: "conv1"
  type: "Convolution"
  bottom: "data"
  top: "conv1"
  param {
    lr_mult: 1
  }
  param {
    lr_mult: 2
  }
  convolution_param {
    num_output: 20
    kernel_size: 5
    stride: 1
    weight_filler {
      type: "xavier"
    }
    bias_filler {
      type: "constant"
    }
  }
}
layer {
  name: "pool1"
  type: "Pooling"
  bottom: "conv1"
  top: "pool1"
  pooling_param {
    pool: MAX
    kernel_size: 2
    stride: 2
  }
}
layer {
  name: "conv2"
  type: "Convolution"
  bottom: "pool1"
  top: "conv2"
  param {
    lr_mult: 1
  }
  param {
    lr_mult: 2
  }
  convolution_param {
    num_output: 50
    kernel_size: 5
    stride: 1
    weight_filler {
      type: "xavier"
    }
    bias_filler {
      type: "constant"
    }
  }
}
layer {
  name: "pool2"
  type: "Pooling"
  bottom: "conv2"
  top: "pool2"
  pooling_param {
    pool: MAX
    kernel_size: 2
    stride: 2
  }
}
layer {
  name: "ip1"
  type: "InnerProduct"
  bottom: "pool2"
  top: "ip1"
  param {
    lr_mult: 1
  }
  param {
    lr_mult: 2
  }
  inner_product_param {
    num_output: 500
    weight_filler {
      type: "xavier"
    }
    bias_filler {
      type: "constant"
    }
  }
}
layer {
  name: "relu1"
  type: "ReLU"
  bottom: "ip1"
  top: "ip1"
}
layer {
  name: "ip2"
  type: "InnerProduct"
  bottom: "ip1"
  top: "ip2"
  param {
    lr_mult: 1
  }
  param {
    lr_mult: 2
  }
  inner_product_param {
    num_output: 2
    weight_filler {
      type: "xavier"
    }
    bias_filler {
      type: "constant"
    }
  }
}
layer {
  name: "loss"
  type: "SoftmaxWithLoss"
  bottom: "ip2"
  bottom: "label"
  top: "loss"
}
I0228 21:16:47.825996 16704 layer_factory.hpp:77] Creating layer mnist
I0228 21:16:48.006330 16704 db_lmdb.cpp:40] Opened lmdb examples/mydata/train
I0228 21:16:48.022426 16704 net.cpp:84] Creating Layer mnist
I0228 21:16:48.022426 16704 net.cpp:380] mnist -> data
I0228 21:16:48.023432 16704 net.cpp:380] mnist -> label
I0228 21:16:48.024435 16704 data_layer.cpp:45] output data size: 32,3,35,35
I0228 21:16:48.026439 16704 net.cpp:122] Setting up mnist
I0228 21:16:48.026439 16704 net.cpp:129] Top shape: 32 3 35 35 (117600)
I0228 21:16:48.026439 16704 net.cpp:129] Top shape: 32 (32)
I0228 21:16:48.027441 16704 net.cpp:137] Memory required for data: 470528
I0228 21:16:48.027441 16704 layer_factory.hpp:77] Creating layer conv1
I0228 21:16:48.027441 16704 net.cpp:84] Creating Layer conv1
I0228 21:16:48.028446 16704 net.cpp:406] conv1 <- data
I0228 21:16:48.028446 16704 net.cpp:380] conv1 -> conv1
I0228 21:16:48.637491 16704 net.cpp:122] Setting up conv1
I0228 21:16:48.637491 16704 net.cpp:129] Top shape: 32 20 31 31 (615040)
I0228 21:16:48.638494 16704 net.cpp:137] Memory required for data: 2930688
I0228 21:16:48.639495 16704 layer_factory.hpp:77] Creating layer pool1
I0228 21:16:48.643506 16704 net.cpp:84] Creating Layer pool1
I0228 21:16:48.643506 16704 net.cpp:406] pool1 <- conv1
I0228 21:16:48.644510 16704 net.cpp:380] pool1 -> pool1
I0228 21:16:48.644510 16704 net.cpp:122] Setting up pool1
I0228 21:16:48.644510 16704 net.cpp:129] Top shape: 32 20 16 16 (163840)
I0228 21:16:48.644510 16704 net.cpp:137] Memory required for data: 3586048
I0228 21:16:48.644510 16704 layer_factory.hpp:77] Creating layer conv2
I0228 21:16:48.645512 16704 net.cpp:84] Creating Layer conv2
I0228 21:16:48.645512 16704 net.cpp:406] conv2 <- pool1
I0228 21:16:48.645512 16704 net.cpp:380] conv2 -> conv2
I0228 21:16:48.648520 16704 net.cpp:122] Setting up conv2
I0228 21:16:48.648520 16704 net.cpp:129] Top shape: 32 50 12 12 (230400)
I0228 21:16:48.648520 16704 net.cpp:137] Memory required for data: 4507648
I0228 21:16:48.649523 16704 layer_factory.hpp:77] Creating layer pool2
I0228 21:16:48.649523 16704 net.cpp:84] Creating Layer pool2
I0228 21:16:48.649523 16704 net.cpp:406] pool2 <- conv2
I0228 21:16:48.649523 16704 net.cpp:380] pool2 -> pool2
I0228 21:16:48.650526 16704 net.cpp:122] Setting up pool2
I0228 21:16:48.650526 16704 net.cpp:129] Top shape: 32 50 6 6 (57600)
I0228 21:16:48.650526 16704 net.cpp:137] Memory required for data: 4738048
I0228 21:16:48.650526 16704 layer_factory.hpp:77] Creating layer ip1
I0228 21:16:48.650526 16704 net.cpp:84] Creating Layer ip1
I0228 21:16:48.650526 16704 net.cpp:406] ip1 <- pool2
I0228 21:16:48.651528 16704 net.cpp:380] ip1 -> ip1
I0228 21:16:48.657543 16704 net.cpp:122] Setting up ip1
I0228 21:16:48.658547 16704 net.cpp:129] Top shape: 32 500 (16000)
I0228 21:16:48.658547 16704 net.cpp:137] Memory required for data: 4802048
I0228 21:16:48.659549 16704 layer_factory.hpp:77] Creating layer relu1
I0228 21:16:48.659549 16704 net.cpp:84] Creating Layer relu1
I0228 21:16:48.659549 16704 net.cpp:406] relu1 <- ip1
I0228 21:16:48.659549 16704 net.cpp:367] relu1 -> ip1 (in-place)
I0228 21:16:48.660557 16704 net.cpp:122] Setting up relu1
I0228 21:16:48.660557 16704 net.cpp:129] Top shape: 32 500 (16000)
I0228 21:16:48.660557 16704 net.cpp:137] Memory required for data: 4866048
I0228 21:16:48.660557 16704 layer_factory.hpp:77] Creating layer ip2
I0228 21:16:48.660557 16704 net.cpp:84] Creating Layer ip2
I0228 21:16:48.661556 16704 net.cpp:406] ip2 <- ip1
I0228 21:16:48.661556 16704 net.cpp:380] ip2 -> ip2
I0228 21:16:48.661556 16704 net.cpp:122] Setting up ip2
I0228 21:16:48.661556 16704 net.cpp:129] Top shape: 32 2 (64)
I0228 21:16:48.662557 16704 net.cpp:137] Memory required for data: 4866304
I0228 21:16:48.662557 16704 layer_factory.hpp:77] Creating layer loss
I0228 21:16:48.662557 16704 net.cpp:84] Creating Layer loss
I0228 21:16:48.662557 16704 net.cpp:406] loss <- ip2
I0228 21:16:48.663576 16704 net.cpp:406] loss <- label
I0228 21:16:48.663576 16704 net.cpp:380] loss -> loss
I0228 21:16:48.663576 16704 layer_factory.hpp:77] Creating layer loss
…
I0228 21:16:48.671582 16704 solver.cpp:172] Creating test net (#0) specified by net file: E:/DeepLearning/caffe-windows/examples/mydata/lenet.prototxt
I0228 21:16:48.671582 16704 net.cpp:294] The NetState phase (1) differed from the phase (0) specified by a rule in layer mnist
I0228 21:16:48.671582 16704 net.cpp:51] Initializing net from parameters: 
name: "LeNet"
state {
  phase: TEST
}
debug_info: true
layer {
  name: "mnist"
  type: "Data"
  top: "data"
  top: "label"
  include {
    phase: TEST
  }
  transform_param {
    scale: 0.00390625
  }
  data_param {
    source: "examples/mydata/val"
    batch_size: 100
    backend: LMDB
  }
}
layer {
  name: "conv1"
  type: "Convolution"
  bottom: "data"
  top: "conv1"
  param {
    lr_mult: 1
  }
  param {
    lr_mult: 2
  }
  convolution_param {
    num_output: 20
    kernel_size: 5
    stride: 1
    weight_filler {
      type: "xavier"
    }
    bias_filler {
      type: "constant"
    }
  }
}
layer {
  name: "pool1"
  type: "Pooling"
  bottom: "conv1"
  top: "pool1"
  pooling_param {
    pool: MAX
    kernel_size: 2
    stride: 2
  }
}
layer {
  name: "conv2"
  type: "Convolution"
  bottom: "pool1"
  top: "conv2"
  param {
    lr_mult: 1
  }
  param {
    lr_mult: 2
  }
  convolution_param {
    num_output: 50
    kernel_size: 5
    stride: 1
    weight_filler {
      type: "xavier"
    }
    bias_filler {
      type: "constant"
    }
  }
}
layer {
  name: "pool2"
  type: "Pooling"
  bottom: "conv2"
  top: "pool2"
  pooling_param {
    pool: MAX
    kernel_size: 2
    stride: 2
  }
}
layer {
  name: "ip1"
  type: "InnerProduct"
  bottom: "pool2"
  top: "ip1"
  param {
    lr_mult: 1
  }
  param {
    lr_mult: 2
  }
  inner_product_param {
    num_output: 500
    weight_filler {
      type: "xavier"
    }
    bias_filler {
      type: "constant"
    }
  }
}
layer {
  name: "relu1"
  type: "ReLU"
  bottom: "ip1"
  top: "ip1"
}
layer {
  name: "ip2"
  type: "InnerProduct"
  bottom: "ip1"
  top: "ip2"
  param {
    lr_mult: 1
  }
  param {
    lr_mult: 2
  }
  inner_product_param {
    num_output: 2
    weight_filler {
      type: "xavier"
    }
    bias_filler {
      type: "constant"
    }
  }
}
layer {
  name: "accuracy"
  type: "Accuracy"
  bottom: "ip2"
  bottom: "label"
  top: "accuracy"
  include {
    phase: TEST
  }
}
layer {
  name: "loss"
  type: "SoftmaxWithLoss"
  bottom: "ip2"
  bottom: "label"
  top: "loss"
}
I0228 21:16:48.672592 16704 layer_factory.hpp:77] Creating layer mnist
I0228 21:16:48.726573 16704 db_lmdb.cpp:40] Opened lmdb examples/mydata/val
I0228 21:16:48.739150 16704 net.cpp:84] Creating Layer mnist
I0228 21:16:48.739150 16704 net.cpp:380] mnist -> data
I0228 21:16:48.740151 16704 net.cpp:380] mnist -> label
I0228 21:16:48.740151 16704 data_layer.cpp:45] output data size: 100,3,35,35
I0228 21:16:48.745164 16704 net.cpp:122] Setting up mnist
I0228 21:16:48.745164 16704 net.cpp:129] Top shape: 100 3 35 35 (367500)
I0228 21:16:48.746167 16704 net.cpp:129] Top shape: 100 (100)
I0228 21:16:48.747181 16704 net.cpp:137] Memory required for data: 1470400
I0228 21:16:48.747181 16704 layer_factory.hpp:77] Creating layer label_mnist_1_split
I0228 21:16:48.747181 16704 net.cpp:84] Creating Layer label_mnist_1_split
I0228 21:16:48.747181 16704 net.cpp:406] label_mnist_1_split <- label
I0228 21:16:48.748173 16704 net.cpp:380] label_mnist_1_split -> label_mnist_1_split_0
I0228 21:16:48.748173 16704 net.cpp:380] label_mnist_1_split -> label_mnist_1_split_1
I0228 21:16:48.748173 16704 net.cpp:122] Setting up label_mnist_1_split
I0228 21:16:48.748173 16704 net.cpp:129] Top shape: 100 (100)
I0228 21:16:48.749174 16704 net.cpp:129] Top shape: 100 (100)
I0228 21:16:48.749174 16704 net.cpp:137] Memory required for data: 1471200
I0228 21:16:48.749174 16704 layer_factory.hpp:77] Creating layer conv1
I0228 21:16:48.749174 16704 net.cpp:84] Creating Layer conv1
I0228 21:16:48.749174 16704 net.cpp:406] conv1 <- data
I0228 21:16:48.749174 16704 net.cpp:380] conv1 -> conv1
I0228 21:16:48.751181 16704 net.cpp:122] Setting up conv1
I0228 21:16:48.751181 16704 net.cpp:129] Top shape: 100 20 31 31 (1922000)
I0228 21:16:48.751181 16704 net.cpp:137] Memory required for data: 9159200
I0228 21:16:48.752183 16704 layer_factory.hpp:77] Creating layer pool1
I0228 21:16:48.752183 16704 net.cpp:84] Creating Layer pool1
I0228 21:16:48.752183 16704 net.cpp:406] pool1 <- conv1
I0228 21:16:48.752183 16704 net.cpp:380] pool1 -> pool1
I0228 21:16:48.752183 16704 net.cpp:122] Setting up pool1
I0228 21:16:48.752183 16704 net.cpp:129] Top shape: 100 20 16 16 (512000)
I0228 21:16:48.753185 16704 net.cpp:137] Memory required for data: 11207200
I0228 21:16:48.753185 16704 layer_factory.hpp:77] Creating layer conv2
I0228 21:16:48.754189 16704 net.cpp:84] Creating Layer conv2
I0228 21:16:48.756194 16704 net.cpp:406] conv2 <- pool1
I0228 21:16:48.756194 16704 net.cpp:380] conv2 -> conv2
I0228 21:16:48.759202 16704 net.cpp:122] Setting up conv2
I0228 21:16:48.759202 16704 net.cpp:129] Top shape: 100 50 12 12 (720000)
I0228 21:16:48.759202 16704 net.cpp:137] Memory required for data: 14087200
I0228 21:16:48.759202 16704 layer_factory.hpp:77] Creating layer pool2
I0228 21:16:48.759202 16704 net.cpp:84] Creating Layer pool2
I0228 21:16:48.759202 16704 net.cpp:406] pool2 <- conv2
I0228 21:16:48.760212 16704 net.cpp:380] pool2 -> pool2
I0228 21:16:48.760212 16704 net.cpp:122] Setting up pool2
I0228 21:16:48.760212 16704 net.cpp:129] Top shape: 100 50 6 6 (180000)
I0228 21:16:48.760212 16704 net.cpp:137] Memory required for data: 14807200
I0228 21:16:48.761207 16704 layer_factory.hpp:77] Creating layer ip1
I0228 21:16:48.761207 16704 net.cpp:84] Creating Layer ip1
I0228 21:16:48.761207 16704 net.cpp:406] ip1 <- pool2
I0228 21:16:48.761207 16704 net.cpp:380] ip1 -> ip1
I0228 21:16:48.764216 15152 data_layer.cpp:73] Restarting data prefetching from start.
I0228 21:16:48.766222 15152 data_layer.cpp:73] Restarting data prefetching from start.
I0228 21:16:48.768227 16704 net.cpp:122] Setting up ip1
I0228 21:16:48.768227 16704 net.cpp:129] Top shape: 100 500 (50000)
I0228 21:16:48.768227 16704 net.cpp:137] Memory required for data: 15007200
I0228 21:16:48.769228 16704 layer_factory.hpp:77] Creating layer relu1
I0228 21:16:48.769228 16704 net.cpp:84] Creating Layer relu1
I0228 21:16:48.769228 16704 net.cpp:406] relu1 <- ip1
I0228 21:16:48.770231 16704 net.cpp:367] relu1 -> ip1 (in-place)
I0228 21:16:48.773241 16704 net.cpp:122] Setting up relu1
I0228 21:16:48.773241 16704 net.cpp:129] Top shape: 100 500 (50000)
I0228 21:16:48.773241 16704 net.cpp:137] Memory required for data: 15207200
I0228 21:16:48.773241 16704 layer_factory.hpp:77] Creating layer ip2
I0228 21:16:48.773241 16704 net.cpp:84] Creating Layer ip2
I0228 21:16:48.774241 16704 net.cpp:406] ip2 <- ip1
I0228 21:16:48.774241 16704 net.cpp:380] ip2 -> ip2
I0228 21:16:48.774241 16704 net.cpp:122] Setting up ip2
I0228 21:16:48.774241 16704 net.cpp:129] Top shape: 100 2 (200)
I0228 21:16:48.774241 16704 net.cpp:137] Memory required for data: 15208000
I0228 21:16:48.775244 16704 layer_factory.hpp:77] Creating layer ip2_ip2_0_split
I0228 21:16:48.776248 16704 net.cpp:84] Creating Layer ip2_ip2_0_split
I0228 21:16:48.776248 16704 net.cpp:406] ip2_ip2_0_split <- ip2
I0228 21:16:48.777249 16704 net.cpp:380] ip2_ip2_0_split -> ip2_ip2_0_split_0
I0228 21:16:48.777249 16704 net.cpp:380] ip2_ip2_0_split -> ip2_ip2_0_split_1
I0228 21:16:48.777249 16704 net.cpp:122] Setting up ip2_ip2_0_split
I0228 21:16:48.777249 16704 net.cpp:129] Top shape: 100 2 (200)
I0228 21:16:48.777249 16704 net.cpp:129] Top shape: 100 2 (200)
I0228 21:16:48.778252 16704 net.cpp:137] Memory required for data: 15209600
I0228 21:16:48.778252 16704 layer_factory.hpp:77] Creating layer accuracy
I0228 21:16:48.778252 16704 net.cpp:84] Creating Layer accuracy
I0228 21:16:48.778252 16704 net.cpp:406] accuracy <- ip2_ip2_0_split_0
I0228 21:16:48.778252 16704 net.cpp:406] accuracy <- label_mnist_1_split_0
I0228 21:16:48.779256 16704 net.cpp:380] accuracy -> accuracy
…
