…
  stage: ""
}
I0111 17:25:48.953846 15620 solver.cpp:87] Creating training net from net file: E:/DeepLearning/mtcnn_train/det1_train.ptototxt
I0111 17:25:48.965875 15620 net.cpp:51] Initializing net from parameters: 
name: "PNet"
state {
  phase: TRAIN
  level: 0
  stage: ""
}
layer {
  name: "data"
  type: "MTCNNData"
  top: "data"
  top: "label"
  top: "roi"
  transform_param {
    scale: 0.0078125
    mirror: false
    mean_value: 127.5
  }
  data_param {
    source: "E:/DeepLearning/mtcnn_train/mtcnn_train_lmdb"
    batch_size: 64
    backend: LMDB
  }
}
layer {
  name: "conv1"
  type: "Convolution"
  bottom: "data"
  top: "conv1"
  param {
    lr_mult: 1
    decay_mult: 1
  }
  param {
    lr_mult: 2
    decay_mult: 0
  }
  convolution_param {
    num_output: 10
    kernel_size: 3
    stride: 1
    weight_filler {
      type: "xavier"
    }
    bias_filler {
      type: "constant"
      value: 0
    }
  }
}
layer {
  name: "PReLU1"
  type: "PReLU"
  bottom: "conv1"
  top: "conv1"
}
layer {
  name: "pool1"
  type: "Pooling"
  bottom: "conv1"
  top: "pool1"
  pooling_param {
    pool: MAX
    kernel_size: 2
    stride: 2
  }
}
layer {
  name: "conv2"
  type: "Convolution"
  bottom: "pool1"
  top: "conv2"
  param {
    lr_mult: 1
    decay_mult: 1
  }
  param {
    lr_mult: 2
    decay_mult: 0
  }
  convolution_param {
    num_output: 16
    kernel_size: 3
    stride: 1
    weight_filler {
      type: "xavier"
    }
    bias_filler {
      type: "constant"
      value: 0
    }
  }
}
layer {
  name: "PReLU2"
  type: "PReLU"
  bottom: "conv2"
  top: "conv2"
}
layer {
  name: "conv3"
  type: "Convolution"
  bottom: "conv2"
  top: "conv3"
  param {
    lr_mult: 1
    decay_mult: 1
  }
  param {
    lr_mult: 2
    decay_mult: 0
  }
  convolution_param {
    num_output: 32
    kernel_size: 3
    stride: 1
    weight_filler {
      type: "xavier"
    }
    bias_filler {
      type: "constant"
      value: 0
    }
  }
}
layer {
  name: "PReLU3"
  type: "PReLU"
  bottom: "conv3"
  top: "conv3"
}
layer {
  name: "conv4-1"
  type: "Convolution"
  bottom: "conv3"
  top: "conv4-1"
  param {
    lr_mult: 1
    decay_mult: 1
  }
  param {
    lr_mult: 2
    decay_mult: 0
  }
  convolution_param {
    num_output: 2
    kernel_size: 1
    stride: 1
    weight_filler {
      type: "xavier"
    }
    bias_filler {
      type: "constant"
      value: 0
    }
  }
}
layer {
  name: "cls_loss"
  type: "SoftmaxWithLoss"
  bottom: "conv4-1"
  bottom: "label"
  top: "cls_loss"
  loss_weight: 1
  propagate_down: true
  propagate_down: false
  loss_param {
    ignore_label: -1
  }
}
layer {
  name: "cls_Acc"
  type: "Accuracy"
  bottom: "conv4-1"
  bottom: "label"
  top: "cls_acc"
  include {
    phase: TRAIN
  }
  accuracy_param {
    ignore_label: -1
  }
}
layer {
  name: "conv4-2"
  type: "Convolution"
  bottom: "conv3"
  top: "conv4-2"
  param {
    lr_mult: 1
    decay_mult: 1
  }
  param {
    lr_mult: 2
    decay_mult: 0
  }
  convolution_param {
    num_output: 4
    kernel_size: 1
    stride: 1
    weight_filler {
      type: "xavier"
    }
    bias_filler {
      type: "constant"
      value: 0
    }
  }
}
layer {
  name: "roi_loss"
  type: "MTCNNEuclideanLoss"
  bottom: "conv4-2"
  bottom: "roi"
  bottom: "label"
  top: "roi_loss"
  loss_weight: 0.5
  loss_param {
    ignore_label: 0
  }
}
I0111 17:25:48.969888 15620 layer_factory.hpp:77] Creating layer data
I0111 17:25:48.973898 15620 db_lmdb.cpp:40] Opened lmdb E:/DeepLearning/mtcnn_train/mtcnn_train_lmdb
I0111 17:25:48.974902 15620 net.cpp:84] Creating Layer data
I0111 17:25:48.975903 15620 net.cpp:380] data -> data
I0111 17:25:48.976907 15620 net.cpp:380] data -> label
I0111 17:25:48.978910 15620 net.cpp:380] data -> roi
I0111 17:25:48.979915 15620 mtcnn_data_layer.cpp:45] output data size: 64,3,12,12
I0111 17:25:48.982923 15620 base_data_layer.cpp:96] Initializing prefetch
I0111 17:25:48.984928 15620 base_data_layer.cpp:99] Prefetch initialized.
I0111 17:25:48.984928 15620 net.cpp:122] Setting up data
I0111 17:25:48.985930 15620 net.cpp:129] Top shape: 64 3 12 12 (27648)
I0111 17:25:48.986934 15620 net.cpp:129] Top shape: 64 (64)
I0111 17:25:48.986934 15620 net.cpp:129] Top shape: 64 4 (256)
I0111 17:25:48.987936 15620 net.cpp:137] Memory required for data: 111872
I0111 17:25:48.987936 15620 layer_factory.hpp:77] Creating layer label_data_1_split
I0111 17:25:48.988940 15620 net.cpp:84] Creating Layer label_data_1_split
I0111 17:25:48.988940 15620 net.cpp:406] label_data_1_split <- label
I0111 17:25:48.989941 15620 net.cpp:380] label_data_1_split -> label_data_1_split_0
I0111 17:25:48.989941 15620 net.cpp:380] label_data_1_split -> label_data_1_split_1
I0111 17:25:48.990943 15620 net.cpp:380] label_data_1_split -> label_data_1_split_2
I0111 17:25:48.990943 15620 net.cpp:122] Setting up label_data_1_split
I0111 17:25:48.990943 15620 net.cpp:129] Top shape: 64 (64)
I0111 17:25:48.991948 15620 net.cpp:129] Top shape: 64 (64)
I0111 17:25:48.991948 15620 net.cpp:129] Top shape: 64 (64)
I0111 17:25:48.992949 15620 net.cpp:137] Memory required for data: 112640
I0111 17:25:48.992949 15620 layer_factory.hpp:77] Creating layer conv1
I0111 17:25:48.993954 15620 net.cpp:84] Creating Layer conv1
I0111 17:25:48.995959 15620 net.cpp:406] conv1 <- data
I0111 17:25:48.996959 15620 net.cpp:380] conv1 -> conv1
I0111 17:25:49.630646 15620 cudnn_conv_layer.cpp:194] Reallocating workspace storage: 98304
I0111 17:25:49.630646 15620 net.cpp:122] Setting up conv1
I0111 17:25:49.631649 15620 net.cpp:129] Top shape: 64 10 10 10 (64000)
I0111 17:25:49.631649 15620 net.cpp:137] Memory required for data: 368640
I0111 17:25:49.632650 15620 layer_factory.hpp:77] Creating layer PReLU1
I0111 17:25:49.632650 15620 net.cpp:84] Creating Layer PReLU1
I0111 17:25:49.633653 15620 net.cpp:406] PReLU1 <- conv1
I0111 17:25:49.633653 15620 net.cpp:367] PReLU1 -> conv1 (in-place)
I0111 17:25:49.634655 15620 net.cpp:122] Setting up PReLU1
I0111 17:25:49.634655 15620 net.cpp:129] Top shape: 64 10 10 10 (64000)
I0111 17:25:49.635658 15620 net.cpp:137] Memory required for data: 624640
I0111 17:25:49.635658 15620 layer_factory.hpp:77] Creating layer pool1
I0111 17:25:49.636660 15620 net.cpp:84] Creating Layer pool1
I0111 17:25:49.636660 15620 net.cpp:406] pool1 <- conv1
I0111 17:25:49.637663 15620 net.cpp:380] pool1 -> pool1
I0111 17:25:49.637663 15620 net.cpp:122] Setting up pool1
I0111 17:25:49.637663 15620 net.cpp:129] Top shape: 64 10 5 5 (16000)
I0111 17:25:49.638667 15620 net.cpp:137] Memory required for data: 688640
I0111 17:25:49.638667 15620 layer_factory.hpp:77] Creating layer conv2
I0111 17:25:49.639678 15620 net.cpp:84] Creating Layer conv2
I0111 17:25:49.639678 15620 net.cpp:406] conv2 <- pool1
I0111 17:25:49.642676 15620 net.cpp:380] conv2 -> conv2
I0111 17:25:49.646688 15620 cudnn_conv_layer.cpp:194] Reallocating workspace storage: 98304
I0111 17:25:49.647691 15620 net.cpp:122] Setting up conv2
I0111 17:25:49.647691 15620 net.cpp:129] Top shape: 64 16 3 3 (9216)
I0111 17:25:49.648707 15620 net.cpp:137] Memory required for data: 725504
I0111 17:25:49.649696 15620 layer_factory.hpp:77] Creating layer PReLU2
I0111 17:25:49.649696 15620 net.cpp:84] Creating Layer PReLU2
I0111 17:25:49.650698 15620 net.cpp:406] PReLU2 <- conv2
I0111 17:25:49.650698 15620 net.cpp:367] PReLU2 -> conv2 (in-place)
I0111 17:25:49.651700 15620 net.cpp:122] Setting up PReLU2
I0111 17:25:49.653707 15620 net.cpp:129] Top shape: 64 16 3 3 (9216)
I0111 17:25:49.653707 15620 net.cpp:137] Memory required for data: 762368
I0111 17:25:49.654709 15620 layer_factory.hpp:77] Creating layer conv3
I0111 17:25:49.654709 15620 net.cpp:84] Creating Layer conv3
I0111 17:25:49.654709 15620 net.cpp:406] conv3 <- conv2
I0111 17:25:49.655711 15620 net.cpp:380] conv3 -> conv3
I0111 17:25:49.660727 15620 cudnn_conv_layer.cpp:194] Reallocating workspace storage: 196608
I0111 17:25:49.660727 15620 net.cpp:122] Setting up conv3
I0111 17:25:49.661727 15620 net.cpp:129] Top shape: 64 32 1 1 (2048)
I0111 17:25:49.663731 15620 net.cpp:137] Memory required for data: 770560
I0111 17:25:49.664736 15620 layer_factory.hpp:77] Creating layer PReLU3
I0111 17:25:49.664736 15620 net.cpp:84] Creating Layer PReLU3
I0111 17:25:49.665738 15620 net.cpp:406] PReLU3 <- conv3
I0111 17:25:49.666741 15620 net.cpp:367] PReLU3 -> conv3 (in-place)
I0111 17:25:49.667744 15620 net.cpp:122] Setting up PReLU3
I0111 17:25:49.667744 15620 net.cpp:129] Top shape: 64 32 1 1 (2048)
I0111 17:25:49.667744 15620 net.cpp:137] Memory required for data: 778752
I0111 17:25:49.668747 15620 layer_factory.hpp:77] Creating layer conv3_PReLU3_0_split
I0111 17:25:49.668747 15620 net.cpp:84] Creating Layer conv3_PReLU3_0_split
I0111 17:25:49.669749 15620 net.cpp:406] conv3_PReLU3_0_split <- conv3
I0111 17:25:49.669749 15620 net.cpp:380] conv3_PReLU3_0_split -> conv3_PReLU3_0_split_0
I0111 17:25:49.670752 15620 net.cpp:380] conv3_PReLU3_0_split -> conv3_PReLU3_0_split_1
I0111 17:25:49.671756 15620 net.cpp:122] Setting up conv3_PReLU3_0_split
I0111 17:25:49.673760 15620 net.cpp:129] Top shape: 64 32 1 1 (2048)
I0111 17:25:49.674768 15620 net.cpp:129] Top shape: 64 32 1 1 (2048)
I0111 17:25:49.674768 15620 net.cpp:137] Memory required for data: 795136
I0111 17:25:49.675765 15620 layer_factory.hpp:77] Creating layer conv4-1
I0111 17:25:49.675765 15620 net.cpp:84] Creating Layer conv4-1
I0111 17:25:49.676767 15620 net.cpp:406] conv4-1 <- conv3_PReLU3_0_split_0
I0111 17:25:49.676767 15620 net.cpp:380] conv4-1 -> conv4-1
I0111 17:25:49.680778 15620 cudnn_conv_layer.cpp:194] Reallocating workspace storage: 6564
I0111 17:25:49.681780 15620 net.cpp:122] Setting up conv4-1
I0111 17:25:49.683786 15620 net.cpp:129] Top shape: 64 2 1 1 (128)
I0111 17:25:49.683786 15620 net.cpp:137] Memory required for data: 795648
I0111 17:25:49.684788 15620 layer_factory.hpp:77] Creating layer conv4-1_conv4-1_0_split
I0111 17:25:49.685791 15620 net.cpp:84] Creating Layer conv4-1_conv4-1_0_split
I0111 17:25:49.685791 15620 net.cpp:406] conv4-1_conv4-1_0_split <- conv4-1
I0111 17:25:49.685791 15620 net.cpp:380] conv4-1_conv4-1_0_split -> conv4-1_conv4-1_0_split_0
I0111 17:25:49.686794 15620 net.cpp:380] conv4-1_conv4-1_0_split -> conv4-1_conv4-1_0_split_1
I0111 17:25:49.686794 15620 net.cpp:122] Setting up conv4-1_conv4-1_0_split
I0111 17:25:49.687798 15620 net.cpp:129] Top shape: 64 2 1 1 (128)
I0111 17:25:49.687798 15620 net.cpp:129] Top shape: 64 2 1 1 (128)
I0111 17:25:49.688799 15620 net.cpp:137] Memory required for data: 796672
I0111 17:25:49.688799 15620 layer_factory.hpp:77] Creating layer cls_loss
I0111 17:25:49.689802 15620 net.cpp:84] Creating Layer cls_loss
I0111 17:25:49.689802 15620 net.cpp:406] cls_loss <- conv4-1_conv4-1_0_split_0
I0111 17:25:49.689802 15620 net.cpp:406] cls_loss <- label_data_1_split_0
I0111 17:25:49.690804 15620 net.cpp:380] cls_loss -> cls_loss
…
