…
  stage: ""
}
I0111 16:44:39.114431  6368 solver.cpp:87] Creating training net from net file: E:/DeepLearning/mtcnn_train/det1_train.ptototxt
I0111 16:44:39.125461  6368 net.cpp:51] Initializing net from parameters: 
name: "PNet"
state {
  phase: TRAIN
  level: 0
  stage: ""
}
layer {
  name: "data"
  type: "MTCNNData"
  top: "data"
  top: "label"
  top: "roi"
  transform_param {
    scale: 0.0078125
    mirror: false
    mean_value: 127.5
  }
  data_param {
    source: "E:/DeepLearning/mtcnn_train/mtcnn_train_lmdb"
    batch_size: 64
    backend: LMDB
  }
}
layer {
  name: "conv1"
  type: "Convolution"
  bottom: "data"
  top: "conv1"
  param {
    lr_mult: 1
    decay_mult: 1
  }
  param {
    lr_mult: 2
    decay_mult: 0
  }
  convolution_param {
    num_output: 10
    kernel_size: 3
    stride: 1
    weight_filler {
      type: "xavier"
    }
    bias_filler {
      type: "constant"
      value: 0
    }
  }
}
layer {
  name: "PReLU1"
  type: "PReLU"
  bottom: "conv1"
  top: "conv1"
}
layer {
  name: "pool1"
  type: "Pooling"
  bottom: "conv1"
  top: "pool1"
  pooling_param {
    pool: MAX
    kernel_size: 2
    stride: 2
  }
}
layer {
  name: "conv2"
  type: "Convolution"
  bottom: "pool1"
  top: "conv2"
  param {
    lr_mult: 1
    decay_mult: 1
  }
  param {
    lr_mult: 2
    decay_mult: 0
  }
  convolution_param {
    num_output: 16
    kernel_size: 3
    stride: 1
    weight_filler {
      type: "xavier"
    }
    bias_filler {
      type: "constant"
      value: 0
    }
  }
}
layer {
  name: "PReLU2"
  type: "PReLU"
  bottom: "conv2"
  top: "conv2"
}
layer {
  name: "conv3"
  type: "Convolution"
  bottom: "conv2"
  top: "conv3"
  param {
    lr_mult: 1
    decay_mult: 1
  }
  param {
    lr_mult: 2
    decay_mult: 0
  }
  convolution_param {
    num_output: 32
    kernel_size: 3
    stride: 1
    weight_filler {
      type: "xavier"
    }
    bias_filler {
      type: "constant"
      value: 0
    }
  }
}
layer {
  name: "PReLU3"
  type: "PReLU"
  bottom: "conv3"
  top: "conv3"
}
layer {
  name: "conv4-1"
  type: "Convolution"
  bottom: "conv3"
  top: "conv4-1"
  param {
    lr_mult: 1
    decay_mult: 1
  }
  param {
    lr_mult: 2
    decay_mult: 0
  }
  convolution_param {
    num_output: 2
    kernel_size: 1
    stride: 1
    weight_filler {
      type: "xavier"
    }
    bias_filler {
      type: "constant"
      value: 0
    }
  }
}
layer {
  name: "cls_loss"
  type: "SoftmaxWithLoss"
  bottom: "conv4-1"
  bottom: "label"
  top: "cls_loss"
  loss_weight: 1
  propagate_down: true
  propagate_down: false
  loss_param {
    ignore_label: -1
  }
}
layer {
  name: "cls_Acc"
  type: "Accuracy"
  bottom: "conv4-1"
  bottom: "label"
  top: "cls_acc"
  include {
    phase: TRAIN
  }
  accuracy_param {
    ignore_label: -1
  }
}
layer {
  name: "conv4-2"
  type: "Convolution"
  bottom: "conv3"
  top: "conv4-2"
  param {
    lr_mult: 1
    decay_mult: 1
  }
  param {
    lr_mult: 2
    decay_mult: 0
  }
  convolution_param {
    num_output: 4
    kernel_size: 1
    stride: 1
    weight_filler {
      type: "xavier"
    }
    bias_filler {
      type: "constant"
      value: 0
    }
  }
}
layer {
  name: "roi_loss"
  type: "MTCNNEuclideanLoss"
  bottom: "conv4-2"
  bottom: "roi"
  bottom: "label"
  top: "roi_loss"
  loss_weight: 0.5
  loss_param {
    ignore_label: 0
  }
}
I0111 16:44:40.187789  6368 layer_factory.hpp:77] Creating layer data
I0111 16:44:40.193799  6368 db_lmdb.cpp:40] Opened lmdb E:/DeepLearning/mtcnn_train/mtcnn_train_lmdb
I0111 16:44:40.193799  6368 net.cpp:84] Creating Layer data
I0111 16:44:40.193799  6368 net.cpp:380] data -> data
I0111 16:44:40.194799  6368 net.cpp:380] data -> label
I0111 16:44:40.195799  6368 net.cpp:380] data -> roi
I0111 16:45:00.955754  6368 mtcnn_data_layer.cpp:45] output data size: 64,3,12,12
I0111 16:45:13.487367  6368 base_data_layer.cpp:96] Initializing prefetch
I0111 16:45:15.105453  6368 base_data_layer.cpp:99] Prefetch initialized.
I0111 16:45:40.033433  6368 net.cpp:122] Setting up data
I0111 16:46:26.874299  6368 net.cpp:129] Top shape: 64 3 12 12 (27648)
I0111 16:46:26.874299  6368 net.cpp:129] Top shape: 64 (64)
I0111 16:46:26.877286  6368 net.cpp:129] Top shape: 64 4 (256)
I0111 16:46:26.878290  6368 net.cpp:137] Memory required for data: 111872
I0111 16:46:28.393229  6368 layer_factory.hpp:77] Creating layer label_data_1_split
I0111 16:46:28.394232  6368 net.cpp:84] Creating Layer label_data_1_split
I0111 16:46:28.396237  6368 net.cpp:406] label_data_1_split <- label
I0111 16:46:28.396237  6368 net.cpp:380] label_data_1_split -> label_data_1_split_0
I0111 16:46:28.397240  6368 net.cpp:380] label_data_1_split -> label_data_1_split_1
I0111 16:46:28.397240  6368 net.cpp:380] label_data_1_split -> label_data_1_split_2
I0111 16:46:30.013494  6368 net.cpp:122] Setting up label_data_1_split
I0111 16:46:30.014495  6368 net.cpp:129] Top shape: 64 (64)
I0111 16:46:30.015501  6368 net.cpp:129] Top shape: 64 (64)
I0111 16:46:30.015501  6368 net.cpp:129] Top shape: 64 (64)
I0111 16:46:30.016501  6368 net.cpp:137] Memory required for data: 112640
I0111 16:46:30.879129  6368 layer_factory.hpp:77] Creating layer conv1
I0111 16:46:30.880132  6368 net.cpp:84] Creating Layer conv1
I0111 16:46:30.881134  6368 net.cpp:406] conv1 <- data
I0111 16:46:30.882136  6368 net.cpp:380] conv1 -> conv1
I0111 16:47:04.734951  6368 cudnn_conv_layer.cpp:194] Reallocating workspace storage: 98304
I0111 16:47:04.734951  6368 net.cpp:122] Setting up conv1
I0111 16:47:04.735955  6368 net.cpp:129] Top shape: 64 10 10 10 (64000)
I0111 16:47:04.735955  6368 net.cpp:137] Memory required for data: 368640
I0111 16:47:06.151489  6368 layer_factory.hpp:77] Creating layer PReLU1
I0111 16:47:06.151489  6368 net.cpp:84] Creating Layer PReLU1
I0111 16:47:06.152477  6368 net.cpp:406] PReLU1 <- conv1
I0111 16:47:06.153479  6368 net.cpp:367] PReLU1 -> conv1 (in-place)
I0111 16:47:06.154489  6368 net.cpp:122] Setting up PReLU1
I0111 16:47:06.154489  6368 net.cpp:129] Top shape: 64 10 10 10 (64000)
I0111 16:47:06.156493  6368 net.cpp:137] Memory required for data: 624640
I0111 16:47:09.537667  6368 layer_factory.hpp:77] Creating layer pool1
I0111 16:47:09.538671  6368 net.cpp:84] Creating Layer pool1
I0111 16:47:09.541676  6368 net.cpp:406] pool1 <- conv1
I0111 16:47:09.542678  6368 net.cpp:380] pool1 -> pool1
I0111 16:47:09.543681  6368 net.cpp:122] Setting up pool1
I0111 16:47:09.543681  6368 net.cpp:129] Top shape: 64 10 5 5 (16000)
I0111 16:47:09.544684  6368 net.cpp:137] Memory required for data: 688640
I0111 16:47:09.901057  6368 layer_factory.hpp:77] Creating layer conv2
I0111 16:47:09.901057  6368 net.cpp:84] Creating Layer conv2
I0111 16:47:09.902058  6368 net.cpp:406] conv2 <- pool1
I0111 16:47:09.903064  6368 net.cpp:380] conv2 -> conv2
I0111 16:47:09.907074  6368 cudnn_conv_layer.cpp:194] Reallocating workspace storage: 98304
I0111 16:47:09.908077  6368 net.cpp:122] Setting up conv2
I0111 16:47:09.909078  6368 net.cpp:129] Top shape: 64 16 3 3 (9216)
I0111 16:47:09.909078  6368 net.cpp:137] Memory required for data: 725504
I0111 16:47:10.167050  6368 layer_factory.hpp:77] Creating layer PReLU2
I0111 16:47:10.168047  6368 net.cpp:84] Creating Layer PReLU2
I0111 16:47:10.169050  6368 net.cpp:406] PReLU2 <- conv2
I0111 16:47:10.170053  6368 net.cpp:367] PReLU2 -> conv2 (in-place)
I0111 16:47:10.172057  6368 net.cpp:122] Setting up PReLU2
I0111 16:47:10.174063  6368 net.cpp:129] Top shape: 64 16 3 3 (9216)
I0111 16:47:10.174063  6368 net.cpp:137] Memory required for data: 762368
I0111 16:47:10.382658  6368 layer_factory.hpp:77] Creating layer conv3
I0111 16:47:10.382658  6368 net.cpp:84] Creating Layer conv3
I0111 16:47:10.383661  6368 net.cpp:406] conv3 <- conv2
I0111 16:47:10.384663  6368 net.cpp:380] conv3 -> conv3
I0111 16:47:10.391695  6368 cudnn_conv_layer.cpp:194] Reallocating workspace storage: 196608
I0111 16:47:10.391695  6368 net.cpp:122] Setting up conv3
I0111 16:47:10.393699  6368 net.cpp:129] Top shape: 64 32 1 1 (2048)
I0111 16:47:10.393699  6368 net.cpp:137] Memory required for data: 770560
I0111 16:47:10.551415  6368 layer_factory.hpp:77] Creating layer PReLU3
I0111 16:47:10.551415  6368 net.cpp:84] Creating Layer PReLU3
I0111 16:47:10.553413  6368 net.cpp:406] PReLU3 <- conv3
I0111 16:47:10.554414  6368 net.cpp:367] PReLU3 -> conv3 (in-place)
I0111 16:47:10.554414  6368 net.cpp:122] Setting up PReLU3
I0111 16:47:10.555418  6368 net.cpp:129] Top shape: 64 32 1 1 (2048)
I0111 16:47:10.555418  6368 net.cpp:137] Memory required for data: 778752
I0111 16:47:10.762428  6368 layer_factory.hpp:77] Creating layer conv3_PReLU3_0_split
I0111 16:47:10.763430  6368 net.cpp:84] Creating Layer conv3_PReLU3_0_split
I0111 16:47:10.764433  6368 net.cpp:406] conv3_PReLU3_0_split <- conv3
I0111 16:47:10.765437  6368 net.cpp:380] conv3_PReLU3_0_split -> conv3_PReLU3_0_split_0
I0111 16:47:10.766439  6368 net.cpp:380] conv3_PReLU3_0_split -> conv3_PReLU3_0_split_1
I0111 16:47:10.766439  6368 net.cpp:122] Setting up conv3_PReLU3_0_split
I0111 16:47:10.767441  6368 net.cpp:129] Top shape: 64 32 1 1 (2048)
I0111 16:47:10.767441  6368 net.cpp:129] Top shape: 64 32 1 1 (2048)
I0111 16:47:10.768445  6368 net.cpp:137] Memory required for data: 795136
I0111 16:47:10.933883  6368 layer_factory.hpp:77] Creating layer conv4-1
I0111 16:47:10.933883  6368 net.cpp:84] Creating Layer conv4-1
I0111 16:47:10.935889  6368 net.cpp:406] conv4-1 <- conv3_PReLU3_0_split_0
I0111 16:47:10.935889  6368 net.cpp:380] conv4-1 -> conv4-1
I0111 16:47:10.939900  6368 cudnn_conv_layer.cpp:194] Reallocating workspace storage: 6564
I0111 16:47:10.939900  6368 net.cpp:122] Setting up conv4-1
I0111 16:47:10.940903  6368 net.cpp:129] Top shape: 64 2 1 1 (128)
I0111 16:47:10.940903  6368 net.cpp:137] Memory required for data: 795648
I0111 16:47:11.400089  6368 layer_factory.hpp:77] Creating layer conv4-1_conv4-1_0_split
I0111 16:47:11.400089  6368 net.cpp:84] Creating Layer conv4-1_conv4-1_0_split
I0111 16:47:11.401090  6368 net.cpp:406] conv4-1_conv4-1_0_split <- conv4-1
I0111 16:47:11.402093  6368 net.cpp:380] conv4-1_conv4-1_0_split -> conv4-1_conv4-1_0_split_0
I0111 16:47:11.402093  6368 net.cpp:380] conv4-1_conv4-1_0_split -> conv4-1_conv4-1_0_split_1
I0111 16:47:11.403096  6368 net.cpp:122] Setting up conv4-1_conv4-1_0_split
I0111 16:47:11.403096  6368 net.cpp:129] Top shape: 64 2 1 1 (128)
I0111 16:47:11.403096  6368 net.cpp:129] Top shape: 64 2 1 1 (128)
I0111 16:47:11.404110  6368 net.cpp:137] Memory required for data: 796672
I0111 16:47:11.671217  6368 layer_factory.hpp:77] Creating layer cls_loss
I0111 16:47:11.672212  6368 net.cpp:84] Creating Layer cls_loss
I0111 16:47:11.673214  6368 net.cpp:406] cls_loss <- conv4-1_conv4-1_0_split_0
I0111 16:47:11.674217  6368 net.cpp:406] cls_loss <- label_data_1_split_0
I0111 16:47:11.675220  6368 net.cpp:380] cls_loss -> cls_loss
…
