…
I0228 20:27:30.728116 18508 net.cpp:294] The NetState phase (0) differed from the phase (1) specified by a rule in layer accuracy
I0228 20:27:30.728116 18508 net.cpp:51] Initializing net from parameters: 
name: "LeNet"
state {
  phase: TRAIN
  level: 0
  stage: ""
}
debug_info: true
layer {
  name: "mnist"
  type: "Data"
  top: "data"
  top: "label"
  include {
    phase: TRAIN
  }
  transform_param {
    mean_file: "examples/mydata/mydata_mean.binaryproto"
  }
  data_param {
    source: "examples/mydata/train"
    batch_size: 32
    backend: LMDB
  }
}
layer {
  name: "conv1"
  type: "Convolution"
  bottom: "data"
  top: "conv1"
  param {
    lr_mult: 1
  }
  param {
    lr_mult: 2
  }
  convolution_param {
    num_output: 20
    kernel_size: 5
    stride: 1
    weight_filler {
      type: "xavier"
    }
    bias_filler {
      type: "constant"
    }
  }
}
layer {
  name: "pool1"
  type: "Pooling"
  bottom: "conv1"
  top: "pool1"
  pooling_param {
    pool: MAX
    kernel_size: 2
    stride: 2
  }
}
layer {
  name: "conv2"
  type: "Convolution"
  bottom: "pool1"
  top: "conv2"
  param {
    lr_mult: 1
  }
  param {
    lr_mult: 2
  }
  convolution_param {
    num_output: 50
    kernel_size: 5
    stride: 1
    weight_filler {
      type: "xavier"
    }
    bias_filler {
      type: "constant"
    }
  }
}
layer {
  name: "pool2"
  type: "Pooling"
  bottom: "conv2"
  top: "pool2"
  pooling_param {
    pool: MAX
    kernel_size: 2
    stride: 2
  }
}
layer {
  name: "ip1"
  type: "InnerProduct"
  bottom: "pool2"
  top: "ip1"
  param {
    lr_mult: 1
  }
  param {
    lr_mult: 2
  }
  inner_product_param {
    num_output: 500
    weight_filler {
      type: "xavier"
    }
    bias_filler {
      type: "constant"
    }
  }
}
layer {
  name: "relu1"
  type: "ReLU"
  bottom: "ip1"
  top: "ip1"
}
layer {
  name: "ip2"
  type: "InnerProduct"
  bottom: "ip1"
  top: "ip2"
  param {
    lr_mult: 1
  }
  param {
    lr_mult: 2
  }
  inner_product_param {
    num_output: 2
    weight_filler {
      type: "xavier"
    }
    bias_filler {
      type: "constant"
    }
  }
}
layer {
  name: "loss"
  type: "SoftmaxWithLoss"
  bottom: "ip2"
  bottom: "label"
  top: "loss"
}
I0228 20:27:30.729094 18508 layer_factory.hpp:77] Creating layer mnist
I0228 20:27:30.970880 18508 db_lmdb.cpp:40] Opened lmdb examples/mydata/train
I0228 20:27:30.989339 18508 net.cpp:84] Creating Layer mnist
I0228 20:27:30.989339 18508 net.cpp:380] mnist -> data
I0228 20:27:30.989339 18508 net.cpp:380] mnist -> label
I0228 20:27:30.990345 18508 data_transformer.cpp:26] Loading mean file from: examples/mydata/mydata_mean.binaryproto
I0228 20:27:30.993352 18508 data_layer.cpp:45] output data size: 32,3,35,35
I0228 20:27:30.995358 18508 net.cpp:122] Setting up mnist
I0228 20:27:30.995358 18508 net.cpp:129] Top shape: 32 3 35 35 (117600)
I0228 20:27:30.995358 18508 net.cpp:129] Top shape: 32 (32)
I0228 20:27:30.995358 18508 net.cpp:137] Memory required for data: 470528
I0228 20:27:30.995358 18508 layer_factory.hpp:77] Creating layer conv1
I0228 20:27:30.996361 18508 net.cpp:84] Creating Layer conv1
I0228 20:27:30.996361 18508 net.cpp:406] conv1 <- data
I0228 20:27:30.996361 18508 net.cpp:380] conv1 -> conv1
I0228 20:27:31.614720 18508 net.cpp:122] Setting up conv1
I0228 20:27:31.614720 18508 net.cpp:129] Top shape: 32 20 31 31 (615040)
I0228 20:27:31.626758 18508 net.cpp:137] Memory required for data: 2930688
I0228 20:27:31.626758 18508 layer_factory.hpp:77] Creating layer pool1
I0228 20:27:31.627758 18508 net.cpp:84] Creating Layer pool1
I0228 20:27:31.627758 18508 net.cpp:406] pool1 <- conv1
I0228 20:27:31.627758 18508 net.cpp:380] pool1 -> pool1
I0228 20:27:31.628764 18508 net.cpp:122] Setting up pool1
I0228 20:27:31.628764 18508 net.cpp:129] Top shape: 32 20 16 16 (163840)
I0228 20:27:31.628764 18508 net.cpp:137] Memory required for data: 3586048
I0228 20:27:31.628764 18508 layer_factory.hpp:77] Creating layer conv2
I0228 20:27:31.629762 18508 net.cpp:84] Creating Layer conv2
I0228 20:27:31.630765 18508 net.cpp:406] conv2 <- pool1
I0228 20:27:31.631767 18508 net.cpp:380] conv2 -> conv2
I0228 20:27:31.634775 18508 net.cpp:122] Setting up conv2
I0228 20:27:31.634775 18508 net.cpp:129] Top shape: 32 50 12 12 (230400)
I0228 20:27:31.634775 18508 net.cpp:137] Memory required for data: 4507648
I0228 20:27:31.635777 18508 layer_factory.hpp:77] Creating layer pool2
I0228 20:27:31.635777 18508 net.cpp:84] Creating Layer pool2
I0228 20:27:31.635777 18508 net.cpp:406] pool2 <- conv2
I0228 20:27:31.635777 18508 net.cpp:380] pool2 -> pool2
I0228 20:27:31.635777 18508 net.cpp:122] Setting up pool2
I0228 20:27:31.636781 18508 net.cpp:129] Top shape: 32 50 6 6 (57600)
I0228 20:27:31.636781 18508 net.cpp:137] Memory required for data: 4738048
I0228 20:27:31.636781 18508 layer_factory.hpp:77] Creating layer ip1
I0228 20:27:31.636781 18508 net.cpp:84] Creating Layer ip1
I0228 20:27:31.637784 18508 net.cpp:406] ip1 <- pool2
I0228 20:27:31.637784 18508 net.cpp:380] ip1 -> ip1
I0228 20:27:31.643811 18508 net.cpp:122] Setting up ip1
I0228 20:27:31.643811 18508 net.cpp:129] Top shape: 32 500 (16000)
I0228 20:27:31.644809 18508 net.cpp:137] Memory required for data: 4802048
I0228 20:27:31.644809 18508 layer_factory.hpp:77] Creating layer relu1
I0228 20:27:31.645815 18508 net.cpp:84] Creating Layer relu1
I0228 20:27:31.645815 18508 net.cpp:406] relu1 <- ip1
I0228 20:27:31.646817 18508 net.cpp:367] relu1 -> ip1 (in-place)
I0228 20:27:31.647810 18508 net.cpp:122] Setting up relu1
I0228 20:27:31.647810 18508 net.cpp:129] Top shape: 32 500 (16000)
I0228 20:27:31.647810 18508 net.cpp:137] Memory required for data: 4866048
I0228 20:27:31.647810 18508 layer_factory.hpp:77] Creating layer ip2
I0228 20:27:31.648813 18508 net.cpp:84] Creating Layer ip2
I0228 20:27:31.648813 18508 net.cpp:406] ip2 <- ip1
I0228 20:27:31.648813 18508 net.cpp:380] ip2 -> ip2
I0228 20:27:31.649816 18508 net.cpp:122] Setting up ip2
I0228 20:27:31.650820 18508 net.cpp:129] Top shape: 32 2 (64)
I0228 20:27:31.650820 18508 net.cpp:137] Memory required for data: 4866304
I0228 20:27:31.651821 18508 layer_factory.hpp:77] Creating layer loss
I0228 20:27:31.651821 18508 net.cpp:84] Creating Layer loss
I0228 20:27:31.651821 18508 net.cpp:406] loss <- ip2
I0228 20:27:31.651821 18508 net.cpp:406] loss <- label
I0228 20:27:31.651821 18508 net.cpp:380] loss -> loss
I0228 20:27:31.653826 18508 layer_factory.hpp:77] Creating layer loss
…
I0228 20:27:31.657837 18508 solver.cpp:172] Creating test net (#0) specified by net file: E:/DeepLearning/caffe-windows/examples/mydata/lenet.prototxt
I0228 20:27:31.657837 18508 net.cpp:294] The NetState phase (1) differed from the phase (0) specified by a rule in layer mnist
I0228 20:27:31.657837 18508 net.cpp:51] Initializing net from parameters: 
name: "LeNet"
state {
  phase: TEST
}
debug_info: true
layer {
  name: "mnist"
  type: "Data"
  top: "data"
  top: "label"
  include {
    phase: TEST
  }
  transform_param {
    mean_file: "examples/mydata/mydata_mean.binaryproto"
  }
  data_param {
    source: "examples/mydata/val"
    batch_size: 32
    backend: LMDB
  }
}
layer {
  name: "conv1"
  type: "Convolution"
  bottom: "data"
  top: "conv1"
  param {
    lr_mult: 1
  }
  param {
    lr_mult: 2
  }
  convolution_param {
    num_output: 20
    kernel_size: 5
    stride: 1
    weight_filler {
      type: "xavier"
    }
    bias_filler {
      type: "constant"
    }
  }
}
layer {
  name: "pool1"
  type: "Pooling"
  bottom: "conv1"
  top: "pool1"
  pooling_param {
    pool: MAX
    kernel_size: 2
    stride: 2
  }
}
layer {
  name: "conv2"
  type: "Convolution"
  bottom: "pool1"
  top: "conv2"
  param {
    lr_mult: 1
  }
  param {
    lr_mult: 2
  }
  convolution_param {
    num_output: 50
    kernel_size: 5
    stride: 1
    weight_filler {
      type: "xavier"
    }
    bias_filler {
      type: "constant"
    }
  }
}
layer {
  name: "pool2"
  type: "Pooling"
  bottom: "conv2"
  top: "pool2"
  pooling_param {
    pool: MAX
    kernel_size: 2
    stride: 2
  }
}
layer {
  name: "ip1"
  type: "InnerProduct"
  bottom: "pool2"
  top: "ip1"
  param {
    lr_mult: 1
  }
  param {
    lr_mult: 2
  }
  inner_product_param {
    num_output: 500
    weight_filler {
      type: "xavier"
    }
    bias_filler {
      type: "constant"
    }
  }
}
layer {
  name: "relu1"
  type: "ReLU"
  bottom: "ip1"
  top: "ip1"
}
layer {
  name: "ip2"
  type: "InnerProduct"
  bottom: "ip1"
  top: "ip2"
  param {
    lr_mult: 1
  }
  param {
    lr_mult: 2
  }
  inner_product_param {
    num_output: 2
    weight_filler {
      type: "xavier"
    }
    bias_filler {
      type: "constant"
    }
  }
}
layer {
  name: "accuracy"
  type: "Accuracy"
  bottom: "ip2"
  bottom: "label"
  top: "accuracy"
  include {
    phase: TEST
  }
}
layer {
  name: "loss"
  type: "SoftmaxWithLoss"
  bottom: "ip2"
  bottom: "label"
  top: "loss"
}
I0228 20:27:31.658840 18508 layer_factory.hpp:77] Creating layer mnist
I0228 20:27:31.680475 18508 db_lmdb.cpp:40] Opened lmdb examples/mydata/val
I0228 20:27:31.693665 18508 net.cpp:84] Creating Layer mnist
I0228 20:27:31.693665 18508 net.cpp:380] mnist -> data
I0228 20:27:31.693665 18508 net.cpp:380] mnist -> label
I0228 20:27:31.694665 18508 data_transformer.cpp:26] Loading mean file from: examples/mydata/mydata_mean.binaryproto
I0228 20:27:31.694665 18508 data_layer.cpp:45] output data size: 32,3,35,35
I0228 20:27:31.697685 18508 net.cpp:122] Setting up mnist
I0228 20:27:31.697685 18508 net.cpp:129] Top shape: 32 3 35 35 (117600)
I0228 20:27:31.699678 18508 net.cpp:129] Top shape: 32 (32)
I0228 20:27:31.699678 18508 net.cpp:137] Memory required for data: 470528
I0228 20:27:31.699678 18508 layer_factory.hpp:77] Creating layer label_mnist_1_split
I0228 20:27:31.700681 18508 net.cpp:84] Creating Layer label_mnist_1_split
I0228 20:27:31.700681 18508 net.cpp:406] label_mnist_1_split <- label
I0228 20:27:31.700681 18508 net.cpp:380] label_mnist_1_split -> label_mnist_1_split_0
I0228 20:27:31.700681 18508 net.cpp:380] label_mnist_1_split -> label_mnist_1_split_1
I0228 20:27:31.701684 18508 net.cpp:122] Setting up label_mnist_1_split
I0228 20:27:31.701684 18508 net.cpp:129] Top shape: 32 (32)
I0228 20:27:31.701684 18508 net.cpp:129] Top shape: 32 (32)
I0228 20:27:31.701684 18508 net.cpp:137] Memory required for data: 470784
I0228 20:27:31.702687 18508 layer_factory.hpp:77] Creating layer conv1
I0228 20:27:31.702687 18508 net.cpp:84] Creating Layer conv1
I0228 20:27:31.702687 18508 net.cpp:406] conv1 <- data
I0228 20:27:31.702687 18508 net.cpp:380] conv1 -> conv1
I0228 20:27:31.705695 18508 net.cpp:122] Setting up conv1
I0228 20:27:31.705695 18508 net.cpp:129] Top shape: 32 20 31 31 (615040)
I0228 20:27:31.706697 18508 net.cpp:137] Memory required for data: 2930944
I0228 20:27:31.706697 18508 layer_factory.hpp:77] Creating layer pool1
I0228 20:27:31.706697 18508 net.cpp:84] Creating Layer pool1
I0228 20:27:31.706697 18508 net.cpp:406] pool1 <- conv1
I0228 20:27:31.707700 18508 net.cpp:380] pool1 -> pool1
I0228 20:27:31.707700 18508 net.cpp:122] Setting up pool1
I0228 20:27:31.707700 18508 net.cpp:129] Top shape: 32 20 16 16 (163840)
I0228 20:27:31.707700 18508 net.cpp:137] Memory required for data: 3586304
I0228 20:27:31.707700 18508 layer_factory.hpp:77] Creating layer conv2
I0228 20:27:31.710707 18508 net.cpp:84] Creating Layer conv2
I0228 20:27:31.710707 18508 net.cpp:406] conv2 <- pool1
I0228 20:27:31.710707 18508 net.cpp:380] conv2 -> conv2
I0228 20:27:31.713716 18508 net.cpp:122] Setting up conv2
I0228 20:27:31.713716 18508 net.cpp:129] Top shape: 32 50 12 12 (230400)
I0228 20:27:31.713716 18508 net.cpp:137] Memory required for data: 4507904
I0228 20:27:31.714718 18508 layer_factory.hpp:77] Creating layer pool2
I0228 20:27:31.714718 18508 net.cpp:84] Creating Layer pool2
I0228 20:27:31.714718 18508 net.cpp:406] pool2 <- conv2
I0228 20:27:31.714718 18508 net.cpp:380] pool2 -> pool2
I0228 20:27:31.715720 18508 net.cpp:122] Setting up pool2
I0228 20:27:31.715720 18508 net.cpp:129] Top shape: 32 50 6 6 (57600)
I0228 20:27:31.715720 18508 net.cpp:137] Memory required for data: 4738304
I0228 20:27:31.716729 18508 layer_factory.hpp:77] Creating layer ip1
I0228 20:27:31.716729 18508 net.cpp:84] Creating Layer ip1
I0228 20:27:31.716729 18508 net.cpp:406] ip1 <- pool2
I0228 20:27:31.717725 18508 net.cpp:380] ip1 -> ip1
I0228 20:27:31.723742 18508 net.cpp:122] Setting up ip1
I0228 20:27:31.724745 18508 net.cpp:129] Top shape: 32 500 (16000)
I0228 20:27:31.724745 18508 net.cpp:137] Memory required for data: 4802304
I0228 20:27:31.724745 18508 layer_factory.hpp:77] Creating layer relu1
I0228 20:27:31.725771 18508 net.cpp:84] Creating Layer relu1
I0228 20:27:31.726752 18508 net.cpp:406] relu1 <- ip1
I0228 20:27:31.726752 18508 net.cpp:367] relu1 -> ip1 (in-place)
I0228 20:27:31.727754 18508 net.cpp:122] Setting up relu1
I0228 20:27:31.727754 18508 net.cpp:129] Top shape: 32 500 (16000)
I0228 20:27:31.728756 18508 net.cpp:137] Memory required for data: 4866304
I0228 20:27:31.728756 18508 layer_factory.hpp:77] Creating layer ip2
I0228 20:27:31.728756 18508 net.cpp:84] Creating Layer ip2
I0228 20:27:31.728756 18508 net.cpp:406] ip2 <- ip1
I0228 20:27:31.728756 18508 net.cpp:380] ip2 -> ip2
I0228 20:27:31.730760 18508 net.cpp:122] Setting up ip2
I0228 20:27:31.730760 18508 net.cpp:129] Top shape: 32 2 (64)
I0228 20:27:31.730760 18508 net.cpp:137] Memory required for data: 4866560
I0228 20:27:31.730760 18508 layer_factory.hpp:77] Creating layer ip2_ip2_0_split
I0228 20:27:31.731763 18508 net.cpp:84] Creating Layer ip2_ip2_0_split
I0228 20:27:31.731763 18508 net.cpp:406] ip2_ip2_0_split <- ip2
I0228 20:27:31.731763 18508 net.cpp:380] ip2_ip2_0_split -> ip2_ip2_0_split_0
I0228 20:27:31.731763 18508 net.cpp:380] ip2_ip2_0_split -> ip2_ip2_0_split_1
I0228 20:27:31.731763 18508 net.cpp:122] Setting up ip2_ip2_0_split
I0228 20:27:31.731763 18508 net.cpp:129] Top shape: 32 2 (64)
I0228 20:27:31.732765 18508 net.cpp:129] Top shape: 32 2 (64)
I0228 20:27:31.732765 18508 net.cpp:137] Memory required for data: 4867072
I0228 20:27:31.732765 18508 layer_factory.hpp:77] Creating layer accuracy
I0228 20:27:31.732765 18508 net.cpp:84] Creating Layer accuracy
I0228 20:27:31.733769 18508 net.cpp:406] accuracy <- ip2_ip2_0_split_0
I0228 20:27:31.733769 18508 net.cpp:406] accuracy <- label_mnist_1_split_0
I0228 20:27:31.733769 18508 net.cpp:380] accuracy -> accuracy
…
