…
  stage: ""
}
I0110 21:05:52.561218 24740 solver.cpp:87] Creating training net from net file: E:/DeepLearning/mtcnn_train/det1_train.ptototxt
I0110 21:05:52.562219 24740 net.cpp:51] Initializing net from parameters: 
name: "PNet"
state {
  phase: TRAIN
  level: 0
  stage: ""
}
layer {
  name: "data"
  type: "MTCNNData"
  top: "data"
  top: "label"
  top: "roi"
  transform_param {
    scale: 0.0078125
    mirror: false
    mean_value: 127.5
  }
  data_param {
    source: "E:/DeepLearning/mtcnn_train/mtcnn_train_lmdb"
    batch_size: 64
    backend: LMDB
  }
}
layer {
  name: "conv1"
  type: "Convolution"
  bottom: "data"
  top: "conv1"
  param {
    lr_mult: 1
    decay_mult: 1
  }
  param {
    lr_mult: 2
    decay_mult: 0
  }
  convolution_param {
    num_output: 10
    kernel_size: 3
    stride: 1
    weight_filler {
      type: "xavier"
    }
    bias_filler {
      type: "constant"
      value: 0
    }
  }
}
layer {
  name: "PReLU1"
  type: "PReLU"
  bottom: "conv1"
  top: "conv1"
}
layer {
  name: "pool1"
  type: "Pooling"
  bottom: "conv1"
  top: "pool1"
  pooling_param {
    pool: MAX
    kernel_size: 2
    stride: 2
  }
}
layer {
  name: "conv2"
  type: "Convolution"
  bottom: "pool1"
  top: "conv2"
  param {
    lr_mult: 1
    decay_mult: 1
  }
  param {
    lr_mult: 2
    decay_mult: 0
  }
  convolution_param {
    num_output: 16
    kernel_size: 3
    stride: 1
    weight_filler {
      type: "xavier"
    }
    bias_filler {
      type: "constant"
      value: 0
    }
  }
}
layer {
  name: "PReLU2"
  type: "PReLU"
  bottom: "conv2"
  top: "conv2"
}
layer {
  name: "conv3"
  type: "Convolution"
  bottom: "conv2"
  top: "conv3"
  param {
    lr_mult: 1
    decay_mult: 1
  }
  param {
    lr_mult: 2
    decay_mult: 0
  }
  convolution_param {
    num_output: 32
    kernel_size: 3
    stride: 1
    weight_filler {
      type: "xavier"
    }
    bias_filler {
      type: "constant"
      value: 0
    }
  }
}
layer {
  name: "PReLU3"
  type: "PReLU"
  bottom: "conv3"
  top: "conv3"
}
layer {
  name: "conv4-1"
  type: "Convolution"
  bottom: "conv3"
  top: "conv4-1"
  param {
    lr_mult: 1
    decay_mult: 1
  }
  param {
    lr_mult: 2
    decay_mult: 0
  }
  convolution_param {
    num_output: 2
    kernel_size: 1
    stride: 1
    weight_filler {
      type: "xavier"
    }
    bias_filler {
      type: "constant"
      value: 0
    }
  }
}
layer {
  name: "cls_loss"
  type: "SoftmaxWithLoss"
  bottom: "conv4-1"
  bottom: "label"
  top: "cls_loss"
  loss_weight: 1
  propagate_down: true
  propagate_down: false
  loss_param {
    ignore_label: -1
  }
}
layer {
  name: "cls_Acc"
  type: "Accuracy"
  bottom: "conv4-1"
  bottom: "label"
  top: "cls_acc"
  include {
    phase: TRAIN
  }
  accuracy_param {
    ignore_label: -1
  }
}
layer {
  name: "conv4-2"
  type: "Convolution"
  bottom: "conv3"
  top: "conv4-2"
  param {
    lr_mult: 1
    decay_mult: 1
  }
  param {
    lr_mult: 2
    decay_mult: 0
  }
  convolution_param {
    num_output: 4
    kernel_size: 1
    stride: 1
    weight_filler {
      type: "xavier"
    }
    bias_filler {
      type: "constant"
      value: 0
    }
  }
}
layer {
  name: "roi_loss"
  type: "MTCNNEuclideanLoss"
  bottom: "conv4-2"
  bottom: "roi"
  bottom: "label"
  top: "roi_loss"
  loss_weight: 0.5
  loss_param {
    ignore_label: 0
  }
}
I0110 21:05:52.563222 24740 layer_factory.hpp:77] Creating layer data
I0110 21:05:52.566241 24740 db_lmdb.cpp:40] Opened lmdb E:/DeepLearning/mtcnn_train/mtcnn_train_lmdb
I0110 21:05:52.569241 24740 net.cpp:84] Creating Layer data
I0110 21:05:52.570242 24740 net.cpp:380] data -> data
I0110 21:05:52.574265 24740 net.cpp:380] data -> label
I0110 21:05:52.576258 24740 net.cpp:380] data -> roi
I0110 21:05:52.578264 24740 mtcnn_data_layer.cpp:45] output data size: 64,3,12,12
I0110 21:05:52.580281 24740 net.cpp:122] Setting up data
I0110 21:05:52.580281 24740 net.cpp:129] Top shape: 64 3 12 12 (27648)
I0110 21:05:52.582275 24740 net.cpp:129] Top shape: 64 (64)
I0110 21:05:52.585283 24740 net.cpp:129] Top shape: 64 4 (256)
I0110 21:05:52.587286 24740 net.cpp:137] Memory required for data: 111872
I0110 21:05:52.588289 24740 layer_factory.hpp:77] Creating layer label_data_1_split
I0110 21:05:52.589292 24740 net.cpp:84] Creating Layer label_data_1_split
I0110 21:05:52.590294 24740 net.cpp:406] label_data_1_split <- label
I0110 21:05:52.591297 24740 net.cpp:380] label_data_1_split -> label_data_1_split_0
I0110 21:05:52.592299 24740 net.cpp:380] label_data_1_split -> label_data_1_split_1
I0110 21:05:52.593302 24740 net.cpp:380] label_data_1_split -> label_data_1_split_2
I0110 21:05:52.597312 24740 net.cpp:122] Setting up label_data_1_split
I0110 21:05:52.598315 24740 net.cpp:129] Top shape: 64 (64)
I0110 21:05:52.600320 24740 net.cpp:129] Top shape: 64 (64)
I0110 21:05:52.601323 24740 net.cpp:129] Top shape: 64 (64)
I0110 21:05:52.602326 24740 net.cpp:137] Memory required for data: 112640
I0110 21:05:52.603328 24740 layer_factory.hpp:77] Creating layer conv1
I0110 21:05:52.606336 24740 net.cpp:84] Creating Layer conv1
I0110 21:05:52.607342 24740 net.cpp:406] conv1 <- data
I0110 21:05:52.609344 24740 net.cpp:380] conv1 -> conv1
I0110 21:05:53.278125 24740 net.cpp:122] Setting up conv1
I0110 21:05:53.278125 24740 net.cpp:129] Top shape: 64 10 10 10 (64000)
I0110 21:05:53.280129 24740 net.cpp:137] Memory required for data: 368640
I0110 21:05:53.281131 24740 layer_factory.hpp:77] Creating layer PReLU1
I0110 21:05:53.282146 24740 net.cpp:84] Creating Layer PReLU1
I0110 21:05:53.283138 24740 net.cpp:406] PReLU1 <- conv1
I0110 21:05:53.284139 24740 net.cpp:367] PReLU1 -> conv1 (in-place)
I0110 21:05:53.286145 24740 net.cpp:122] Setting up PReLU1
I0110 21:05:53.286145 24740 net.cpp:129] Top shape: 64 10 10 10 (64000)
I0110 21:05:53.287147 24740 net.cpp:137] Memory required for data: 624640
I0110 21:05:53.289152 24740 layer_factory.hpp:77] Creating layer pool1
I0110 21:05:53.291158 24740 net.cpp:84] Creating Layer pool1
I0110 21:05:53.293164 24740 net.cpp:406] pool1 <- conv1
I0110 21:05:53.294165 24740 net.cpp:380] pool1 -> pool1
I0110 21:05:53.295168 24740 net.cpp:122] Setting up pool1
I0110 21:05:53.296172 24740 net.cpp:129] Top shape: 64 10 5 5 (16000)
I0110 21:05:53.296172 24740 net.cpp:137] Memory required for data: 688640
I0110 21:05:53.297173 24740 layer_factory.hpp:77] Creating layer conv2
I0110 21:05:53.299180 24740 net.cpp:84] Creating Layer conv2
I0110 21:05:53.302188 24740 net.cpp:406] conv2 <- pool1
I0110 21:05:53.303190 24740 net.cpp:380] conv2 -> conv2
I0110 21:05:53.306197 24740 net.cpp:122] Setting up conv2
I0110 21:05:53.307199 24740 net.cpp:129] Top shape: 64 16 3 3 (9216)
I0110 21:05:53.308204 24740 net.cpp:137] Memory required for data: 725504
I0110 21:05:53.309206 24740 layer_factory.hpp:77] Creating layer PReLU2
I0110 21:05:53.311211 24740 net.cpp:84] Creating Layer PReLU2
I0110 21:05:53.312213 24740 net.cpp:406] PReLU2 <- conv2
I0110 21:05:53.313217 24740 net.cpp:367] PReLU2 -> conv2 (in-place)
I0110 21:05:53.314218 24740 net.cpp:122] Setting up PReLU2
I0110 21:05:53.315222 24740 net.cpp:129] Top shape: 64 16 3 3 (9216)
I0110 21:05:53.316226 24740 net.cpp:137] Memory required for data: 762368
I0110 21:05:53.317227 24740 layer_factory.hpp:77] Creating layer conv3
I0110 21:05:53.318230 24740 net.cpp:84] Creating Layer conv3
I0110 21:05:53.320236 24740 net.cpp:406] conv3 <- conv2
I0110 21:05:53.322242 24740 net.cpp:380] conv3 -> conv3
I0110 21:05:53.325250 24740 net.cpp:122] Setting up conv3
I0110 21:05:53.325250 24740 net.cpp:129] Top shape: 64 32 1 1 (2048)
I0110 21:05:53.326252 24740 net.cpp:137] Memory required for data: 770560
I0110 21:05:53.327255 24740 layer_factory.hpp:77] Creating layer PReLU3
I0110 21:05:53.328258 24740 net.cpp:84] Creating Layer PReLU3
I0110 21:05:53.330263 24740 net.cpp:406] PReLU3 <- conv3
I0110 21:05:53.331266 24740 net.cpp:367] PReLU3 -> conv3 (in-place)
I0110 21:05:53.332268 24740 net.cpp:122] Setting up PReLU3
I0110 21:05:53.333271 24740 net.cpp:129] Top shape: 64 32 1 1 (2048)
I0110 21:05:53.335278 24740 net.cpp:137] Memory required for data: 778752
I0110 21:05:53.336279 24740 layer_factory.hpp:77] Creating layer conv3_PReLU3_0_split
I0110 21:05:53.337282 24740 net.cpp:84] Creating Layer conv3_PReLU3_0_split
I0110 21:05:53.338284 24740 net.cpp:406] conv3_PReLU3_0_split <- conv3
I0110 21:05:53.340289 24740 net.cpp:380] conv3_PReLU3_0_split -> conv3_PReLU3_0_split_0
I0110 21:05:53.341292 24740 net.cpp:380] conv3_PReLU3_0_split -> conv3_PReLU3_0_split_1
I0110 21:05:53.342295 24740 net.cpp:122] Setting up conv3_PReLU3_0_split
I0110 21:05:53.343298 24740 net.cpp:129] Top shape: 64 32 1 1 (2048)
I0110 21:05:53.344300 24740 net.cpp:129] Top shape: 64 32 1 1 (2048)
I0110 21:05:53.345304 24740 net.cpp:137] Memory required for data: 795136
I0110 21:05:53.345304 24740 layer_factory.hpp:77] Creating layer conv4-1
I0110 21:05:53.346307 24740 net.cpp:84] Creating Layer conv4-1
I0110 21:05:53.347308 24740 net.cpp:406] conv4-1 <- conv3_PReLU3_0_split_0
I0110 21:05:53.348311 24740 net.cpp:380] conv4-1 -> conv4-1
I0110 21:05:53.353324 24740 net.cpp:122] Setting up conv4-1
I0110 21:05:53.353324 24740 net.cpp:129] Top shape: 64 2 1 1 (128)
I0110 21:05:53.354327 24740 net.cpp:137] Memory required for data: 795648
I0110 21:05:53.355330 24740 layer_factory.hpp:77] Creating layer conv4-1_conv4-1_0_split
I0110 21:05:53.356333 24740 net.cpp:84] Creating Layer conv4-1_conv4-1_0_split
I0110 21:05:53.357336 24740 net.cpp:406] conv4-1_conv4-1_0_split <- conv4-1
I0110 21:05:53.357336 24740 net.cpp:380] conv4-1_conv4-1_0_split -> conv4-1_conv4-1_0_split_0
I0110 21:05:53.358337 24740 net.cpp:380] conv4-1_conv4-1_0_split -> conv4-1_conv4-1_0_split_1
I0110 21:05:53.361346 24740 net.cpp:122] Setting up conv4-1_conv4-1_0_split
I0110 21:05:53.362349 24740 net.cpp:129] Top shape: 64 2 1 1 (128)
I0110 21:05:53.362349 24740 net.cpp:129] Top shape: 64 2 1 1 (128)
I0110 21:05:53.364353 24740 net.cpp:137] Memory required for data: 796672
I0110 21:05:53.365356 24740 layer_factory.hpp:77] Creating layer cls_loss
I0110 21:05:53.366358 24740 net.cpp:84] Creating Layer cls_loss
I0110 21:05:53.367360 24740 net.cpp:406] cls_loss <- conv4-1_conv4-1_0_split_0
I0110 21:05:53.368381 24740 net.cpp:406] cls_loss <- label_data_1_split_0
I0110 21:05:53.371371 24740 net.cpp:380] cls_loss -> cls_loss
…
