…
}
I0112 17:25:09.158414 10400 solver.cpp:87] Creating training net from net file: E:/DeepLearning/mtcnn_train/det1_train.ptototxt
I0112 17:25:09.159449 10400 net.cpp:51] Initializing net from parameters: 
name: "PNet"
state {
  phase: TRAIN
  level: 0
  stage: ""
}
layer {
  name: "data"
  type: "MTCNNData"
  top: "data"
  top: "label"
  top: "roi"
  transform_param {
    scale: 0.0078125
    mirror: false
    mean_value: 127.5
  }
  data_param {
    source: "E:/DeepLearning/mtcnn_train/data/mtcnn_train_12"
    batch_size: 64
    backend: LMDB
  }
}
layer {
  name: "conv1"
  type: "Convolution"
  bottom: "data"
  top: "conv1"
  param {
    lr_mult: 1
    decay_mult: 1
  }
  param {
    lr_mult: 2
    decay_mult: 0
  }
  convolution_param {
    num_output: 10
    kernel_size: 3
    stride: 1
    weight_filler {
      type: "xavier"
    }
    bias_filler {
      type: "constant"
      value: 0
    }
  }
}
layer {
  name: "PReLU1"
  type: "PReLU"
  bottom: "conv1"
  top: "conv1"
}
layer {
  name: "pool1"
  type: "Pooling"
  bottom: "conv1"
  top: "pool1"
  pooling_param {
    pool: MAX
    kernel_size: 2
    stride: 2
  }
}
layer {
  name: "conv2"
  type: "Convolution"
  bottom: "pool1"
  top: "conv2"
  param {
    lr_mult: 1
    decay_mult: 1
  }
  param {
    lr_mult: 2
    decay_mult: 0
  }
  convolution_param {
    num_output: 16
    kernel_size: 3
    stride: 1
    weight_filler {
      type: "xavier"
    }
    bias_filler {
      type: "constant"
      value: 0
    }
  }
}
layer {
  name: "PReLU2"
  type: "PReLU"
  bottom: "conv2"
  top: "conv2"
}
layer {
  name: "conv3"
  type: "Convolution"
  bottom: "conv2"
  top: "conv3"
  param {
    lr_mult: 1
    decay_mult: 1
  }
  param {
    lr_mult: 2
    decay_mult: 0
  }
  convolution_param {
    num_output: 32
    kernel_size: 3
    stride: 1
    weight_filler {
      type: "xavier"
    }
    bias_filler {
      type: "constant"
      value: 0
    }
  }
}
layer {
  name: "PReLU3"
  type: "PReLU"
  bottom: "conv3"
  top: "conv3"
}
layer {
  name: "conv4-1"
  type: "Convolution"
  bottom: "conv3"
  top: "conv4-1"
  param {
    lr_mult: 1
    decay_mult: 1
  }
  param {
    lr_mult: 2
    decay_mult: 0
  }
  convolution_param {
    num_output: 2
    kernel_size: 1
    stride: 1
    weight_filler {
      type: "xavier"
    }
    bias_filler {
      type: "constant"
      value: 0
    }
  }
}
layer {
  name: "cls_loss"
  type: "SoftmaxWithLoss"
  bottom: "conv4-1"
  bottom: "label"
  top: "cls_loss"
  loss_weight: 1
  propagate_down: true
  propagate_down: false
  loss_param {
    ignore_label: -1
  }
}
layer {
  name: "cls_Acc"
  type: "Accuracy"
  bottom: "conv4-1"
  bottom: "label"
  top: "cls_acc"
  include {
    phase: TRAIN
  }
  accuracy_param {
    ignore_label: -1
  }
}
layer {
  name: "conv4-2"
  type: "Convolution"
  bottom: "conv3"
  top: "conv4-2"
  param {
    lr_mult: 1
    decay_mult: 1
  }
  param {
    lr_mult: 2
    decay_mult: 0
  }
  convolution_param {
    num_output: 4
    kernel_size: 1
    stride: 1
    weight_filler {
      type: "xavier"
    }
    bias_filler {
      type: "constant"
      value: 0
    }
  }
}
layer {
  name: "roi_loss"
  type: "MTCNNEuclideanLoss"
  bottom: "conv4-2"
  bottom: "roi"
  bottom: "label"
  top: "roi_loss"
  loss_weight: 0.5
  loss_param {
    ignore_label: 0
  }
}
I0112 17:25:09.160444 10400 layer_factory.hpp:77] Creating layer data
I0112 17:25:09.165432 10400 db_lmdb.cpp:40] Opened lmdb E:/DeepLearning/mtcnn_train/data/mtcnn_train_12
I0112 17:25:09.165432 10400 net.cpp:84] Creating Layer data
I0112 17:25:09.166437 10400 net.cpp:380] data -> data
I0112 17:25:09.166437 10400 net.cpp:380] data -> label
I0112 17:25:09.167438 10400 net.cpp:380] data -> roi
I0112 17:25:09.170445 10400 mtcnn_data_layer.cpp:45] output data size: 64,3,12,12
I0112 17:25:09.172451 10400 net.cpp:122] Setting up data
I0112 17:25:09.172451 10400 net.cpp:129] Top shape: 64 3 12 12 (27648)
I0112 17:25:09.173454 10400 net.cpp:129] Top shape: 64 (64)
I0112 17:25:09.173454 10400 net.cpp:129] Top shape: 64 4 (256)
I0112 17:25:09.173454 10400 net.cpp:137] Memory required for data: 111872
I0112 17:25:09.174456 10400 layer_factory.hpp:77] Creating layer label_data_1_split
I0112 17:25:09.174456 10400 net.cpp:84] Creating Layer label_data_1_split
I0112 17:25:09.174456 10400 net.cpp:406] label_data_1_split <- label
I0112 17:25:09.174456 10400 net.cpp:380] label_data_1_split -> label_data_1_split_0
I0112 17:25:09.175458 10400 net.cpp:380] label_data_1_split -> label_data_1_split_1
I0112 17:25:09.175458 10400 net.cpp:380] label_data_1_split -> label_data_1_split_2
I0112 17:25:09.175458 10400 net.cpp:122] Setting up label_data_1_split
I0112 17:25:09.175458 10400 net.cpp:129] Top shape: 64 (64)
I0112 17:25:09.176462 10400 net.cpp:129] Top shape: 64 (64)
I0112 17:25:09.176462 10400 net.cpp:129] Top shape: 64 (64)
I0112 17:25:09.176462 10400 net.cpp:137] Memory required for data: 112640
I0112 17:25:09.176462 10400 layer_factory.hpp:77] Creating layer conv1
I0112 17:25:09.177464 10400 net.cpp:84] Creating Layer conv1
I0112 17:25:09.177464 10400 net.cpp:406] conv1 <- data
I0112 17:25:09.177464 10400 net.cpp:380] conv1 -> conv1
I0112 17:25:09.783707 10400 net.cpp:122] Setting up conv1
I0112 17:25:09.783707 10400 net.cpp:129] Top shape: 64 10 10 10 (64000)
I0112 17:25:09.783707 10400 net.cpp:137] Memory required for data: 368640
I0112 17:25:09.784710 10400 layer_factory.hpp:77] Creating layer PReLU1
I0112 17:25:09.784710 10400 net.cpp:84] Creating Layer PReLU1
I0112 17:25:09.784710 10400 net.cpp:406] PReLU1 <- conv1
I0112 17:25:09.785712 10400 net.cpp:367] PReLU1 -> conv1 (in-place)
I0112 17:25:09.785712 10400 net.cpp:122] Setting up PReLU1
I0112 17:25:09.785712 10400 net.cpp:129] Top shape: 64 10 10 10 (64000)
I0112 17:25:09.785712 10400 net.cpp:137] Memory required for data: 624640
I0112 17:25:09.785712 10400 layer_factory.hpp:77] Creating layer pool1
I0112 17:25:09.786715 10400 net.cpp:84] Creating Layer pool1
I0112 17:25:09.786715 10400 net.cpp:406] pool1 <- conv1
I0112 17:25:09.786715 10400 net.cpp:380] pool1 -> pool1
I0112 17:25:09.786715 10400 net.cpp:122] Setting up pool1
I0112 17:25:09.786715 10400 net.cpp:129] Top shape: 64 10 5 5 (16000)
I0112 17:25:09.787719 10400 net.cpp:137] Memory required for data: 688640
I0112 17:25:09.787719 10400 layer_factory.hpp:77] Creating layer conv2
I0112 17:25:09.787719 10400 net.cpp:84] Creating Layer conv2
I0112 17:25:09.787719 10400 net.cpp:406] conv2 <- pool1
I0112 17:25:09.787719 10400 net.cpp:380] conv2 -> conv2
I0112 17:25:09.789723 10400 net.cpp:122] Setting up conv2
I0112 17:25:09.790726 10400 net.cpp:129] Top shape: 64 16 3 3 (9216)
I0112 17:25:09.790726 10400 net.cpp:137] Memory required for data: 725504
I0112 17:25:09.790726 10400 layer_factory.hpp:77] Creating layer PReLU2
I0112 17:25:09.790726 10400 net.cpp:84] Creating Layer PReLU2
I0112 17:25:09.790726 10400 net.cpp:406] PReLU2 <- conv2
I0112 17:25:09.791728 10400 net.cpp:367] PReLU2 -> conv2 (in-place)
I0112 17:25:09.791728 10400 net.cpp:122] Setting up PReLU2
I0112 17:25:09.791728 10400 net.cpp:129] Top shape: 64 16 3 3 (9216)
I0112 17:25:09.791728 10400 net.cpp:137] Memory required for data: 762368
I0112 17:25:09.791728 10400 layer_factory.hpp:77] Creating layer conv3
I0112 17:25:09.794736 10400 net.cpp:84] Creating Layer conv3
I0112 17:25:09.794736 10400 net.cpp:406] conv3 <- conv2
I0112 17:25:09.794736 10400 net.cpp:380] conv3 -> conv3
I0112 17:25:09.797745 10400 net.cpp:122] Setting up conv3
I0112 17:25:09.797745 10400 net.cpp:129] Top shape: 64 32 1 1 (2048)
I0112 17:25:09.797745 10400 net.cpp:137] Memory required for data: 770560
I0112 17:25:09.798761 10400 layer_factory.hpp:77] Creating layer PReLU3
I0112 17:25:09.798761 10400 net.cpp:84] Creating Layer PReLU3
I0112 17:25:09.798761 10400 net.cpp:406] PReLU3 <- conv3
I0112 17:25:09.799749 10400 net.cpp:367] PReLU3 -> conv3 (in-place)
I0112 17:25:09.799749 10400 net.cpp:122] Setting up PReLU3
I0112 17:25:09.799749 10400 net.cpp:129] Top shape: 64 32 1 1 (2048)
I0112 17:25:09.799749 10400 net.cpp:137] Memory required for data: 778752
I0112 17:25:09.800753 10400 layer_factory.hpp:77] Creating layer conv3_PReLU3_0_split
I0112 17:25:09.800753 10400 net.cpp:84] Creating Layer conv3_PReLU3_0_split
I0112 17:25:09.800753 10400 net.cpp:406] conv3_PReLU3_0_split <- conv3
I0112 17:25:09.800753 10400 net.cpp:380] conv3_PReLU3_0_split -> conv3_PReLU3_0_split_0
I0112 17:25:09.801755 10400 net.cpp:380] conv3_PReLU3_0_split -> conv3_PReLU3_0_split_1
I0112 17:25:09.801755 10400 net.cpp:122] Setting up conv3_PReLU3_0_split
I0112 17:25:09.801755 10400 net.cpp:129] Top shape: 64 32 1 1 (2048)
I0112 17:25:09.801755 10400 net.cpp:129] Top shape: 64 32 1 1 (2048)
I0112 17:25:09.801755 10400 net.cpp:137] Memory required for data: 795136
I0112 17:25:09.802758 10400 layer_factory.hpp:77] Creating layer conv4-1
I0112 17:25:09.802758 10400 net.cpp:84] Creating Layer conv4-1
I0112 17:25:09.802758 10400 net.cpp:406] conv4-1 <- conv3_PReLU3_0_split_0
I0112 17:25:09.802758 10400 net.cpp:380] conv4-1 -> conv4-1
I0112 17:25:09.804764 10400 net.cpp:122] Setting up conv4-1
I0112 17:25:09.805766 10400 net.cpp:129] Top shape: 64 2 1 1 (128)
I0112 17:25:09.805766 10400 net.cpp:137] Memory required for data: 795648
I0112 17:25:09.805766 10400 layer_factory.hpp:77] Creating layer conv4-1_conv4-1_0_split
I0112 17:25:09.805766 10400 net.cpp:84] Creating Layer conv4-1_conv4-1_0_split
I0112 17:25:09.806769 10400 net.cpp:406] conv4-1_conv4-1_0_split <- conv4-1
I0112 17:25:09.806769 10400 net.cpp:380] conv4-1_conv4-1_0_split -> conv4-1_conv4-1_0_split_0
I0112 17:25:09.806769 10400 net.cpp:380] conv4-1_conv4-1_0_split -> conv4-1_conv4-1_0_split_1
I0112 17:25:09.807771 10400 net.cpp:122] Setting up conv4-1_conv4-1_0_split
I0112 17:25:09.807771 10400 net.cpp:129] Top shape: 64 2 1 1 (128)
I0112 17:25:09.807771 10400 net.cpp:129] Top shape: 64 2 1 1 (128)
I0112 17:25:09.807771 10400 net.cpp:137] Memory required for data: 796672
I0112 17:25:09.807771 10400 layer_factory.hpp:77] Creating layer cls_loss
I0112 17:25:09.808773 10400 net.cpp:84] Creating Layer cls_loss
I0112 17:25:09.808773 10400 net.cpp:406] cls_loss <- conv4-1_conv4-1_0_split_0
I0112 17:25:09.808773 10400 net.cpp:406] cls_loss <- label_data_1_split_0
I0112 17:25:09.808773 10400 net.cpp:380] cls_loss -> cls_loss
…
