…
}
I0112 17:30:50.367605 11848 solver.cpp:87] Creating training net from net file: E:/DeepLearning/mtcnn_train/det3-train.prototxt
I0112 17:30:50.368607 11848 net.cpp:51] Initializing net from parameters: 
name: "ONet"
state {
  phase: TRAIN
  level: 0
  stage: ""
}
layer {
  name: "data"
  type: "MTCNNData"
  top: "data"
  top: "label"
  top: "roi"
  transform_param {
    scale: 0.0078125
    mirror: false
    mean_value: 127.5
  }
  data_param {
    source: "E:/DeepLearning/mtcnn_train/data/mtcnn_train_48"
    batch_size: 64
    backend: LMDB
  }
}
layer {
  name: "conv1"
  type: "Convolution"
  bottom: "data"
  top: "conv1"
  param {
    lr_mult: 1
    decay_mult: 1
  }
  param {
    lr_mult: 2
    decay_mult: 1
  }
  convolution_param {
    num_output: 32
    kernel_size: 3
    stride: 1
    weight_filler {
      type: "xavier"
    }
    bias_filler {
      type: "constant"
      value: 0
    }
  }
}
layer {
  name: "prelu1"
  type: "PReLU"
  bottom: "conv1"
  top: "conv1"
}
layer {
  name: "pool1"
  type: "Pooling"
  bottom: "conv1"
  top: "pool1"
  pooling_param {
    pool: MAX
    kernel_size: 3
    stride: 2
  }
}
layer {
  name: "conv2"
  type: "Convolution"
  bottom: "pool1"
  top: "conv2"
  param {
    lr_mult: 1
    decay_mult: 1
  }
  param {
    lr_mult: 2
    decay_mult: 1
  }
  convolution_param {
    num_output: 64
    kernel_size: 3
    stride: 1
    weight_filler {
      type: "xavier"
    }
    bias_filler {
      type: "constant"
      value: 0
    }
  }
}
layer {
  name: "prelu2"
  type: "PReLU"
  bottom: "conv2"
  top: "conv2"
}
layer {
  name: "pool2"
  type: "Pooling"
  bottom: "conv2"
  top: "pool2"
  pooling_param {
    pool: MAX
    kernel_size: 3
    stride: 2
  }
}
layer {
  name: "conv3"
  type: "Convolution"
  bottom: "pool2"
  top: "conv3"
  param {
    lr_mult: 1
    decay_mult: 1
  }
  param {
    lr_mult: 2
    decay_mult: 1
  }
  convolution_param {
    num_output: 64
    kernel_size: 3
    weight_filler {
      type: "xavier"
    }
    bias_filler {
      type: "constant"
      value: 0
    }
  }
}
layer {
  name: "prelu3"
  type: "PReLU"
  bottom: "conv3"
  top: "conv3"
}
layer {
  name: "pool3"
  type: "Pooling"
  bottom: "conv3"
  top: "pool3"
  pooling_param {
    pool: MAX
    kernel_size: 2
    stride: 2
  }
}
layer {
  name: "conv4"
  type: "Convolution"
  bottom: "pool3"
  top: "conv4"
  param {
    lr_mult: 1
    decay_mult: 1
  }
  param {
    lr_mult: 2
    decay_mult: 1
  }
  convolution_param {
    num_output: 128
    kernel_size: 2
    weight_filler {
      type: "xavier"
    }
    bias_filler {
      type: "constant"
      value: 0
    }
  }
}
layer {
  name: "prelu4"
  type: "PReLU"
  bottom: "conv4"
  top: "conv4"
}
layer {
  name: "conv5"
  type: "InnerProduct"
  bottom: "conv4"
  top: "conv5"
  param {
    lr_mult: 1
    decay_mult: 1
  }
  param {
    lr_mult: 2
    decay_mult: 1
  }
  inner_product_param {
    num_output: 256
    weight_filler {
      type: "xavier"
    }
    bias_filler {
      type: "constant"
      value: 0
    }
  }
}
layer {
  name: "drop5"
  type: "Dropout"
  bottom: "conv5"
  top: "conv5"
  dropout_param {
    dropout_ratio: 0.25
  }
}
layer {
  name: "prelu5"
  type: "PReLU"
  bottom: "conv5"
  top: "conv5"
}
layer {
  name: "conv6-1"
  type: "InnerProduct"
  bottom: "conv5"
  top: "conv6-1"
  param {
    lr_mult: 1
    decay_mult: 1
  }
  param {
    lr_mult: 2
    decay_mult: 1
  }
  inner_product_param {
    num_output: 2
    weight_filler {
      type: "xavier"
    }
    bias_filler {
      type: "constant"
      value: 0
    }
  }
}
layer {
  name: "cls_loss"
  type: "SoftmaxWithLoss"
  bottom: "conv6-1"
  bottom: "label"
  top: "cls_loss"
  loss_weight: 1
  propagate_down: true
  propagate_down: false
  loss_param {
    ignore_label: -1
  }
}
layer {
  name: "cls_Acc"
  type: "Accuracy"
  bottom: "conv6-1"
  bottom: "label"
  top: "cls_acc"
  include {
    phase: TRAIN
  }
  accuracy_param {
    ignore_label: -1
  }
}
layer {
  name: "conv6-2"
  type: "InnerProduct"
  bottom: "conv5"
  top: "conv6-2"
  param {
    lr_mult: 1
    decay_mult: 1
  }
  param {
    lr_mult: 2
    decay_mult: 1
  }
  inner_product_param {
    num_output: 4
    weight_filler {
      type: "xavier"
    }
    bias_filler {
      type: "constant"
      value: 0
    }
  }
}
layer {
  name: "roi_loss"
  type: "MTCNNEuclideanLoss"
  bottom: "conv6-2"
  bottom: "roi"
  bottom: "label"
  top: "roi_loss"
  loss_weight: 0.5
  loss_param {
    ignore_label: 0
  }
  accuracy_param {
    ignore_label: 0
  }
}
I0112 17:30:50.371615 11848 layer_factory.hpp:77] Creating layer data
I0112 17:30:50.375634 11848 db_lmdb.cpp:40] Opened lmdb E:/DeepLearning/mtcnn_train/data/mtcnn_train_48
I0112 17:30:50.375634 11848 net.cpp:84] Creating Layer data
I0112 17:30:50.375634 11848 net.cpp:380] data -> data
I0112 17:30:50.376628 11848 net.cpp:380] data -> label
I0112 17:30:50.376628 11848 net.cpp:380] data -> roi
I0112 17:30:50.377634 11848 mtcnn_data_layer.cpp:45] output data size: 64,3,48,48
I0112 17:30:50.385653 11848 net.cpp:122] Setting up data
I0112 17:30:50.385653 11848 net.cpp:129] Top shape: 64 3 48 48 (442368)
I0112 17:30:50.386656 11848 net.cpp:129] Top shape: 64 (64)
I0112 17:30:50.386656 11848 net.cpp:129] Top shape: 64 4 (256)
I0112 17:30:50.387658 11848 net.cpp:137] Memory required for data: 1770752
I0112 17:30:50.387658 11848 layer_factory.hpp:77] Creating layer label_data_1_split
I0112 17:30:50.387658 11848 net.cpp:84] Creating Layer label_data_1_split
I0112 17:30:50.388661 11848 net.cpp:406] label_data_1_split <- label
I0112 17:30:50.389664 11848 net.cpp:380] label_data_1_split -> label_data_1_split_0
I0112 17:30:50.389664 11848 net.cpp:380] label_data_1_split -> label_data_1_split_1
I0112 17:30:50.389664 11848 net.cpp:380] label_data_1_split -> label_data_1_split_2
I0112 17:30:50.389664 11848 net.cpp:122] Setting up label_data_1_split
I0112 17:30:50.390666 11848 net.cpp:129] Top shape: 64 (64)
I0112 17:30:50.390666 11848 net.cpp:129] Top shape: 64 (64)
I0112 17:30:50.390666 11848 net.cpp:129] Top shape: 64 (64)
I0112 17:30:50.390666 11848 net.cpp:137] Memory required for data: 1771520
I0112 17:30:50.390666 11848 layer_factory.hpp:77] Creating layer conv1
I0112 17:30:50.391669 11848 net.cpp:84] Creating Layer conv1
I0112 17:30:50.391669 11848 net.cpp:406] conv1 <- data
I0112 17:30:50.391669 11848 net.cpp:380] conv1 -> conv1
I0112 17:30:50.997762 11848 net.cpp:122] Setting up conv1
I0112 17:30:50.997762 11848 net.cpp:129] Top shape: 64 32 46 46 (4333568)
I0112 17:30:50.998765 11848 net.cpp:137] Memory required for data: 19105792
I0112 17:30:50.999766 11848 layer_factory.hpp:77] Creating layer prelu1
I0112 17:30:50.999766 11848 net.cpp:84] Creating Layer prelu1
I0112 17:30:50.999766 11848 net.cpp:406] prelu1 <- conv1
I0112 17:30:50.999766 11848 net.cpp:367] prelu1 -> conv1 (in-place)
I0112 17:30:50.999766 11848 net.cpp:122] Setting up prelu1
I0112 17:30:51.000771 11848 net.cpp:129] Top shape: 64 32 46 46 (4333568)
I0112 17:30:51.000771 11848 net.cpp:137] Memory required for data: 36440064
I0112 17:30:51.000771 11848 layer_factory.hpp:77] Creating layer pool1
I0112 17:30:51.000771 11848 net.cpp:84] Creating Layer pool1
I0112 17:30:51.000771 11848 net.cpp:406] pool1 <- conv1
I0112 17:30:51.000771 11848 net.cpp:380] pool1 -> pool1
I0112 17:30:51.000771 11848 net.cpp:122] Setting up pool1
I0112 17:30:51.001772 11848 net.cpp:129] Top shape: 64 32 23 23 (1083392)
I0112 17:30:51.001772 11848 net.cpp:137] Memory required for data: 40773632
I0112 17:30:51.001772 11848 layer_factory.hpp:77] Creating layer conv2
I0112 17:30:51.001772 11848 net.cpp:84] Creating Layer conv2
I0112 17:30:51.001772 11848 net.cpp:406] conv2 <- pool1
I0112 17:30:51.001772 11848 net.cpp:380] conv2 -> conv2
I0112 17:30:51.004781 11848 net.cpp:122] Setting up conv2
I0112 17:30:51.004781 11848 net.cpp:129] Top shape: 64 64 21 21 (1806336)
I0112 17:30:51.004781 11848 net.cpp:137] Memory required for data: 47998976
I0112 17:30:51.004781 11848 layer_factory.hpp:77] Creating layer prelu2
I0112 17:30:51.004781 11848 net.cpp:84] Creating Layer prelu2
I0112 17:30:51.004781 11848 net.cpp:406] prelu2 <- conv2
I0112 17:30:51.004781 11848 net.cpp:367] prelu2 -> conv2 (in-place)
I0112 17:30:51.004781 11848 net.cpp:122] Setting up prelu2
I0112 17:30:51.005784 11848 net.cpp:129] Top shape: 64 64 21 21 (1806336)
I0112 17:30:51.005784 11848 net.cpp:137] Memory required for data: 55224320
I0112 17:30:51.005784 11848 layer_factory.hpp:77] Creating layer pool2
I0112 17:30:51.005784 11848 net.cpp:84] Creating Layer pool2
I0112 17:30:51.006786 11848 net.cpp:406] pool2 <- conv2
I0112 17:30:51.006786 11848 net.cpp:380] pool2 -> pool2
I0112 17:30:51.006786 11848 net.cpp:122] Setting up pool2
I0112 17:30:51.006786 11848 net.cpp:129] Top shape: 64 64 10 10 (409600)
I0112 17:30:51.006786 11848 net.cpp:137] Memory required for data: 56862720
I0112 17:30:51.006786 11848 layer_factory.hpp:77] Creating layer conv3
I0112 17:30:51.006786 11848 net.cpp:84] Creating Layer conv3
I0112 17:30:51.006786 11848 net.cpp:406] conv3 <- pool2
I0112 17:30:51.006786 11848 net.cpp:380] conv3 -> conv3
I0112 17:30:51.008792 11848 net.cpp:122] Setting up conv3
I0112 17:30:51.009794 11848 net.cpp:129] Top shape: 64 64 8 8 (262144)
I0112 17:30:51.009794 11848 net.cpp:137] Memory required for data: 57911296
I0112 17:30:51.009794 11848 layer_factory.hpp:77] Creating layer prelu3
I0112 17:30:51.009794 11848 net.cpp:84] Creating Layer prelu3
I0112 17:30:51.009794 11848 net.cpp:406] prelu3 <- conv3
I0112 17:30:51.009794 11848 net.cpp:367] prelu3 -> conv3 (in-place)
I0112 17:30:51.010797 11848 net.cpp:122] Setting up prelu3
I0112 17:30:51.010797 11848 net.cpp:129] Top shape: 64 64 8 8 (262144)
I0112 17:30:51.010797 11848 net.cpp:137] Memory required for data: 58959872
I0112 17:30:51.010797 11848 layer_factory.hpp:77] Creating layer pool3
I0112 17:30:51.010797 11848 net.cpp:84] Creating Layer pool3
I0112 17:30:51.010797 11848 net.cpp:406] pool3 <- conv3
I0112 17:30:51.010797 11848 net.cpp:380] pool3 -> pool3
I0112 17:30:51.010797 11848 net.cpp:122] Setting up pool3
I0112 17:30:51.010797 11848 net.cpp:129] Top shape: 64 64 4 4 (65536)
I0112 17:30:51.011801 11848 net.cpp:137] Memory required for data: 59222016
I0112 17:30:51.011801 11848 layer_factory.hpp:77] Creating layer conv4
I0112 17:30:51.011801 11848 net.cpp:84] Creating Layer conv4
I0112 17:30:51.011801 11848 net.cpp:406] conv4 <- pool3
I0112 17:30:51.011801 11848 net.cpp:380] conv4 -> conv4
I0112 17:30:51.013805 11848 net.cpp:122] Setting up conv4
I0112 17:30:51.013805 11848 net.cpp:129] Top shape: 64 128 3 3 (73728)
I0112 17:30:51.014807 11848 net.cpp:137] Memory required for data: 59516928
I0112 17:30:51.014807 11848 layer_factory.hpp:77] Creating layer prelu4
I0112 17:30:51.014807 11848 net.cpp:84] Creating Layer prelu4
I0112 17:30:51.014807 11848 net.cpp:406] prelu4 <- conv4
I0112 17:30:51.014807 11848 net.cpp:367] prelu4 -> conv4 (in-place)
I0112 17:30:51.015810 11848 net.cpp:122] Setting up prelu4
I0112 17:30:51.015810 11848 net.cpp:129] Top shape: 64 128 3 3 (73728)
I0112 17:30:51.015810 11848 net.cpp:137] Memory required for data: 59811840
I0112 17:30:51.015810 11848 layer_factory.hpp:77] Creating layer conv5
I0112 17:30:51.015810 11848 net.cpp:84] Creating Layer conv5
I0112 17:30:51.015810 11848 net.cpp:406] conv5 <- conv4
I0112 17:30:51.015810 11848 net.cpp:380] conv5 -> conv5
I0112 17:30:51.018820 11848 net.cpp:122] Setting up conv5
I0112 17:30:51.020823 11848 net.cpp:129] Top shape: 64 256 (16384)
I0112 17:30:51.020823 11848 net.cpp:137] Memory required for data: 59877376
I0112 17:30:51.020823 11848 layer_factory.hpp:77] Creating layer drop5
I0112 17:30:51.020823 11848 net.cpp:84] Creating Layer drop5
I0112 17:30:51.020823 11848 net.cpp:406] drop5 <- conv5
I0112 17:30:51.020823 11848 net.cpp:367] drop5 -> conv5 (in-place)
I0112 17:30:51.020823 11848 net.cpp:122] Setting up drop5
I0112 17:30:51.020823 11848 net.cpp:129] Top shape: 64 256 (16384)
I0112 17:30:51.020823 11848 net.cpp:137] Memory required for data: 59942912
I0112 17:30:51.020823 11848 layer_factory.hpp:77] Creating layer prelu5
I0112 17:30:51.020823 11848 net.cpp:84] Creating Layer prelu5
I0112 17:30:51.021826 11848 net.cpp:406] prelu5 <- conv5
I0112 17:30:51.021826 11848 net.cpp:367] prelu5 -> conv5 (in-place)
I0112 17:30:51.021826 11848 net.cpp:122] Setting up prelu5
I0112 17:30:51.021826 11848 net.cpp:129] Top shape: 64 256 (16384)
I0112 17:30:51.021826 11848 net.cpp:137] Memory required for data: 60008448
I0112 17:30:51.021826 11848 layer_factory.hpp:77] Creating layer conv5_prelu5_0_split
I0112 17:30:51.021826 11848 net.cpp:84] Creating Layer conv5_prelu5_0_split
I0112 17:30:51.022828 11848 net.cpp:406] conv5_prelu5_0_split <- conv5
I0112 17:30:51.022828 11848 net.cpp:380] conv5_prelu5_0_split -> conv5_prelu5_0_split_0
I0112 17:30:51.022828 11848 net.cpp:380] conv5_prelu5_0_split -> conv5_prelu5_0_split_1
I0112 17:30:51.022828 11848 net.cpp:122] Setting up conv5_prelu5_0_split
I0112 17:30:51.022828 11848 net.cpp:129] Top shape: 64 256 (16384)
I0112 17:30:51.022828 11848 net.cpp:129] Top shape: 64 256 (16384)
I0112 17:30:51.023830 11848 net.cpp:137] Memory required for data: 60139520
I0112 17:30:51.023830 11848 layer_factory.hpp:77] Creating layer conv6-1
I0112 17:30:51.023830 11848 net.cpp:84] Creating Layer conv6-1
I0112 17:30:51.023830 11848 net.cpp:406] conv6-1 <- conv5_prelu5_0_split_0
I0112 17:30:51.023830 11848 net.cpp:380] conv6-1 -> conv6-1
I0112 17:30:51.024833 11848 net.cpp:122] Setting up conv6-1
I0112 17:30:51.024833 11848 net.cpp:129] Top shape: 64 2 (128)
I0112 17:30:51.024833 11848 net.cpp:137] Memory required for data: 60140032
I0112 17:30:51.024833 11848 layer_factory.hpp:77] Creating layer conv6-1_conv6-1_0_split
I0112 17:30:51.024833 11848 net.cpp:84] Creating Layer conv6-1_conv6-1_0_split
I0112 17:30:51.024833 11848 net.cpp:406] conv6-1_conv6-1_0_split <- conv6-1
I0112 17:30:51.024833 11848 net.cpp:380] conv6-1_conv6-1_0_split -> conv6-1_conv6-1_0_split_0
I0112 17:30:51.024833 11848 net.cpp:380] conv6-1_conv6-1_0_split -> conv6-1_conv6-1_0_split_1
I0112 17:30:51.024833 11848 net.cpp:122] Setting up conv6-1_conv6-1_0_split
I0112 17:30:51.025836 11848 net.cpp:129] Top shape: 64 2 (128)
I0112 17:30:51.025836 11848 net.cpp:129] Top shape: 64 2 (128)
I0112 17:30:51.025836 11848 net.cpp:137] Memory required for data: 60141056
I0112 17:30:51.025836 11848 layer_factory.hpp:77] Creating layer cls_loss
I0112 17:30:51.025836 11848 net.cpp:84] Creating Layer cls_loss
I0112 17:30:51.026839 11848 net.cpp:406] cls_loss <- conv6-1_conv6-1_0_split_0
I0112 17:30:51.026839 11848 net.cpp:406] cls_loss <- label_data_1_split_0
I0112 17:30:51.026839 11848 net.cpp:380] cls_loss -> cls_loss
…
