…
  stage: ""
}
I0111 15:43:34.757194 11328 solver.cpp:87] Creating training net from net file: E:/DeepLearning/mtcnn_train/det1_train.ptototxt
I0111 15:43:34.758697 11328 net.cpp:51] Initializing net from parameters: 
name: "PNet"
state {
  phase: TRAIN
  level: 0
  stage: ""
}
layer {
  name: "data"
  type: "MTCNNData"
  top: "data"
  top: "label"
  top: "roi"
  transform_param {
    scale: 0.0078125
    mirror: false
    mean_value: 127.5
  }
  data_param {
    source: "E:/DeepLearning/mtcnn_train/mtcnn_train_lmdb"
    batch_size: 64
    backend: LMDB
  }
}
layer {
  name: "conv1"
  type: "Convolution"
  bottom: "data"
  top: "conv1"
  param {
    lr_mult: 1
    decay_mult: 1
  }
  param {
    lr_mult: 2
    decay_mult: 0
  }
  convolution_param {
    num_output: 10
    kernel_size: 3
    stride: 1
    weight_filler {
      type: "xavier"
    }
    bias_filler {
      type: "constant"
      value: 0
    }
  }
}
layer {
  name: "PReLU1"
  type: "PReLU"
  bottom: "conv1"
  top: "conv1"
}
layer {
  name: "pool1"
  type: "Pooling"
  bottom: "conv1"
  top: "pool1"
  pooling_param {
    pool: MAX
    kernel_size: 2
    stride: 2
  }
}
layer {
  name: "conv2"
  type: "Convolution"
  bottom: "pool1"
  top: "conv2"
  param {
    lr_mult: 1
    decay_mult: 1
  }
  param {
    lr_mult: 2
    decay_mult: 0
  }
  convolution_param {
    num_output: 16
    kernel_size: 3
    stride: 1
    weight_filler {
      type: "xavier"
    }
    bias_filler {
      type: "constant"
      value: 0
    }
  }
}
layer {
  name: "PReLU2"
  type: "PReLU"
  bottom: "conv2"
  top: "conv2"
}
layer {
  name: "conv3"
  type: "Convolution"
  bottom: "conv2"
  top: "conv3"
  param {
    lr_mult: 1
    decay_mult: 1
  }
  param {
    lr_mult: 2
    decay_mult: 0
  }
  convolution_param {
    num_output: 32
    kernel_size: 3
    stride: 1
    weight_filler {
      type: "xavier"
    }
    bias_filler {
      type: "constant"
      value: 0
    }
  }
}
layer {
  name: "PReLU3"
  type: "PReLU"
  bottom: "conv3"
  top: "conv3"
}
layer {
  name: "conv4-1"
  type: "Convolution"
  bottom: "conv3"
  top: "conv4-1"
  param {
    lr_mult: 1
    decay_mult: 1
  }
  param {
    lr_mult: 2
    decay_mult: 0
  }
  convolution_param {
    num_output: 2
    kernel_size: 1
    stride: 1
    weight_filler {
      type: "xavier"
    }
    bias_filler {
      type: "constant"
      value: 0
    }
  }
}
layer {
  name: "cls_loss"
  type: "SoftmaxWithLoss"
  bottom: "conv4-1"
  bottom: "label"
  top: "cls_loss"
  loss_weight: 1
  propagate_down: true
  propagate_down: false
  loss_param {
    ignore_label: -1
  }
}
layer {
  name: "conv4-2"
  type: "Convolution"
  bottom: "conv3"
  top: "conv4-2"
  param {
    lr_mult: 1
    decay_mult: 1
  }
  param {
    lr_mult: 2
    decay_mult: 0
  }
  convolution_param {
    num_output: 4
    kernel_size: 1
    stride: 1
    weight_filler {
      type: "xavier"
    }
    bias_filler {
      type: "constant"
      value: 0
    }
  }
}
layer {
  name: "roi_loss"
  type: "MTCNNEuclideanLoss"
  bottom: "conv4-2"
  bottom: "roi"
  bottom: "label"
  top: "roi_loss"
  loss_weight: 0.5
  loss_param {
    ignore_label: 0
  }
}
I0111 15:43:34.759701 11328 layer_factory.hpp:77] Creating layer data
I0111 15:43:34.766218 11328 db_lmdb.cpp:40] Opened lmdb E:/DeepLearning/mtcnn_train/mtcnn_train_lmdb
I0111 15:43:34.766218 11328 net.cpp:84] Creating Layer data
I0111 15:43:34.766718 11328 net.cpp:380] data -> data
I0111 15:43:34.770244 11328 net.cpp:380] data -> label
I0111 15:43:34.770730 11328 net.cpp:380] data -> roi
I0111 15:43:34.771731 11328 mtcnn_data_layer.cpp:45] output data size: 64,3,12,12
I0111 15:43:34.776183 11328 net.cpp:122] Setting up data
I0111 15:43:34.776183 11328 net.cpp:129] Top shape: 64 3 12 12 (27648)
I0111 15:43:34.776183 11328 net.cpp:129] Top shape: 64 (64)
I0111 15:43:34.777187 11328 net.cpp:129] Top shape: 64 4 (256)
I0111 15:43:34.777689 11328 net.cpp:137] Memory required for data: 111872
I0111 15:43:34.777689 11328 layer_factory.hpp:77] Creating layer label_data_1_split
I0111 15:43:34.779695 11328 net.cpp:84] Creating Layer label_data_1_split
I0111 15:43:34.780195 11328 net.cpp:406] label_data_1_split <- label
I0111 15:43:34.780696 11328 net.cpp:380] label_data_1_split -> label_data_1_split_0
I0111 15:43:34.780696 11328 net.cpp:380] label_data_1_split -> label_data_1_split_1
I0111 15:43:34.781198 11328 net.cpp:122] Setting up label_data_1_split
I0111 15:43:34.781698 11328 net.cpp:129] Top shape: 64 (64)
I0111 15:43:34.782202 11328 net.cpp:129] Top shape: 64 (64)
I0111 15:43:34.782202 11328 net.cpp:137] Memory required for data: 112384
I0111 15:43:34.782702 11328 layer_factory.hpp:77] Creating layer conv1
I0111 15:43:34.782702 11328 net.cpp:84] Creating Layer conv1
I0111 15:43:34.783205 11328 net.cpp:406] conv1 <- data
I0111 15:43:34.783205 11328 net.cpp:380] conv1 -> conv1
I0111 15:43:35.477373 11328 net.cpp:122] Setting up conv1
I0111 15:43:35.477373 11328 net.cpp:129] Top shape: 64 10 10 10 (64000)
I0111 15:43:35.478379 11328 net.cpp:137] Memory required for data: 368384
I0111 15:43:35.478879 11328 layer_factory.hpp:77] Creating layer PReLU1
I0111 15:43:35.479379 11328 net.cpp:84] Creating Layer PReLU1
I0111 15:43:35.479379 11328 net.cpp:406] PReLU1 <- conv1
I0111 15:43:35.480382 11328 net.cpp:367] PReLU1 -> conv1 (in-place)
I0111 15:43:35.480883 11328 net.cpp:122] Setting up PReLU1
I0111 15:43:35.480883 11328 net.cpp:129] Top shape: 64 10 10 10 (64000)
I0111 15:43:35.481385 11328 net.cpp:137] Memory required for data: 624384
I0111 15:43:35.481899 11328 layer_factory.hpp:77] Creating layer pool1
I0111 15:43:35.481899 11328 net.cpp:84] Creating Layer pool1
I0111 15:43:35.482388 11328 net.cpp:406] pool1 <- conv1
I0111 15:43:35.482388 11328 net.cpp:380] pool1 -> pool1
I0111 15:43:35.482888 11328 net.cpp:122] Setting up pool1
I0111 15:43:35.482888 11328 net.cpp:129] Top shape: 64 10 5 5 (16000)
I0111 15:43:35.483391 11328 net.cpp:137] Memory required for data: 688384
I0111 15:43:35.483891 11328 layer_factory.hpp:77] Creating layer conv2
I0111 15:43:35.483891 11328 net.cpp:84] Creating Layer conv2
I0111 15:43:35.484392 11328 net.cpp:406] conv2 <- pool1
I0111 15:43:35.484392 11328 net.cpp:380] conv2 -> conv2
I0111 15:43:35.486398 11328 net.cpp:122] Setting up conv2
I0111 15:43:35.486899 11328 net.cpp:129] Top shape: 64 16 3 3 (9216)
I0111 15:43:35.489408 11328 net.cpp:137] Memory required for data: 725248
I0111 15:43:35.490409 11328 layer_factory.hpp:77] Creating layer PReLU2
I0111 15:43:35.490909 11328 net.cpp:84] Creating Layer PReLU2
I0111 15:43:35.490909 11328 net.cpp:406] PReLU2 <- conv2
I0111 15:43:35.491411 11328 net.cpp:367] PReLU2 -> conv2 (in-place)
I0111 15:43:35.491411 11328 net.cpp:122] Setting up PReLU2
I0111 15:43:35.491912 11328 net.cpp:129] Top shape: 64 16 3 3 (9216)
I0111 15:43:35.491912 11328 net.cpp:137] Memory required for data: 762112
I0111 15:43:35.492414 11328 layer_factory.hpp:77] Creating layer conv3
I0111 15:43:35.492414 11328 net.cpp:84] Creating Layer conv3
I0111 15:43:35.492914 11328 net.cpp:406] conv3 <- conv2
I0111 15:43:35.492914 11328 net.cpp:380] conv3 -> conv3
I0111 15:43:35.497428 11328 net.cpp:122] Setting up conv3
I0111 15:43:35.499433 11328 net.cpp:129] Top shape: 64 32 1 1 (2048)
I0111 15:43:35.499934 11328 net.cpp:137] Memory required for data: 770304
I0111 15:43:35.500936 11328 layer_factory.hpp:77] Creating layer PReLU3
I0111 15:43:35.501438 11328 net.cpp:84] Creating Layer PReLU3
I0111 15:43:35.501974 11328 net.cpp:406] PReLU3 <- conv3
I0111 15:43:35.502480 11328 net.cpp:367] PReLU3 -> conv3 (in-place)
I0111 15:43:35.502980 11328 net.cpp:122] Setting up PReLU3
I0111 15:43:35.502980 11328 net.cpp:129] Top shape: 64 32 1 1 (2048)
I0111 15:43:35.503487 11328 net.cpp:137] Memory required for data: 778496
I0111 15:43:35.503983 11328 layer_factory.hpp:77] Creating layer conv3_PReLU3_0_split
I0111 15:43:35.504484 11328 net.cpp:84] Creating Layer conv3_PReLU3_0_split
I0111 15:43:35.504984 11328 net.cpp:406] conv3_PReLU3_0_split <- conv3
I0111 15:43:35.504984 11328 net.cpp:380] conv3_PReLU3_0_split -> conv3_PReLU3_0_split_0
I0111 15:43:35.505486 11328 net.cpp:380] conv3_PReLU3_0_split -> conv3_PReLU3_0_split_1
I0111 15:43:35.505987 11328 net.cpp:122] Setting up conv3_PReLU3_0_split
I0111 15:43:35.506489 11328 net.cpp:129] Top shape: 64 32 1 1 (2048)
I0111 15:43:35.506990 11328 net.cpp:129] Top shape: 64 32 1 1 (2048)
I0111 15:43:35.506990 11328 net.cpp:137] Memory required for data: 794880
I0111 15:43:35.507493 11328 layer_factory.hpp:77] Creating layer conv4-1
I0111 15:43:35.510500 11328 net.cpp:84] Creating Layer conv4-1
I0111 15:43:35.510500 11328 net.cpp:406] conv4-1 <- conv3_PReLU3_0_split_0
I0111 15:43:35.511000 11328 net.cpp:380] conv4-1 -> conv4-1
I0111 15:43:35.514010 11328 net.cpp:122] Setting up conv4-1
I0111 15:43:35.514010 11328 net.cpp:129] Top shape: 64 2 1 1 (128)
I0111 15:43:35.514510 11328 net.cpp:137] Memory required for data: 795392
I0111 15:43:35.515012 11328 layer_factory.hpp:77] Creating layer cls_loss
I0111 15:43:35.515012 11328 net.cpp:84] Creating Layer cls_loss
I0111 15:43:35.515012 11328 net.cpp:406] cls_loss <- conv4-1
I0111 15:43:35.515513 11328 net.cpp:406] cls_loss <- label_data_1_split_0
I0111 15:43:35.515513 11328 net.cpp:380] cls_loss -> cls_loss
I0111 15:43:35.516016 11328 layer_factory.hpp:77] Creating layer cls_loss
I0111 15:43:35.516515 11328 net.cpp:122] Setting up cls_loss
I0111 15:43:35.516515 11328 net.cpp:129] Top shape: (1)
I0111 15:43:35.517017 11328 net.cpp:132]     with loss weight 1
I0111 15:43:35.517017 11328 net.cpp:137] Memory required for data: 795396
I0111 15:43:35.519022 11328 layer_factory.hpp:77] Creating layer conv4-2
I0111 15:43:35.519022 11328 net.cpp:84] Creating Layer conv4-2
I0111 15:43:35.519523 11328 net.cpp:406] conv4-2 <- conv3_PReLU3_0_split_1
I0111 15:43:35.519523 11328 net.cpp:380] conv4-2 -> conv4-2
I0111 15:43:35.521529 11328 net.cpp:122] Setting up conv4-2
I0111 15:43:35.521529 11328 net.cpp:129] Top shape: 64 4 1 1 (256)
I0111 15:43:35.522032 11328 net.cpp:137] Memory required for data: 796420
I0111 15:43:35.522032 11328 layer_factory.hpp:77] Creating layer roi_loss
I0111 15:43:35.522531 11328 net.cpp:84] Creating Layer roi_loss
I0111 15:43:35.523032 11328 net.cpp:406] roi_loss <- conv4-2
I0111 15:43:35.523032 11328 net.cpp:406] roi_loss <- roi
I0111 15:43:35.523535 11328 net.cpp:406] roi_loss <- label_data_1_split_1
…
