…
  stage: ""
}
I0112 17:18:07.696545  4152 solver.cpp:87] Creating training net from net file: E:/DeepLearning/mtcnn_train/det1_train.ptototxt
I0112 17:18:07.697574  4152 net.cpp:51] Initializing net from parameters: 
name: "PNet"
state {
  phase: TRAIN
  level: 0
  stage: ""
}
layer {
  name: "data"
  type: "MTCNNData"
  top: "data"
  top: "label"
  top: "roi"
  transform_param {
    scale: 0.0078125
    mirror: false
    mean_value: 127.5
  }
  data_param {
    source: "E:/DeepLearning/mtcnn_train/mtcnn_train_12"
    batch_size: 64
    backend: LMDB
  }
}
layer {
  name: "conv1"
  type: "Convolution"
  bottom: "data"
  top: "conv1"
  param {
    lr_mult: 1
    decay_mult: 1
  }
  param {
    lr_mult: 2
    decay_mult: 0
  }
  convolution_param {
    num_output: 10
    kernel_size: 3
    stride: 1
    weight_filler {
      type: "xavier"
    }
    bias_filler {
      type: "constant"
      value: 0
    }
  }
}
layer {
  name: "PReLU1"
  type: "PReLU"
  bottom: "conv1"
  top: "conv1"
}
layer {
  name: "pool1"
  type: "Pooling"
  bottom: "conv1"
  top: "pool1"
  pooling_param {
    pool: MAX
    kernel_size: 2
    stride: 2
  }
}
layer {
  name: "conv2"
  type: "Convolution"
  bottom: "pool1"
  top: "conv2"
  param {
    lr_mult: 1
    decay_mult: 1
  }
  param {
    lr_mult: 2
    decay_mult: 0
  }
  convolution_param {
    num_output: 16
    kernel_size: 3
    stride: 1
    weight_filler {
      type: "xavier"
    }
    bias_filler {
      type: "constant"
      value: 0
    }
  }
}
layer {
  name: "PReLU2"
  type: "PReLU"
  bottom: "conv2"
  top: "conv2"
}
layer {
  name: "conv3"
  type: "Convolution"
  bottom: "conv2"
  top: "conv3"
  param {
    lr_mult: 1
    decay_mult: 1
  }
  param {
    lr_mult: 2
    decay_mult: 0
  }
  convolution_param {
    num_output: 32
    kernel_size: 3
    stride: 1
    weight_filler {
      type: "xavier"
    }
    bias_filler {
      type: "constant"
      value: 0
    }
  }
}
layer {
  name: "PReLU3"
  type: "PReLU"
  bottom: "conv3"
  top: "conv3"
}
layer {
  name: "conv4-1"
  type: "Convolution"
  bottom: "conv3"
  top: "conv4-1"
  param {
    lr_mult: 1
    decay_mult: 1
  }
  param {
    lr_mult: 2
    decay_mult: 0
  }
  convolution_param {
    num_output: 2
    kernel_size: 1
    stride: 1
    weight_filler {
      type: "xavier"
    }
    bias_filler {
      type: "constant"
      value: 0
    }
  }
}
layer {
  name: "cls_loss"
  type: "SoftmaxWithLoss"
  bottom: "conv4-1"
  bottom: "label"
  top: "cls_loss"
  loss_weight: 1
  propagate_down: true
  propagate_down: false
  loss_param {
    ignore_label: -1
  }
}
layer {
  name: "cls_Acc"
  type: "Accuracy"
  bottom: "conv4-1"
  bottom: "label"
  top: "cls_acc"
  include {
    phase: TRAIN
  }
  accuracy_param {
    ignore_label: -1
  }
}
layer {
  name: "conv4-2"
  type: "Convolution"
  bottom: "conv3"
  top: "conv4-2"
  param {
    lr_mult: 1
    decay_mult: 1
  }
  param {
    lr_mult: 2
    decay_mult: 0
  }
  convolution_param {
    num_output: 4
    kernel_size: 1
    stride: 1
    weight_filler {
      type: "xavier"
    }
    bias_filler {
      type: "constant"
      value: 0
    }
  }
}
layer {
  name: "roi_loss"
  type: "MTCNNEuclideanLoss"
  bottom: "conv4-2"
  bottom: "roi"
  bottom: "label"
  top: "roi_loss"
  loss_weight: 0.5
  loss_param {
    ignore_label: 0
  }
}
I0112 17:18:07.697574  4152 layer_factory.hpp:77] Creating layer data
I0112 17:18:07.698552  4152 db_lmdb.cpp:40] Opened lmdb E:/DeepLearning/mtcnn_train/mtcnn_train_12
I0112 17:18:07.698552  4152 net.cpp:84] Creating Layer data
I0112 17:18:07.698552  4152 net.cpp:380] data -> data
I0112 17:18:07.699553  4152 net.cpp:380] data -> label
I0112 17:18:07.699553  4152 net.cpp:380] data -> roi
I0112 17:18:07.701560  4152 mtcnn_data_layer.cpp:45] output data size: 64,12,12,3
I0112 17:18:07.703564  4152 net.cpp:122] Setting up data
I0112 17:18:07.703564  4152 net.cpp:129] Top shape: 64 12 12 3 (27648)
I0112 17:18:07.704567  4152 net.cpp:129] Top shape: 64 (64)
I0112 17:18:07.707576  4152 net.cpp:129] Top shape: 64 4 (256)
I0112 17:18:07.707576  4152 net.cpp:137] Memory required for data: 111872
I0112 17:18:07.707576  4152 layer_factory.hpp:77] Creating layer label_data_1_split
I0112 17:18:07.707576  4152 net.cpp:84] Creating Layer label_data_1_split
I0112 17:18:07.708578  4152 net.cpp:406] label_data_1_split <- label
I0112 17:18:07.709581  4152 net.cpp:380] label_data_1_split -> label_data_1_split_0
I0112 17:18:07.709581  4152 net.cpp:380] label_data_1_split -> label_data_1_split_1
I0112 17:18:07.709581  4152 net.cpp:380] label_data_1_split -> label_data_1_split_2
I0112 17:18:07.710583  4152 net.cpp:122] Setting up label_data_1_split
I0112 17:18:07.710583  4152 net.cpp:129] Top shape: 64 (64)
I0112 17:18:07.710583  4152 net.cpp:129] Top shape: 64 (64)
I0112 17:18:07.711586  4152 net.cpp:129] Top shape: 64 (64)
I0112 17:18:07.711586  4152 net.cpp:137] Memory required for data: 112640
I0112 17:18:07.711586  4152 layer_factory.hpp:77] Creating layer conv1
I0112 17:18:07.712589  4152 net.cpp:84] Creating Layer conv1
I0112 17:18:07.713600  4152 net.cpp:406] conv1 <- data
I0112 17:18:07.713600  4152 net.cpp:380] conv1 -> conv1
I0112 17:18:08.346617  4152 net.cpp:122] Setting up conv1
I0112 17:18:08.347620  4152 net.cpp:129] Top shape: 64 10 10 1 (6400)
I0112 17:18:08.348623  4152 net.cpp:137] Memory required for data: 138240
I0112 17:18:08.348623  4152 layer_factory.hpp:77] Creating layer PReLU1
I0112 17:18:08.349643  4152 net.cpp:84] Creating Layer PReLU1
I0112 17:18:08.350628  4152 net.cpp:406] PReLU1 <- conv1
I0112 17:18:08.350628  4152 net.cpp:367] PReLU1 -> conv1 (in-place)
I0112 17:18:08.350628  4152 net.cpp:122] Setting up PReLU1
I0112 17:18:08.351631  4152 net.cpp:129] Top shape: 64 10 10 1 (6400)
I0112 17:18:08.351631  4152 net.cpp:137] Memory required for data: 163840
I0112 17:18:08.351631  4152 layer_factory.hpp:77] Creating layer pool1
I0112 17:18:08.351631  4152 net.cpp:84] Creating Layer pool1
I0112 17:18:08.351631  4152 net.cpp:406] pool1 <- conv1
I0112 17:18:08.352633  4152 net.cpp:380] pool1 -> pool1
I0112 17:18:08.352633  4152 net.cpp:122] Setting up pool1
I0112 17:18:08.352633  4152 net.cpp:129] Top shape: 64 10 5 1 (3200)
I0112 17:18:08.352633  4152 net.cpp:137] Memory required for data: 176640
I0112 17:18:08.352633  4152 layer_factory.hpp:77] Creating layer conv2
I0112 17:18:08.353636  4152 net.cpp:84] Creating Layer conv2
I0112 17:18:08.353636  4152 net.cpp:406] conv2 <- pool1
I0112 17:18:08.353636  4152 net.cpp:380] conv2 -> conv2
F0112 17:18:08.355641  4152 blob.cpp:36] Check failed: shape[i] >= 0 (-1 vs. 0) 
