…
  stage: ""
}
I0110 21:04:13.472738 51928 solver.cpp:87] Creating training net from net file: E:/DeepLearning/mtcnn_train/det1_train.ptototxt
I0110 21:04:13.473740 51928 net.cpp:51] Initializing net from parameters: 
name: "PNet"
state {
  phase: TRAIN
  level: 0
  stage: ""
}
layer {
  name: "data"
  type: "MTCNNData"
  top: "data"
  top: "label"
  top: "roi"
  transform_param {
    scale: 0.0078125
    mirror: false
    mean_value: 127.5
  }
  data_param {
    source: "E:/DeepLearning/mtcnn_train/mtcnn_train_lmdb"
    batch_size: 64
    backend: LMDB
  }
}
layer {
  name: "conv1"
  type: "Convolution"
  bottom: "data"
  top: "conv1"
  param {
    lr_mult: 1
    decay_mult: 1
  }
  param {
    lr_mult: 2
    decay_mult: 0
  }
  convolution_param {
    num_output: 10
    kernel_size: 3
    stride: 1
    weight_filler {
      type: "xavier"
    }
    bias_filler {
      type: "constant"
      value: 0
    }
  }
}
layer {
  name: "PReLU1"
  type: "PReLU"
  bottom: "conv1"
  top: "conv1"
}
layer {
  name: "pool1"
  type: "Pooling"
  bottom: "conv1"
  top: "pool1"
  pooling_param {
    pool: MAX
    kernel_size: 2
    stride: 2
  }
}
layer {
  name: "conv2"
  type: "Convolution"
  bottom: "pool1"
  top: "conv2"
  param {
    lr_mult: 1
    decay_mult: 1
  }
  param {
    lr_mult: 2
    decay_mult: 0
  }
  convolution_param {
    num_output: 16
    kernel_size: 3
    stride: 1
    weight_filler {
      type: "xavier"
    }
    bias_filler {
      type: "constant"
      value: 0
    }
  }
}
layer {
  name: "PReLU2"
  type: "PReLU"
  bottom: "conv2"
  top: "conv2"
}
layer {
  name: "conv3"
  type: "Convolution"
  bottom: "conv2"
  top: "conv3"
  param {
    lr_mult: 1
    decay_mult: 1
  }
  param {
    lr_mult: 2
    decay_mult: 0
  }
  convolution_param {
    num_output: 32
    kernel_size: 3
    stride: 1
    weight_filler {
      type: "xavier"
    }
    bias_filler {
      type: "constant"
      value: 0
    }
  }
}
layer {
  name: "PReLU3"
  type: "PReLU"
  bottom: "conv3"
  top: "conv3"
}
layer {
  name: "conv4-1"
  type: "Convolution"
  bottom: "conv3"
  top: "conv4-1"
  param {
    lr_mult: 1
    decay_mult: 1
  }
  param {
    lr_mult: 2
    decay_mult: 0
  }
  convolution_param {
    num_output: 2
    kernel_size: 1
    stride: 1
    weight_filler {
      type: "xavier"
    }
    bias_filler {
      type: "constant"
      value: 0
    }
  }
}
layer {
  name: "cls_loss"
  type: "SoftmaxWithLoss"
  bottom: "conv4-1"
  bottom: "label"
  top: "cls_loss"
  loss_weight: 1
  propagate_down: true
  propagate_down: false
  loss_param {
    ignore_label: -1
  }
}
layer {
  name: "cls_Acc"
  type: "Accuracy"
  bottom: "conv4-1"
  bottom: "label"
  top: "cls_acc"
  include {
    phase: TRAIN
  }
  accuracy_param {
    ignore_label: -1
  }
}
layer {
  name: "conv4-2"
  type: "Convolution"
  bottom: "conv3"
  top: "conv4-2"
  param {
    lr_mult: 1
    decay_mult: 1
  }
  param {
    lr_mult: 2
    decay_mult: 0
  }
  convolution_param {
    num_output: 4
    kernel_size: 1
    stride: 1
    weight_filler {
      type: "xavier"
    }
    bias_filler {
      type: "constant"
      value: 0
    }
  }
}
layer {
  name: "roi_loss"
  type: "MTCNNEuclideanLoss"
  bottom: "conv4-2"
  bottom: "roi"
  bottom: "label"
  top: "roi_loss"
  loss_weight: 0.5
  loss_param {
    ignore_label: 0
  }
}
I0110 21:04:16.986083 51928 layer_factory.hpp:77] Creating layer data
I0110 21:04:20.905503 51928 db_lmdb.cpp:40] Opened lmdb E:/DeepLearning/mtcnn_train/mtcnn_train_lmdb
I0110 21:04:20.905503 51928 net.cpp:84] Creating Layer data
I0110 21:04:20.908509 51928 net.cpp:380] data -> data
I0110 21:04:20.910516 51928 net.cpp:380] data -> label
I0110 21:04:20.912521 51928 net.cpp:380] data -> roi
I0110 21:04:23.831284 51928 mtcnn_data_layer.cpp:45] output data size: 64,3,12,12
I0110 21:04:23.835291 51928 net.cpp:122] Setting up data
I0110 21:04:23.836295 51928 net.cpp:129] Top shape: 64 3 12 12 (27648)
I0110 21:04:23.838300 51928 net.cpp:129] Top shape: 64 (64)
I0110 21:04:23.840307 51928 net.cpp:129] Top shape: 64 4 (256)
I0110 21:04:23.842312 51928 net.cpp:137] Memory required for data: 111872
I0110 21:04:23.844318 51928 layer_factory.hpp:77] Creating layer label_data_1_split
I0110 21:04:23.846323 51928 net.cpp:84] Creating Layer label_data_1_split
I0110 21:04:23.848326 51928 net.cpp:406] label_data_1_split <- label
I0110 21:04:23.850332 51928 net.cpp:380] label_data_1_split -> label_data_1_split_0
I0110 21:04:23.852337 51928 net.cpp:380] label_data_1_split -> label_data_1_split_1
I0110 21:04:23.855345 51928 net.cpp:380] label_data_1_split -> label_data_1_split_2
I0110 21:04:23.856349 51928 net.cpp:122] Setting up label_data_1_split
I0110 21:04:23.858372 51928 net.cpp:129] Top shape: 64 (64)
I0110 21:04:23.860359 51928 net.cpp:129] Top shape: 64 (64)
I0110 21:04:23.863366 51928 net.cpp:129] Top shape: 64 (64)
I0110 21:04:23.863366 51928 net.cpp:137] Memory required for data: 112640
I0110 21:04:23.863366 51928 layer_factory.hpp:77] Creating layer conv1
I0110 21:04:23.867377 51928 net.cpp:84] Creating Layer conv1
I0110 21:04:23.869382 51928 net.cpp:406] conv1 <- data
I0110 21:04:23.871387 51928 net.cpp:380] conv1 -> conv1
I0110 21:04:26.971632 51928 net.cpp:122] Setting up conv1
I0110 21:04:26.971632 51928 net.cpp:129] Top shape: 64 10 10 10 (64000)
I0110 21:04:26.973637 51928 net.cpp:137] Memory required for data: 368640
I0110 21:04:26.976645 51928 layer_factory.hpp:77] Creating layer PReLU1
I0110 21:04:26.978651 51928 net.cpp:84] Creating Layer PReLU1
I0110 21:04:26.980657 51928 net.cpp:406] PReLU1 <- conv1
I0110 21:04:26.982661 51928 net.cpp:367] PReLU1 -> conv1 (in-place)
I0110 21:04:26.985669 51928 net.cpp:122] Setting up PReLU1
I0110 21:04:26.986672 51928 net.cpp:129] Top shape: 64 10 10 10 (64000)
I0110 21:04:26.989679 51928 net.cpp:137] Memory required for data: 624640
I0110 21:04:26.993691 51928 layer_factory.hpp:77] Creating layer pool1
I0110 21:04:26.997701 51928 net.cpp:84] Creating Layer pool1
I0110 21:04:27.000725 51928 net.cpp:406] pool1 <- conv1
I0110 21:04:27.002715 51928 net.cpp:380] pool1 -> pool1
I0110 21:04:27.005722 51928 net.cpp:122] Setting up pool1
I0110 21:04:27.009734 51928 net.cpp:129] Top shape: 64 10 5 5 (16000)
I0110 21:04:27.012742 51928 net.cpp:137] Memory required for data: 688640
I0110 21:04:27.013744 51928 layer_factory.hpp:77] Creating layer conv2
I0110 21:04:27.015749 51928 net.cpp:84] Creating Layer conv2
I0110 21:04:27.017755 51928 net.cpp:406] conv2 <- pool1
I0110 21:04:27.020762 51928 net.cpp:380] conv2 -> conv2
I0110 21:04:27.024773 51928 net.cpp:122] Setting up conv2
I0110 21:04:27.024773 51928 net.cpp:129] Top shape: 64 16 3 3 (9216)
I0110 21:04:27.025777 51928 net.cpp:137] Memory required for data: 725504
I0110 21:04:27.027781 51928 layer_factory.hpp:77] Creating layer PReLU2
I0110 21:04:27.029786 51928 net.cpp:84] Creating Layer PReLU2
I0110 21:04:27.031792 51928 net.cpp:406] PReLU2 <- conv2
I0110 21:04:27.032795 51928 net.cpp:367] PReLU2 -> conv2 (in-place)
I0110 21:04:27.034801 51928 net.cpp:122] Setting up PReLU2
I0110 21:04:27.035804 51928 net.cpp:129] Top shape: 64 16 3 3 (9216)
I0110 21:04:27.037807 51928 net.cpp:137] Memory required for data: 762368
I0110 21:04:27.040817 51928 layer_factory.hpp:77] Creating layer conv3
I0110 21:04:27.042821 51928 net.cpp:84] Creating Layer conv3
I0110 21:04:27.043824 51928 net.cpp:406] conv3 <- conv2
I0110 21:04:27.045830 51928 net.cpp:380] conv3 -> conv3
I0110 21:04:27.050843 51928 net.cpp:122] Setting up conv3
I0110 21:04:27.050843 51928 net.cpp:129] Top shape: 64 32 1 1 (2048)
I0110 21:04:27.052847 51928 net.cpp:137] Memory required for data: 770560
I0110 21:04:27.053851 51928 layer_factory.hpp:77] Creating layer PReLU3
I0110 21:04:27.055855 51928 net.cpp:84] Creating Layer PReLU3
I0110 21:04:27.056859 51928 net.cpp:406] PReLU3 <- conv3
I0110 21:04:27.057862 51928 net.cpp:367] PReLU3 -> conv3 (in-place)
I0110 21:04:27.060870 51928 net.cpp:122] Setting up PReLU3
I0110 21:04:27.061872 51928 net.cpp:129] Top shape: 64 32 1 1 (2048)
I0110 21:04:27.064882 51928 net.cpp:137] Memory required for data: 778752
I0110 21:04:27.065883 51928 layer_factory.hpp:77] Creating layer conv3_PReLU3_0_split
I0110 21:04:27.067889 51928 net.cpp:84] Creating Layer conv3_PReLU3_0_split
I0110 21:04:27.069893 51928 net.cpp:406] conv3_PReLU3_0_split <- conv3
I0110 21:04:27.071899 51928 net.cpp:380] conv3_PReLU3_0_split -> conv3_PReLU3_0_split_0
I0110 21:04:27.072902 51928 net.cpp:380] conv3_PReLU3_0_split -> conv3_PReLU3_0_split_1
I0110 21:04:27.074908 51928 net.cpp:122] Setting up conv3_PReLU3_0_split
I0110 21:04:27.075911 51928 net.cpp:129] Top shape: 64 32 1 1 (2048)
I0110 21:04:27.076915 51928 net.cpp:129] Top shape: 64 32 1 1 (2048)
I0110 21:04:27.078918 51928 net.cpp:137] Memory required for data: 795136
I0110 21:04:27.081924 51928 layer_factory.hpp:77] Creating layer conv4-1
I0110 21:04:27.083931 51928 net.cpp:84] Creating Layer conv4-1
I0110 21:04:27.084933 51928 net.cpp:406] conv4-1 <- conv3_PReLU3_0_split_0
I0110 21:04:27.085937 51928 net.cpp:380] conv4-1 -> conv4-1
I0110 21:04:27.090950 51928 net.cpp:122] Setting up conv4-1
I0110 21:04:27.090950 51928 net.cpp:129] Top shape: 64 2 1 1 (128)
I0110 21:04:27.092954 51928 net.cpp:137] Memory required for data: 795648
I0110 21:04:27.093958 51928 layer_factory.hpp:77] Creating layer conv4-1_conv4-1_0_split
I0110 21:04:27.095963 51928 net.cpp:84] Creating Layer conv4-1_conv4-1_0_split
I0110 21:04:27.096966 51928 net.cpp:406] conv4-1_conv4-1_0_split <- conv4-1
I0110 21:04:27.097968 51928 net.cpp:380] conv4-1_conv4-1_0_split -> conv4-1_conv4-1_0_split_0
I0110 21:04:27.099974 51928 net.cpp:380] conv4-1_conv4-1_0_split -> conv4-1_conv4-1_0_split_1
I0110 21:04:27.102980 51928 net.cpp:122] Setting up conv4-1_conv4-1_0_split
I0110 21:04:27.104987 51928 net.cpp:129] Top shape: 64 2 1 1 (128)
I0110 21:04:27.105989 51928 net.cpp:129] Top shape: 64 2 1 1 (128)
I0110 21:04:27.107995 51928 net.cpp:137] Memory required for data: 796672
I0110 21:04:27.108999 51928 layer_factory.hpp:77] Creating layer cls_loss
I0110 21:04:27.110000 51928 net.cpp:84] Creating Layer cls_loss
I0110 21:04:27.113009 51928 net.cpp:406] cls_loss <- conv4-1_conv4-1_0_split_0
I0110 21:04:27.115013 51928 net.cpp:406] cls_loss <- label_data_1_split_0
I0110 21:04:27.116017 51928 net.cpp:380] cls_loss -> cls_loss
…
