…
  stage: ""
}
I0111 15:47:03.852949  7128 solver.cpp:87] Creating training net from net file: E:/DeepLearning/mtcnn_train/det1_train.ptototxt
I0111 15:47:03.854451  7128 net.cpp:51] Initializing net from parameters: 
name: "PNet"
state {
  phase: TRAIN
  level: 0
  stage: ""
}
layer {
  name: "data"
  type: "MTCNNData"
  top: "data"
  top: "label"
  top: "roi"
  transform_param {
    scale: 0.0078125
    mirror: false
    mean_value: 127.5
  }
  data_param {
    source: "E:/DeepLearning/mtcnn_train/mtcnn_train_lmdb"
    batch_size: 64
    backend: LMDB
  }
}
layer {
  name: "conv1"
  type: "Convolution"
  bottom: "data"
  top: "conv1"
  param {
    lr_mult: 1
    decay_mult: 1
  }
  param {
    lr_mult: 2
    decay_mult: 0
  }
  convolution_param {
    num_output: 10
    kernel_size: 3
    stride: 1
    weight_filler {
      type: "xavier"
    }
    bias_filler {
      type: "constant"
      value: 0
    }
  }
}
layer {
  name: "PReLU1"
  type: "PReLU"
  bottom: "conv1"
  top: "conv1"
}
layer {
  name: "pool1"
  type: "Pooling"
  bottom: "conv1"
  top: "pool1"
  pooling_param {
    pool: MAX
    kernel_size: 2
    stride: 2
  }
}
layer {
  name: "conv2"
  type: "Convolution"
  bottom: "pool1"
  top: "conv2"
  param {
    lr_mult: 1
    decay_mult: 1
  }
  param {
    lr_mult: 2
    decay_mult: 0
  }
  convolution_param {
    num_output: 16
    kernel_size: 3
    stride: 1
    weight_filler {
      type: "xavier"
    }
    bias_filler {
      type: "constant"
      value: 0
    }
  }
}
layer {
  name: "PReLU2"
  type: "PReLU"
  bottom: "conv2"
  top: "conv2"
}
layer {
  name: "conv3"
  type: "Convolution"
  bottom: "conv2"
  top: "conv3"
  param {
    lr_mult: 1
    decay_mult: 1
  }
  param {
    lr_mult: 2
    decay_mult: 0
  }
  convolution_param {
    num_output: 32
    kernel_size: 3
    stride: 1
    weight_filler {
      type: "xavier"
    }
    bias_filler {
      type: "constant"
      value: 0
    }
  }
}
layer {
  name: "PReLU3"
  type: "PReLU"
  bottom: "conv3"
  top: "conv3"
}
layer {
  name: "conv4-1"
  type: "Convolution"
  bottom: "conv3"
  top: "conv4-1"
  param {
    lr_mult: 1
    decay_mult: 1
  }
  param {
    lr_mult: 2
    decay_mult: 0
  }
  convolution_param {
    num_output: 2
    kernel_size: 1
    stride: 1
    weight_filler {
      type: "xavier"
    }
    bias_filler {
      type: "constant"
      value: 0
    }
  }
}
layer {
  name: "cls_loss"
  type: "SoftmaxWithLoss"
  bottom: "conv4-1"
  bottom: "label"
  top: "cls_loss"
  loss_weight: 1
  propagate_down: true
  propagate_down: false
  loss_param {
    ignore_label: -1
  }
}
layer {
  name: "cls_Acc"
  type: "Accuracy"
  bottom: "conv4-1"
  bottom: "label"
  top: "cls_acc"
  include {
    phase: TRAIN
  }
  accuracy_param {
    ignore_label: -1
  }
}
layer {
  name: "conv4-2"
  type: "Convolution"
  bottom: "conv3"
  top: "conv4-2"
  param {
    lr_mult: 1
    decay_mult: 1
  }
  param {
    lr_mult: 2
    decay_mult: 0
  }
  convolution_param {
    num_output: 4
    kernel_size: 1
    stride: 1
    weight_filler {
      type: "xavier"
    }
    bias_filler {
      type: "constant"
      value: 0
    }
  }
}
layer {
  name: "roi_loss"
  type: "MTCNNEuclideanLoss"
  bottom: "conv4-2"
  bottom: "roi"
  bottom: "label"
  top: "roi_loss"
  loss_weight: 0.5
  loss_param {
    ignore_label: 0
  }
}
I0111 15:47:04.915158  7128 layer_factory.hpp:77] Creating layer data
I0111 15:47:04.921175  7128 db_lmdb.cpp:40] Opened lmdb E:/DeepLearning/mtcnn_train/mtcnn_train_lmdb
I0111 15:47:04.921175  7128 net.cpp:84] Creating Layer data
I0111 15:47:04.922178  7128 net.cpp:380] data -> data
I0111 15:47:04.922679  7128 net.cpp:380] data -> label
I0111 15:47:04.923681  7128 net.cpp:380] data -> roi
I0111 15:47:04.925686  7128 mtcnn_data_layer.cpp:45] output data size: 64,3,12,12
I0111 15:47:04.928694  7128 net.cpp:122] Setting up data
I0111 15:47:04.930699  7128 net.cpp:129] Top shape: 64 3 12 12 (27648)
I0111 15:47:04.930699  7128 net.cpp:129] Top shape: 64 (64)
I0111 15:47:04.931704  7128 net.cpp:129] Top shape: 64 4 (256)
I0111 15:47:04.931704  7128 net.cpp:137] Memory required for data: 111872
I0111 15:47:06.041877  7128 layer_factory.hpp:77] Creating layer label_data_1_split
I0111 15:47:06.041877  7128 net.cpp:84] Creating Layer label_data_1_split
I0111 15:47:06.043380  7128 net.cpp:406] label_data_1_split <- label
I0111 15:47:06.043880  7128 net.cpp:380] label_data_1_split -> label_data_1_split_0
I0111 15:47:06.044383  7128 net.cpp:380] label_data_1_split -> label_data_1_split_1
I0111 15:47:06.044883  7128 net.cpp:380] label_data_1_split -> label_data_1_split_2
I0111 15:47:06.046387  7128 net.cpp:122] Setting up label_data_1_split
I0111 15:47:06.046387  7128 net.cpp:129] Top shape: 64 (64)
I0111 15:47:06.047389  7128 net.cpp:129] Top shape: 64 (64)
I0111 15:47:06.048393  7128 net.cpp:129] Top shape: 64 (64)
I0111 15:47:06.048909  7128 net.cpp:137] Memory required for data: 112640
I0111 15:47:06.455476  7128 layer_factory.hpp:77] Creating layer conv1
I0111 15:47:06.455476  7128 net.cpp:84] Creating Layer conv1
I0111 15:47:06.457480  7128 net.cpp:406] conv1 <- data
I0111 15:47:06.457983  7128 net.cpp:380] conv1 -> conv1
I0111 15:47:09.766260  7128 net.cpp:122] Setting up conv1
I0111 15:47:09.766789  7128 net.cpp:129] Top shape: 64 10 10 10 (64000)
I0111 15:47:09.768265  7128 net.cpp:137] Memory required for data: 368640
I0111 15:47:12.989761  7128 layer_factory.hpp:77] Creating layer PReLU1
I0111 15:47:12.989761  7128 net.cpp:84] Creating Layer PReLU1
I0111 15:47:12.991266  7128 net.cpp:406] PReLU1 <- conv1
I0111 15:47:12.992770  7128 net.cpp:367] PReLU1 -> conv1 (in-place)
I0111 15:47:12.993273  7128 net.cpp:122] Setting up PReLU1
I0111 15:47:12.993773  7128 net.cpp:129] Top shape: 64 10 10 10 (64000)
I0111 15:47:12.994272  7128 net.cpp:137] Memory required for data: 624640
I0111 15:47:12.994776  7128 layer_factory.hpp:77] Creating layer pool1
I0111 15:47:12.995275  7128 net.cpp:84] Creating Layer pool1
I0111 15:47:12.995776  7128 net.cpp:406] pool1 <- conv1
I0111 15:47:12.996278  7128 net.cpp:380] pool1 -> pool1
I0111 15:47:12.996778  7128 net.cpp:122] Setting up pool1
I0111 15:47:12.997782  7128 net.cpp:129] Top shape: 64 10 5 5 (16000)
I0111 15:47:12.998282  7128 net.cpp:137] Memory required for data: 688640
I0111 15:47:12.998795  7128 layer_factory.hpp:77] Creating layer conv2
I0111 15:47:12.999287  7128 net.cpp:84] Creating Layer conv2
I0111 15:47:12.999805  7128 net.cpp:406] conv2 <- pool1
I0111 15:47:13.002295  7128 net.cpp:380] conv2 -> conv2
I0111 15:47:14.868571  7128 net.cpp:122] Setting up conv2
I0111 15:47:14.868571  7128 net.cpp:129] Top shape: 64 16 3 3 (9216)
I0111 15:47:14.870575  7128 net.cpp:137] Memory required for data: 725504
I0111 15:47:14.871076  7128 layer_factory.hpp:77] Creating layer PReLU2
I0111 15:47:14.871577  7128 net.cpp:84] Creating Layer PReLU2
I0111 15:47:14.872078  7128 net.cpp:406] PReLU2 <- conv2
I0111 15:47:14.873085  7128 net.cpp:367] PReLU2 -> conv2 (in-place)
I0111 15:47:14.874102  7128 net.cpp:122] Setting up PReLU2
I0111 15:47:14.874586  7128 net.cpp:129] Top shape: 64 16 3 3 (9216)
I0111 15:47:14.876090  7128 net.cpp:137] Memory required for data: 762368
I0111 15:47:14.876610  7128 layer_factory.hpp:77] Creating layer conv3
I0111 15:47:14.877092  7128 net.cpp:84] Creating Layer conv3
I0111 15:47:14.878105  7128 net.cpp:406] conv3 <- conv2
I0111 15:47:14.879629  7128 net.cpp:380] conv3 -> conv3
I0111 15:47:14.883110  7128 net.cpp:122] Setting up conv3
I0111 15:47:14.883610  7128 net.cpp:129] Top shape: 64 32 1 1 (2048)
I0111 15:47:14.884110  7128 net.cpp:137] Memory required for data: 770560
I0111 15:47:14.884630  7128 layer_factory.hpp:77] Creating layer PReLU3
I0111 15:47:14.886116  7128 net.cpp:84] Creating Layer PReLU3
I0111 15:47:14.886620  7128 net.cpp:406] PReLU3 <- conv3
I0111 15:47:14.887120  7128 net.cpp:367] PReLU3 -> conv3 (in-place)
I0111 15:47:14.887620  7128 net.cpp:122] Setting up PReLU3
I0111 15:47:14.888123  7128 net.cpp:129] Top shape: 64 32 1 1 (2048)
I0111 15:47:14.890126  7128 net.cpp:137] Memory required for data: 778752
I0111 15:47:14.890628  7128 layer_factory.hpp:77] Creating layer conv3_PReLU3_0_split
I0111 15:47:14.891129  7128 net.cpp:84] Creating Layer conv3_PReLU3_0_split
I0111 15:47:14.892132  7128 net.cpp:406] conv3_PReLU3_0_split <- conv3
I0111 15:47:14.892634  7128 net.cpp:380] conv3_PReLU3_0_split -> conv3_PReLU3_0_split_0
I0111 15:47:14.893637  7128 net.cpp:380] conv3_PReLU3_0_split -> conv3_PReLU3_0_split_1
I0111 15:47:14.895140  7128 net.cpp:122] Setting up conv3_PReLU3_0_split
I0111 15:47:14.895642  7128 net.cpp:129] Top shape: 64 32 1 1 (2048)
I0111 15:47:14.896142  7128 net.cpp:129] Top shape: 64 32 1 1 (2048)
I0111 15:47:14.896643  7128 net.cpp:137] Memory required for data: 795136
I0111 15:47:14.897148  7128 layer_factory.hpp:77] Creating layer conv4-1
I0111 15:47:14.897646  7128 net.cpp:84] Creating Layer conv4-1
I0111 15:47:14.898162  7128 net.cpp:406] conv4-1 <- conv3_PReLU3_0_split_0
I0111 15:47:14.900154  7128 net.cpp:380] conv4-1 -> conv4-1
I0111 15:47:14.904165  7128 net.cpp:122] Setting up conv4-1
I0111 15:47:14.904165  7128 net.cpp:129] Top shape: 64 2 1 1 (128)
I0111 15:47:14.905167  7128 net.cpp:137] Memory required for data: 795648
I0111 15:47:14.906169  7128 layer_factory.hpp:77] Creating layer conv4-1_conv4-1_0_split
I0111 15:47:14.906671  7128 net.cpp:84] Creating Layer conv4-1_conv4-1_0_split
I0111 15:47:14.907172  7128 net.cpp:406] conv4-1_conv4-1_0_split <- conv4-1
I0111 15:47:14.908677  7128 net.cpp:380] conv4-1_conv4-1_0_split -> conv4-1_conv4-1_0_split_0
I0111 15:47:14.910681  7128 net.cpp:380] conv4-1_conv4-1_0_split -> conv4-1_conv4-1_0_split_1
I0111 15:47:14.911685  7128 net.cpp:122] Setting up conv4-1_conv4-1_0_split
I0111 15:47:14.912185  7128 net.cpp:129] Top shape: 64 2 1 1 (128)
I0111 15:47:14.912686  7128 net.cpp:129] Top shape: 64 2 1 1 (128)
I0111 15:47:14.913188  7128 net.cpp:137] Memory required for data: 796672
I0111 15:47:14.913691  7128 layer_factory.hpp:77] Creating layer cls_loss
I0111 15:47:14.914199  7128 net.cpp:84] Creating Layer cls_loss
I0111 15:47:14.914691  7128 net.cpp:406] cls_loss <- conv4-1_conv4-1_0_split_0
I0111 15:47:14.914691  7128 net.cpp:406] cls_loss <- label_data_1_split_0
I0111 15:47:14.915205  7128 net.cpp:380] cls_loss -> cls_loss
…
